data/model_Red .pt (torch_old, 611048 bytes, 7 tensors)

layers.0.weight f4 [100, 12]
0	0x3de7acff	0.11312293
1	0xbe67dcb1	-0.22642781
2	0x3e8127d4	0.252257
3	0xbe81e87a	-0.25372678
4	0x3d9824de	0.07428907
5	0x3de6c69f	0.11268353
6	0xbd2bef03	-0.041975986
7	0xbe745a5a	-0.23862591
8	0x3e8c5c0d	0.2741398
9	0x3e3604b7	0.17775236
10	0x3e3ea65a	0.18618146
11	0x39958c66	0.000285241
12	0x3e34fd7d	0.17674823
13	0xbe4869a9	-0.19571556
14	0x3e5f64c3	0.21815781
15	0xbe8599d0	-0.26093912
16	0x3e75618b	0.23962991
17	0xbe0388a2	-0.1284509
18	0xbe3cf387	-0.18452273
19	0x3d581d4b	0.05276231
20	0xbe57930a	-0.21052185
21	0x3dee7868	0.116440594
22	0xbb6c150b	-0.0036023285
23	0xbd13fe51	-0.036131207
24	0xbdc15f21	-0.094419725
25	0xbe8dc0ac	-0.2768606
26	0xbd7e0b9e	-0.062022798
27	0x3da91930	0.08256757
28	0x3db7cec2	0.08974983
29	0x3d9f7234	0.077854544
30	0x3d598ad4	0.053110912
31	0x3e583ed1	0.21117713
32	0xbe3d5ea2	-0.18493131
33	0x3e899a4f	0.2687554
34	0x3dca393f	0.098742
35	0x3e2c14a3	0.16804747
36	0x3e6dccbf	0.23222636
37	0xbe229b30	-0.15879512
38	0x3e7c4f0b	0.24639527
39	0xbd849511	-0.06473745
40	0x3e585120	0.21124697
41	0x3d6a1937	0.057152953
42	0xbddcbb3a	-0.10777898
43	0xbd932c74	-0.07186213
44	0x3d4e6883	0.05039264
45	0xbe42f771	-0.19039704
46	0x3c852bbc	0.016256206
47	0xbe54c099	-0.20776595
48	0xbd9fdd95	-0.07805935
49	0x3de82d53	0.1133677
50	0x3e030072	0.12793139
51	0xbcc82b04	-0.024434574
52	0xbdf642fa	-0.120244935
53	0xbc40077f	-0.011720537
54	0xbd367e71	-0.044554178
55	0x3bfc7766	0.007704663
56	0xbdde2df8	-0.108486116
57	0x3dfafd72	0.12255372
58	0x3d9b481b	0.075821124
59	0x3b792f90	0.0038022734
60	0xbd96a7de	-0.07356237
61	0x3e3d95cc	0.18514174
62	0x3e6a77dd	0.22897287
63	0xbdc8c703	-0.098035835
64	0xbe13c089	-0.14428915
65	0x3e17a455	0.14808781
66	0x3d4fff3e	0.050780527
67	0x3d7b3507	0.061329868
68	0x3c85740c	0.016290687
69	0xbe33a1bf	-0.1754217
70	0x3d8d8117	0.069093876
71	0x3d091682	0.03346873
72	0xbce1323a	-0.02748977
73	0x3d0f0056	0.03491243
74	0xbc9b66ca	-0.018969912
75	0xbd9373a3	-0.0719979
76	0xbdb17637	-0.08665126
77	0x3e36cbf5	0.17851241
78	0x3c57913a	0.013157183
79	0xbde3ef75	-0.11129657
80	0xbde74ce9	-0.11293966
81	0x3d8f4a03	0.069965385
82	0x3e5f8e99	0.2183174
83	0x3e18bab1	0.14914967
84	0x3c07c661	0.008287043
85	0xbcda946d	-0.026682103
86	0xb68c48af	-4.1807866e-06
87	0x3df188ad	0.11793647
88	0xbdfb8ce6	-0.122827336
89	0x3d9fdfdb	0.07806369
90	0xbc3eb882	-0.01164067
91	0xbc6bf69e	-0.01440206
92	0x3d1e2a1c	0.038614377
93	0xbe208c6c	-0.15678567
94	0xb5e8443f	-1.7305209e-06
95	0xbe0f6b86	-0.1400586
96	0x3e6d0c36	0.2314919
97	0x3d8374dc	0.064187735
98	0x3e77594b	0.24155156
99	0x3c368bf1	0.011141763
100	0xbd0effcf	-0.034911927
101	0x3dac2101	0.084047325
102	0x3e39b601	0.18135835
103	0xbe4449bb	-0.19168751
104	0x3e0edd19	0.1395153
105	0xbe424528	-0.18971694
106	0xbe08dbc1	-0.1336508
107	0x3e2d90a6	0.1694971
108	0x3e7d3e8e	0.24730894
109	0x3d3fdde0	0.046842456
110	0x3e47d262	0.19513848
111	0xbe02aa87	-0.12760364
112	0xbe0b7ef9	-0.13622655
113	0x3d9d1c64	0.07671431
114	0xbd18f9c9	-0.03734759
115	0xbe2fbc27	-0.17161618
116	0xbe52f3a0	-0.20600748
117	0x3ddc7a75	0.10765544
118	0x3d8ce38a	0.06879337
119	0x3dde6850	0.1085974
120	0x3bf530bd	0.0074826167
121	0xbe1e8f83	-0.15484433
122	0xbc7dd608	-0.015492924
123	0xbc457d01	-0.012053729
124	0xb5444106	-7.311031e-07
125	0x3da13668	0.07871705
126	0xbd9a3799	-0.07530136
127	0xbdc8b33f	-0.097998135
128	0x37988e41	1.8186054e-05
129	0xbd075c63	-0.03304709
130	0xb6fa7270	-7.463903e-06
131	0x3d9cd89b	0.07658502
132	0x3ddbaaab	0.10725912
133	0xbe0f2998	-0.1398071
134	0xbc1e77b5	-0.009672095
135	0xbd14c6df	-0.03632247
136	0x3c85ad76	0.016318064
137	0x3dc8a552	0.09797157
138	0x3e26579e	0.16244361
139	0xbe1d17d9	-0.15341128
140	0x3e5906ed	0.21194048
141	0xbe287ddd	-0.16454263
142	0x3d8e5e85	0.06951622
143	0x3db76f4f	0.08956777
144	0x3e5d0525	0.21583994
145	0x3d2ae88b	0.041725677
146	0xbe8b7f61	-0.2724562
147	0xbe29fad5	-0.16599591
148	0xbd5c8df2	-0.053846307
149	0xbc80045f	-0.015627084
150	0xbdb4d882	-0.08830358
151	0x3d617670	0.05504459
152	0x3e680c96	0.22661051
153	0x3d0e07d7	0.034675445
154	0xbb889e8f	-0.0041692923
155	0x3e5fee69	0.2186829
156	0xbdedc029	-0.11608917
157	0xbe851c16	-0.2599799
158	0x3e8581bb	0.2607554
159	0xbde309a6	-0.11085825
160	0xbd87d4da	-0.06632395
161	0x3e315d5f	0.17320774
162	0x3e4006d7	0.18752609
163	0x3dc85e76	0.09783642
164	0x3e25d3ac	0.16194028
165	0xbcb19c16	-0.021680873
166	0xbda56b6a	-0.08077128
167	0x3e789e48	0.2427913
168	0xbe84c849	-0.25934055
169	0xbe113f34	-0.14184266
170	0xbe6ce357	-0.23133598
171	0xbe91f815	-0.28509584
172	0x3dc0e16a	0.09417994
173	0x3e3ea7ee	0.18618748
174	0x3e3063ff	0.17225645
175	0xbe33b918	-0.17551076
176	0x3e298fd3	0.16558771
177	0x3e59eab6	0.21280941
178	0xbe059894	-0.13046485
179	0x3e32a75e	0.17446658
180	0x3e1e14c6	0.15437612
181	0xbe39ff93	-0.181639
182	0xbdc404db	-0.095712386
183	0x3e00d9fd	0.12583156
184	0x3e3fee53	0.18743257
185	0x3e30ca30	0.17264628
186	0xbe2da823	-0.1695867
187	0xbe1a2597	-0.15053402
188	0x3e0b1737	0.13583075
189	0x3e40a5ea	0.18813291
190	0x3e307f75	0.17236121
191	0x3cf8ce04	0.030371673
192	0xbe152e13	-0.14568357
193	0xbe635223	-0.22199301
194	0x3e539361	0.2066169
195	0x3e3aa9c7	0.18228827
196	0x3da230e8	0.079194844
197	0x3e808b86	0.25106448
198	0xbe8b645c	-0.27225006
199	0x3da80863	0.08204725
200	0x3ca57a13	0.020199811
201	0xbcd80f83	-0.026374584
202	0x3e60bcda	0.21947041
203	0x3e4f255f	0.202291
204	0x3e3b9edc	0.18322319
205	0x3d630eed	0.055434156
206	0x3e8a48f8	0.27008796
207	0xbe3c4d2a	-0.18388811
208	0x3e624fec	0.221008
209	0x3e101373	0.1406992
210	0x3e9227da	0.2854603
211	0x3e79530b	0.24348085
212	0x3d0607a3	0.032722127
213	0x3e7cc76d	0.2468545
214	0xbd9b27ae	-0.07575928
215	0xbe3fdfef	-0.18737768
216	0x3d5522c8	0.052035123
217	0xb539675e	-6.906829e-07
218	0xbe1ccee2	-0.15313295
219	0x3e1b7390	0.15180802
220	0xbcec43f5	-0.028840998
221	0xbe0968c3	-0.1341887
222	0xbe1d9736	-0.15389714
223	0xb8a53414	-7.8775134e-05
224	0x360df278	2.1151773e-06
225	0xb84d0ef6	-4.8889742e-05
226	0xbcb37314	-0.02190546
227	0x3c95febc	0.018309943
228	0xbe1770f3	-0.1478918
229	0xbe0314c1	-0.12800886
230	0xbdcfb47d	-0.10141847
231	0x38342899	4.2953154e-05
232	0xb7deb02e	-2.6546502e-05
233	0xbd795a80	-0.060877323
234	0x3d705d86	0.05868294
235	0xbd703bce	-0.058650784
236	0xbb48da5c	-0.003064773
237	0x3d107067	0.035263445
238	0xbb1f5393	-0.0024311289
239	0x36cae4d4	6.046708e-06
240	0xbd9b8d39	-0.075952955
241	0x3e1269a8	0.14298117
242	0x3e7ff257	0.24994789
243	0x3d8ed67f	0.06974506
244	0x3db6e09b	0.08929559
245	0x3cfe3a60	0.031033695
246	0x3e4a6290	0.19764161
247	0xbd865aad	-0.06560264
248	0x3e073854	0.13205081
249	0xbd153ff4	-0.036437944
250	0x3e2dda87	0.16977893
251	0x3e86f107	0.26355764
252	0xbcdb78df	-0.026791034
253	0xbe509cdb	-0.20372336
254	0x3e201181	0.15631677
255	0xbe3a5810	-0.18197656

layers.0.bias f4 [100]
0	0xbbc16671	-0.0059021045
1	0x3e28518a	0.16437355
2	0xbd953b14	-0.07286659
3	0x3e820056	0.2539088
4	0xbdf3e0a2	-0.1190808
5	0xbcfa982a	-0.030590136
6	0x3dd1050e	0.10206042
7	0xbd61317a	-0.054978825
8	0xbe097255	-0.1342252
9	0x3e33e138	0.17566383
10	0xbe0d3408	-0.1378938
11	0x3d7672d8	0.060168117
12	0x3e5eb365	0.21748121
13	0xbe8245ba	-0.25443822
14	0x3e09183d	0.13388152
15	0x3e1d3dc4	0.15355593
16	0x3c334fdd	0.010944334
17	0x3e0be71e	0.13662383
18	0xbda7b9bf	-0.08189725
19	0x3d96dc19	0.07366199
20	0xbd371ca1	-0.044705037
21	0x3e742c27	0.23844968
22	0x3ddbb72b	0.10728296
23	0x3dd71d36	0.105036184
24	0x3e70aa9e	0.23502585
25	0xbe00586e	-0.12533733
26	0x3e307d2e	0.17235252
27	0x345d4f78	2.061114e-07
28	0xbe6d9aa5	-0.23203523
29	0xbb0a7992	-0.002112959
30	0xbd577258	-0.05259928
31	0x3e06edb4	0.13176614
32	0xbe2b9a79	-0.16758145
33	0x3c4ad8d9	0.012380802
34	0x3c0403b4	0.0080575235
35	0x3c0f4a20	0.0087457
36	0xbd23c28e	-0.039980464
37	0xbe0c692c	-0.13711995
38	0xbafc102c	-0.0019230894
39	0xbb03b30b	-0.0020095732
40	0x3e4663fe	0.19374081
41	0x3e17b33c	0.14814466
42	0xbe41a50e	-0.1891062
43	0x3c9693a8	0.018380955
44	0x3dfa5ff6	0.12225334
45	0xbd7f0f37	-0.06227037
46	0x3e4ba1c8	0.19885933
47	0xbe243142	-0.16034415
48	0x3dffd95f	0.12492632
49	0x3d954f74	0.07290545
50	0x3e667560	0.22505713
51	0x3de24282	0.110478416
52	0x3d32ea4c	0.043680474
53	0x3db1eda1	0.08687902
54	0x3e4ebd5f	0.20189427
55	0xbd72d6b9	-0.059286807
56	0x3da65288	0.0812121
57	0x3dae1ab1	0.08501185
58	0xbdce6257	-0.100773506
59	0x3b3b62de	0.0028592865
60	0xbd7f12bf	-0.062273737
61	0xbaa06190	-0.0012236107
62	0x3e6acfca	0.22930828
63	0xbd84b0c7	-0.0647903
64	0x3c81cfc0	0.015846133
65	0xb7230682	-9.717072e-06
66	0xbe780c2a	-0.2422339
67	0x3ce11393	0.027475154
68	0x3e0d6333	0.13807373
69	0x3d43faea	0.047846712
70	0x3e031084	0.12799269
71	0xbc96b79d	-0.0183981
72	0x3e8872a0	0.26649952
73	0xbe270147	-0.16309081
74	0xbe80b5d7	-0.25138733
75	0xbc67534f	-0.014118983
76	0x3d394ce0	0.04523933
77	0x3df52114	0.119692
78	0x3dd288ed	0.10280023
79	0xbd6c983f	-0.05776238
80	0xb662bfbe	-3.3788233e-06
81	0xbe490533	-0.1963089
82	0x3dc7a811	0.09748853
83	0x3d4c9780	0.04994917
84	0xbd911370	-0.070837855
85	0x3e25af96	0.16180262
86	0xbd1e716a	-0.03868238
87	0xbe65986c	-0.22421426
88	0xbd33124a	-0.043718614
89	0xbd382f0b	-0.04496674
90	0xbe1dcd92	-0.1541045
91	0x3d35a46e	0.044346265
92	0xbe426079	-0.18982114
93	0xbe0772f0	-0.13227439
94	0x3e411e4c	0.18859214
95	0xbd983a36	-0.07432978
96	0xbe8132d0	-0.2523408
97	0x3e46c232	0.19410017
98	0xbd5aad73	-0.05338807
99	0xbe198ede	-0.14995906

layers.2.weight f4 [300, 100]
0	0x3d867b33	0.06566467
1	0x3d3ae1ad	0.045625377
2	0xbd67d16d	-0.05659621
3	0x3d957068	0.072968304
4	0x3ae1b020	0.0017218627
5	0xbd0c4d00	-0.03425312
6	0xbae9740e	-0.0017811076
7	0xbbcba85d	-0.006215139
8	0xbce0c3b0	-0.027437061
9	0x3d348a80	0.044077396
10	0xb8cf725e	-9.891832e-05
11	0x3d65ce6c	0.056105062
12	0xbc3ea683	-0.011636379
13	0xbd651435	-0.055927474
14	0x3d90bb09	0.07066924
15	0xbd1302f6	-0.035891496
16	0xbdb7a459	-0.08966894
17	0xbcdd556b	-0.02701827
18	0x3908d885	0.0001305063
19	0xbc063f70	-0.008193836
20	0xbdbbd07f	-0.09170627
21	0xbccba328	-0.024858072
22	0x3ceceaf7	0.028920634
23	0x3bb54c72	0.0055327946
24	0x3db8d162	0.090243116
25	0xba7e1dd2	-0.00096937746
26	0xbca2997e	-0.019848581
27	0x3649d593	3.007565e-06
28	0xbd387dc3	-0.04504181
29	0xba4b1a31	-0.0007747738
30	0xbba40025	-0.0050049
31	0xbd3fd4c6	-0.046833776
32	0x3ca94422	0.020662371
33	0x3d211eb2	0.039335914
34	0xb955f57a	-0.0002040471
35	0xbd3cbd57	-0.046079006
36	0xb98b7720	-0.000266009
37	0x36306a45	2.62879e-06
38	0xb62e2a47	-2.595263e-06
39	0xbc219f99	-0.009864711
40	0x3cf86b79	0.030324684
41	0xbd37a157	-0.0448316
42	0xbcf8ab8b	-0.030355236
43	0xb843a5eb	-4.6646146e-05
44	0xbd84bf52	-0.06481804
45	0x3d835172	0.06412019
46	0xbd053773	-0.032523584
47	0x38021948	3.101796e-05
48	0x3c95c768	0.01828356
49	0x3a9f1051	0.00121356
50	0xbd9f5153	-0.07779183
51	0x3db59d47	0.08867889
52	0x3d76e958	0.060281128
53	0xbc7e6df0	-0.015529141
54	0xbd3da012	-0.046295233
55	0x38f040e1	0.000114561764
56	0xbcb87892	-0.02251843
57	0x384f304b	4.9397622e-05
58	0xbdb0eabf	-0.08638524
59	0x3d959b39	0.07304997
60	0xbbd42675	-0.006474311
61	0xb773e624	-1.45375125e-05
62	0x3d3f7e02	0.04675103
63	0x3d70557c	0.058675274
64	0xbaa525cf	-0.0012599769
65	0x376a1e40	1.395453e-05
66	0x3d82e146	0.06390624
67	0xb9127145	-0.00013965841
68	0x3c013777	0.007886759
69	0xbb17f14c	-0.0023184596
70	0x3d9f0257	0.07764118
71	0x37806aaa	1.5308458e-05
72	0x3d68f295	0.05687197
73	0xbb7cb896	-0.003856217
74	0x3c52e70f	0.0128724715
75	0x37b3f1f4	2.1451131e-05
76	0xbb9efd96	-0.004852007
77	0xb6160b45	-2.2358302e-06
78	0x3d263b8e	0.04058414
79	0xb86d2043	-5.653525e-05
80	0xb5199296	-5.721025e-07
81	0xba99b16d	-0.0011725851
82	0x3d4c4589	0.049871
83	0x3dbba28d	0.091618635
84	0xbc58706b	-0.013210396
85	0xbc175735	-0.0092371
86	0x3d00067c	0.031256184
87	0x3d8f3c2e	0.069939
88	0x3bafb581	0.005362213
89	0xbd7c932b	-0.061663788
90	0x3a928e20	0.0011181273
91	0x3abcaa2f	0.001439398
92	0xbd808fdf	-0.06277441
93	0xbbade524	-0.0053068567
94	0xbd96a605	-0.073558845
95	0x38bd42d4	9.02467e-05
96	0xbd5b0df6	-0.05348011
97	0x3d64b930	0.05584067
98	0xb82e99dc	-4.1628125e-05
99	0xb7397376	-1.1053742e-05
100	0xba5280fc	-0.00080300844
101	0x3c88f533	0.016718483
102	0x3b0ae243	0.0021191991
103	0xbc16b412	-0.009198206
104	0xba5e1440	-0.00084716454
105	0xbd568c5b	-0.052379947
106	0x3da71ba8	0.08159572
107	0x36e0a655	6.695084e-06
108	0xbcaa5164	-0.020790763
109	0xbcffefd6	-0.031242292
110	0x38433e00	4.6549365e-05
111	0x3ca9a7c7	0.020709885
112	0xbd412e79	-0.04716346
113	0xbd913d1e	-0.07091735
114	0xbb87932d	-0.004137418
115	0x3d37d027	0.044876244
116	0xbcef6efa	-0.029227722
117	0x3d783e88	0.06060651
118	0xb5dea82a	-1.6589231e-06
119	0xb84a2e9c	-4.820396e-05
120	0x3ca9ba53	0.02071873
121	0x3c93ab2b	0.018025955
122	0xbd7ac5fa	-0.06122396
123	0x3b4b5b10	0.003102962
124	0x3d2a0155	0.041505177
125	0xba14e95f	-0.0005680527
126	0xbd0c3ba5	-0.03423657
127	0xb6af4021	-5.222872e-06
128	0xbd9282cc	-0.07153854
129	0xba2c8ca5	-0.0006582237
130	0x36418c8a	2.8841046e-06
131	0xbd7741ce	-0.06036549
132	0xbdb4f191	-0.08835138
133	0xbd244f73	-0.04011483
134	0xbb651c22	-0.0034959395
135	0x3cdd4b52	0.027013455
136	0xb709d5fa	-8.215657e-06
137	0xbc045d19	-0.008078837
138	0x36effaa4	7.1519335e-06
139	0xbcbec404	-0.023286827
140	0x3d00f2dd	0.031481612
141	0xbce23a32	-0.02761564
142	0xbd3480f7	-0.044068303
143	0xb8fac6df	-0.000119579716
144	0x3da89963	0.08232381
145	0xbd1fee3e	-0.039045565
146	0x3d9d368f	0.07676422
147	0xbabe802d	-0.0014534049
148	0xbd4afd6b	-0.049558084
149	0xbc9efb91	-0.019407066
150	0x3babc6e6	0.0052422164
151	0x3cf835f3	0.030299162
152	0xbc0fe951	-0.008783654
153	0xbd8cce1f	-0.06875252
154	0x3b624bb0	0.0034529977
155	0xbba39e66	-0.004993248
156	0xbcb5aa5b	-0.022175958
157	0x384ff33f	4.9579186e-05
158	0xbd31f490	-0.043446124
159	0x3d88865a	0.066662505
160	0xbba0635f	-0.0048946585
161	0xbad94c45	-0.0016578516
162	0x3cf27c3a	0.029600251
163	0xbc8714c5	-0.016489396
164	0xba45b1ca	-0.0007541446
165	0xbaa160e0	-0.0012312196
166	0xbd04c902	-0.03241826
167	0xb7326b5a	-1.06346215e-05
168	0xbccd09f5	-0.025029162
169	0xb5996dbe	-1.1431327e-06
170	0x3caafb6e	0.020871844
171	0xb7e82c7b	-2.7677268e-05
172	0xbbffdec7	-0.0078085396
173	0x3dba937c	0.09110162
174	0xbc297266	-0.010342216
175	0x37d57b9e	2.5449142e-05
176	0xbac06a2d	-0.001468008
177	0x3ba2eb5b	0.004971904
178	0x3d9b879f	0.07594227
179	0x3aa9c892	0.0012953451
180	0xb7e62691	-2.7436095e-05
181	0x3c356949	0.011072465
182	0x3d0e4464	0.03473319
183	0xbc786251	-0.015160159
184	0x3af80496	0.0018922265
185	0xbbbf8626	-0.005844849
186	0x3c7f3ed8	0.015578948
187	0x3cd31cfb	0.025770655
188	0xb7a2bcd3	-1.9399833e-05
189	0x3d1aa780	0.037757397
190	0x3d3acfa5	0.04560818
191	0xbb4e81af	-0.0031510403
192	0xbbc35169	-0.0059606326
193	0xbb27f268	-0.0025626663
194	0x3d606e05	0.054792423
195	0x3a16b915	0.0005749625
196	0xbbf05ff0	-0.0073356554
197	0x3d86096f	0.06544768
198	0xb5c4dba9	-1.4667067e-06
199	0x3c0c4b75	0.008562912
200	0x3d7d3ce1	0.061825637
201	0x3d4dec50	0.050274193
202	0xbd9f053d	-0.07764671
203	0xbdba8af4	-0.091085345
204	0x3ad1db7e	0.0016010848
205	0xbd622503	-0.05521108
206	0x3d9d5935	0.076830305
207	0xb701a535	-7.727464e-06
208	0xbc294808	-0.010332115
209	0x3c5a2f2f	0.0133169135
210	0x3741eeee	1.1559327e-05
211	0xbceccf91	-0.02890757
212	0x3c37c954	0.011217434
213	0x3d6be5c9	0.057592187
214	0xbd4c94fc	-0.04994677
215	0xbd3aab4e	-0.045573525
216	0xbd75e761	-0.060035113
217	0x3d1ee509	0.038792644
218	0xb7e82068	-2.7671646e-05
219	0x39112514	0.0001384209
220	0x3cb115db	0.021616867
221	0xbd8262f5	-0.06366531
222	0xbd7ffd28	-0.062497288
223	0x3c8f8aea	0.017522294
224	0x3d88302e	0.066498145
225	0xba24524f	-0.00062683685
226	0xbd2ad4b1	-0.041706745
227	0x37bb31d2	2.2315337e-05
228	0xbdade9ed	-0.084918834
229	0xb9e3e3e5	-0.0004346661
230	0x382bba84	4.0943283e-05
231	0x3d1688b3	0.03675146
232	0x3d976b17	0.07393473
233	0xbcb2e799	-0.02183895
234	0xb9e57241	-0.0004376341
235	0x3a69286a	0.0008894267
236	0xbb6d50f0	-0.0036211573
237	0x381a2bba	3.6757185e-05
238	0xb7b5d228	-2.1674743e-05
239	0x3c531bf9	0.012885087
240	0x3d278831	0.040901367
241	0xbd5df67b	-0.05419014
242	0xbd1cc197	-0.03827056
243	0x3690d11f	4.3158793e-06
244	0x3ca673aa	0.020318825
245	0x3d3f1265	0.0466484
246	0x3da35293	0.07974734
247	0x38b5fdfc	8.678061e-05
248	0xbd599852	-0.05312378
249	0xbd249998	-0.04018554
250	0x3d902e60	0.07040095
251	0x3dbd0b54	0.09230676
252	0xbc6c8468	-0.014435865
253	0xbc9ad40e	-0.018899944
254	0x3d558cb2	0.05213613
255	0xb824323a	-3.9147424e-05

layers.2.bias f4 [300]
0	0x3db4259a	0.087962344
1	0xbd5e9cbf	-0.054348703
2	0xbc94775b	-0.01812332
3	0x3be4bb6a	0.0069803493
4	0xbc8fcb10	-0.017552882
5	0xbce1b567	-0.02755232
6	0xb570f0e9	-8.975754e-07
7	0x3d4cb44a	0.049976625
8	0x3d34d34a	0.044146813
9	0x3acc4f61	0.0015587622
10	0x3bb2d779	0.0054578152
11	0x3ba13e79	0.0049207774
12	0x3d871358	0.065954864
13	0xbc3c8c72	-0.011508094
14	0xbcbed67b	-0.023295632
15	0xb62f0cc4	-2.6084463e-06
16	0xbc748a67	-0.014925576
17	0xbc61f6de	-0.013791768
18	0xbb06cbbe	-0.0020568217
19	0x3ab0a5de	0.0013477167
20	0xbcd28d1f	-0.025702057
21	0x3882bc50	6.233959e-05
22	0xbd5c215a	-0.053742744
23	0xbc7ecc7b	-0.015551682
24	0xbc8b2f6f	-0.016990392
25	0xbbc7a365	-0.006092476
26	0x3d33210d	0.04373269
27	0x3d39b318	0.045336813
28	0x3d5abf15	0.053404886
29	0xbcb51e46	-0.022109162
30	0xbbd88628	-0.0066077895
31	0x3d240ab7	0.04004928
32	0x3d0ac1a7	0.033876088
33	0x3cd8ef9e	0.026481446
34	0x3c014040	0.007888854
35	0x3bfb12d0	0.0076621547
36	0xbcc85bb5	-0.024457792
37	0x3c87cead	0.016578043
38	0x3c2769ab	0.010218064
39	0x3d7cfa00	0.061761856
40	0x37556cb6	1.2721101e-05
41	0xbc0bca59	-0.00853213
42	0xbd4ba100	-0.04971409
43	0x3c7cc408	0.015427597
44	0x3d6e096c	0.058114454
45	0x3d86fbb4	0.06590977
46	0x39956039	0.00028491186
47	0x3c933980	0.017971754
48	0xbd2b0c7c	-0.041759953
49	0x3dc002a7	0.09375506
50	0x37492797	1.1989751e-05
51	0x3d5c39cd	0.05376606
52	0x3d96ac5a	0.07357092
53	0x3c0a79e1	0.00845191
54	0x3db12d21	0.08651186
55	0x3d894d47	0.067041926
56	0xbd3c0898	-0.045906633
57	0x3d40ce11	0.04707152
58	0xbd52e161	-0.05148447
59	0xbd8aed08	-0.067834914
60	0xbd91fab7	-0.07127898
61	0xb7d52001	-2.5406482e-05
62	0xb90f0945	-0.00013640996
63	0xb68511b3	-3.9657693e-06
64	0xbcf3759c	-0.029719166
65	0xbd820711	-0.06349004
66	0xbd7cb962	-0.061700232
67	0xbb42ae43	-0.002970592
68	0x3c6873e8	0.01418779
69	0xba866800	-0.0010254383
70	0x38a550c0	7.882854e-05
71	0xbbe5c69c	-0.0070122015
72	0xb70d53c1	-8.423755e-06
73	0xbc90d899	-0.017681407
74	0xb30e9bf0	-3.3203776e-08
75	0xbaad0dcf	-0.0013202968
76	0x3b8e1c88	0.0043368973
77	0x3d35f13a	0.044419505
78	0x3a555358	0.00081377244
79	0xbd3fa0a7	-0.04678407
80	0x3d80b6c9	0.062848635
81	0xb7da1346	-2.59966e-05
82	0x3c27c07b	0.010238762
83	0xbd0211ad	-0.03175514
84	0xbca1b078	-0.019737467
85	0xbb8705be	-0.0041205576
86	0x3da0d796	0.0785362
87	0x3da36451	0.07978118
88	0xbb8045d3	-0.0039145737
89	0xbd9ce9a5	-0.07661752
90	0xbd4273a8	-0.04747358
91	0xbbaaba2d	-0.005210182
92	0xb704f36d	-7.92449e-06
93	0xb6e4ee08	-6.82264e-06
94	0xbb394776	-0.0028271354
95	0x3c569ebd	0.01309937
96	0x3aa58d60	0.0012630634
97	0xbb723c21	-0.003696211
98	0xb95ac815	-0.00020864636
99	0xbd5cfb88	-0.053950816
100	0x3cf227c6	0.029559981
101	0x37e07e4c	2.6761692e-05
102	0x3b513d5e	0.0031927447
103	0x3b44707a	0.0029974268
104	0x3d602599	0.054723356
105	0xbd36f48b	-0.044666808
106	0xba400af2	-0.000732585
107	0xb59ef6ca	-1.1843742e-06
108	0xbbfc0061	-0.007690475
109	0xbb13da08	-0.0022560377
110	0xbc14bd1c	-0.00907829
111	0x3943ae37	0.00018661549
112	0xbca90440	-0.02063191
113	0xb8ec61e3	-0.0001127159
114	0x3ce6fa6b	0.02819558
115	0xbd57e3e8	-0.052707583
116	0x38ff0877	0.00012160924
117	0xbac6fde4	-0.0015181866
118	0xbce31544	-0.027720101
119	0x3d9dd262	0.07706143
120	0x3d3cd47c	0.04610108
121	0xbce72fbe	-0.028221007
122	0xbd0b0b70	-0.033946455
123	0xb7314052	-1.0564998e-05
124	0xbb7e5641	-0.0038808736
125	0xb699ba5e	-4.5814513e-06
126	0xbd9bcfe5	-0.07608012
127	0xbc272c6e	-0.010203464
128	0xbb6a11c5	-0.0035716158
129	0xb72dc2ed	-1.0356988e-05
130	0x3920155c	0.00015266746
131	0x391d4eef	0.00015002092
132	0x3ca759e1	0.0204286
133	0x3c96b7cf	0.018398194
134	0x3b89fee7	0.004211295
135	0xbd69e0ab	-0.057099026
136	0x3b2748ba	0.0025525526
137	0xb8484d92	-4.775596e-05
138	0xb63d4726	-2.8204608e-06
139	0xbd6ee1b0	-0.0583207
140	0x3d8bbd0d	0.06823168
141	0x3d960f51	0.0732714
142	0xbd236d3a	-0.03989909
143	0x3d9712d9	0.07376642
144	0xb978f3cc	-0.00023741944
145	0x3dbdcf90	0.09268105
146	0xbce9b8ab	-0.02853044
147	0xbd4baaa9	-0.0497233
148	0x3c851114	0.016243495
149	0x3d3f5a38	0.0467169
150	0x3cf47e46	0.029845368
151	0x3c521d2a	0.012824336
152	0xbada9ee9	-0.0016679439
153	0x3c2a0a4d	0.010378432
154	0xbd5f8cdb	-0.05457769
155	0xb9a64188	-0.00031710812
156	0x3cee34ae	0.029077854
157	0x3dc0a35c	0.09406158
158	0x3bb601f6	0.005554433
159	0xbac9f3fe	-0.0015407798
160	0xbd0bbc8a	-0.03411535
161	0x3d1b24b2	0.037876792
162	0x352f6328	6.533687e-07
163	0xbdaee8ee	-0.085405216
164	0xbd4e9a7b	-0.050440293
165	0x3be0e7f5	0.006863589
166	0xb9291de2	-0.00016128228
167	0x3c6c6a83	0.014429691
168	0x3d83f2df	0.06442808
169	0x3dad8ebd	0.08474491
170	0xbc3ddef7	-0.0115888035
171	0xb68846ae	-4.061344e-06
172	0x3d665ca0	0.056240678
173	0xbd927b4d	-0.07152424
174	0xb82fd380	-4.1920226e-05
175	0xb78e8280	-1.6988488e-05
176	0xbbad328b	-0.005285566
177	0x3d21d5e0	0.039510608
178	0x3b8db370	0.004324369
179	0x3a7aa8ee	0.00095619156
180	0xbb28991a	-0.0025726021
181	0x3c746c58	0.014918409
182	0xbb7c6ae8	-0.003851587
183	0xbbee17fe	-0.0072660437
184	0xbc35e65a	-0.011102283
185	0xbdb730d8	-0.08944863
186	0x3d8ccd7a	0.06875129
187	0xbd1c22f4	-0.03811927
188	0xbd4a39aa	-0.0493714
189	0xb64b8627	-3.0327444e-06
190	0xbd43d43b	-0.04780982
191	0x3d99bc0b	0.075065695
192	0x3c6f446e	0.014603717
193	0xb6faffe9	-7.4803725e-06
194	0xbd1b2ef0	-0.03788656
195	0xbcd7a1ca	-0.026322264
196	0x3b9750e6	0.004617798
197	0xbbb4e843	-0.005520852
198	0x3dc45f2b	0.09588464
199	0x3d222274	0.03958364
200	0xbbfffc3f	-0.0078120525
201	0x3d19f860	0.037590384
202	0xbb0b7087	-0.0021276788
203	0x3cbed942	0.023296956
204	0x3d2ec11c	0.042664632
205	0xbade46d3	-0.0016958363
206	0x3d5e2a64	0.054239646
207	0x3cebb005	0.028770456
208	0xbdaa7b6f	-0.08324324
209	0xba3322f3	-0.0006833516
210	0x3dac123a	0.08401914
211	0x3dbc908d	0.092072584
212	0x3cc692a6	0.02423985
213	0xbb0351da	-0.00200378
214	0xbd9346e5	-0.071912564
215	0xbc0bfa2d	-0.008543533
216	0xbab6d31c	-0.0013948414
217	0x3d1db3a4	0.038501397
218	0x3da1d9c4	0.079028636
219	0xbdaf6c62	-0.08565594
220	0x3731b0f4	1.0591222e-05
221	0xbb18274b	-0.002321678
222	0xbd90b737	-0.070661955
223	0x3daea364	0.08527258
224	0xbd240290	-0.040041506
225	0xbcb2c448	-0.02182211
226	0xb9c5763e	-0.00037662865
227	0xb9cddc1a	-0.00039264635
228	0xba9499ac	-0.0011337302
229	0x3d00ce92	0.031447
230	0x39096f80	0.00013106875
231	0xbcc95c18	-0.024580047
232	0xbd820538	-0.06348652
233	0x3d0ba629	0.03409401
234	0xbdadbdf1	-0.08483494
235	0x396b1ca6	0.00022422019
236	0x3da75b54	0.08171716
237	0x3c07cf1f	0.008289128
238	0xbd8fb671	-0.0701722
239	0x3da4b928	0.08043128
240	0x3d8afd3e	0.06786583
241	0x3d6cd34c	0.057818696
242	0x3aa401c3	0.0012512732
243	0x3d8dbd52	0.069208756
244	0x3d83fd91	0.06444848
245	0x3dc3c8bd	0.09559772
246	0x3ab864ce	0.0014068128
247	0xbd13e0bc	-0.036102995
248	0x3d8492b2	0.064732924
249	0xba9686c0	-0.001148425
250	0x3d7afe87	0.061277892
251	0xbda077b0	-0.078353286
252	0x3d5c3026	0.053756855
253	0xbc02cdf5	-0.007983674
254	0xbdb1a3c9	-0.08673818
255	0x3d8d19cb	0.06889685

layers.4.weight f4 [400, 300]
0	0xbc4076a6	-0.011747038
1	0x3ca3056d	0.019900048
2	0xbd01726a	-0.031603254
3	0x367969d2	3.7165487e-06
4	0xb69af87a	-4.618484e-06
5	0x35602018	8.3493205e-07
6	0xb60bfdd9	-2.0860373e-06
7	0xbd109401	-0.035297398
8	0x3649e45b	3.0084254e-06
9	0x379de8f6	1.882434e-05
10	0xba6f496d	-0.0009128068
11	0xbc5b8aae	-0.013399763
12	0x390ba389	0.00013316995
13	0xb8606168	-5.349648e-05
14	0xbc045906	-0.0080778655
15	0xb40cce10	-1.3113481e-07
16	0xba82b22c	-0.0009971312
17	0xb8218552	-3.8509555e-05
18	0x3a10dd09	0.0005526101
19	0xb92a9cdf	-0.00016270902
20	0xb641f39b	-2.8901038e-06
21	0x384584e8	4.709224e-05
22	0x3c9afbe2	0.018918935
23	0xba9a4429	-0.0011769581
24	0x3953bbf8	0.00020192552
25	0xbb7a3c00	-0.0038182735
26	0xbad046f1	-0.0015890283
27	0xbca0b853	-0.019619143
28	0x3c938c11	0.018011125
29	0x3cc9ef08	0.024650112
30	0xbc33a1c5	-0.010963862
31	0xbc552ec3	-0.013011637
32	0x3c935c2b	0.017988285
33	0xbbe17741	-0.0068806713
34	0xbc4a993b	-0.012365635
35	0xb9048d9a	-0.00012641252
36	0x3ccbdf3f	0.024886725
37	0x36e049d9	6.684317e-06
38	0xb7851f9c	-1.5869555e-05
39	0xb63b9cb6	-2.795639e-06
40	0x369ce2a0	4.675545e-06
41	0xb7a8575e	-2.0067844e-05
42	0x3c566960	0.013086647
43	0x3d11668e	0.035498194
44	0xbc497f58	-0.0122984275
45	0x3c8b4f20	0.017005503
46	0xb8a09275	-7.656674e-05
47	0x39db61d5	0.00041843826
48	0x388de5e2	6.766223e-05
49	0xbd2162ec	-0.03940098
50	0xb781d026	-1.5474925e-05
51	0xb8cdd42e	-9.814683e-05
52	0xbcc39456	-0.023874443
53	0xbbd7a85c	-0.0065813493
54	0xbc1d8f2a	-0.0096166525
55	0x3a44344f	0.0007484601
56	0xbc155e69	-0.009116747
57	0x3c2e39a4	0.01063386
58	0x3c2e012d	0.0106203975
59	0x3abdc8d4	0.0014479407
60	0x3b4ac73b	0.0030941505
61	0x37658d13	1.368231e-05
62	0xb84b86b3	-4.852442e-05
63	0xb82b0891	-4.0777555e-05
64	0x385ea65f	5.308387e-05
65	0xbc9fced1	-0.019507797
66	0xba58cf35	-0.00082706223
67	0x37c645b9	2.3635906e-05
68	0x3c13a46a	0.009011367
69	0xb5bc693c	-1.4037719e-06
70	0xb8f1926d	-0.000115190494
71	0x37ea1e53	2.7909095e-05
72	0xb70d1ce8	-8.410985e-06
73	0x3cb8fb65	0.022580812
74	0x35c97379	1.5009274e-06
75	0xb576aeaa	-9.189631e-07
76	0xbb982482	-0.004643024
77	0x3b8b83a5	0.0042576366
78	0xb7e490ec	-2.7247203e-05
79	0x379d9fb8	1.8790233e-05
80	0xbd05e39a	-0.03268776
81	0x344269b6	1.8106115e-07
82	0x38c15ecb	9.220614e-05
83	0xbb0963eb	-0.0020964097
84	0xbbb07a58	-0.0053856783
85	0xb9132df9	-0.00014036139
86	0xbcb0bd06	-0.021574508
87	0xbc97d12a	-0.018532354
88	0x37dd6157	2.639058e-05
89	0xbcf571d2	-0.0299615
90	0x3ca8131b	0.020516923
91	0x3c28305d	0.010265437
92	0xb75c33a4	-1.3125045e-05
93	0x388bf8ea	6.6744e-05
94	0x38ade1f9	8.2913735e-05
95	0xb76c9e4f	-1.4103555e-05
96	0x3849f939	4.815424e-05
97	0x37bfaea5	2.28503e-05
98	0x35f708f0	1.8405535e-06
99	0xbaf16f4e	-0.0018420012
100	0x35700cbc	8.94255e-07
101	0x3708c501	8.1521e-06
102	0x3bd66960	0.0065433234
103	0xba000d90	-0.00048848335
104	0xbc682338	-0.014168553
105	0x38e0e367	0.00010723509
106	0x3c80a7e8	0.015705064
107	0x37ea36af	2.7920438e-05
108	0xb7474245	-1.1876754e-05
109	0xbbeccf1c	-0.007226838
110	0xb83a6c2c	-4.44466e-05
111	0x3704bf3b	7.912337e-06
112	0xb567445b	-8.6153676e-07
113	0xb32d0678	-4.0285585e-08
114	0xb8976c13	-7.2203715e-05
115	0x3b466bab	0.0030276577
116	0x37305d03	1.05120735e-05
117	0x3790ccd8	1.7261525e-05
118	0xb7a1fb9f	-1.9309866e-05
119	0xbc8f0fd6	-0.017463606
120	0x3cfee4e5	0.031115005
121	0x383dae60	4.522351e-05
122	0x3a74d835	0.00093400787
123	0x38b45186	8.598254e-05
124	0xbac50aca	-0.0015033123
125	0x3715b903	8.9241685e-06
126	0xbcbe893a	-0.023258794
127	0xbc9d3882	-0.019191984
128	0x3721e6d4	9.650092e-06
129	0x37a46c77	1.9600831e-05
130	0xb5e17081	-1.6796549e-06
131	0xb75491ac	-1.2670102e-05
132	0xb6eabc4f	-6.9956654e-06
133	0xbab27096	-0.0013613875
134	0x3c573c53	0.013136941
135	0xbc446518	-0.011986993
136	0xb7156491	-8.904507e-06
137	0x379571d7	1.7815195e-05
138	0xb69550ea	-4.4499657e-06
139	0x38bc0868	8.966104e-05
140	0xbd1899bc	-0.037255988
141	0x3c8aa39a	0.016923714
142	0xbc0b48e0	-0.0085012615
143	0xb6a673c5	-4.960663e-06
144	0xb6b0e560	-5.2719115e-06
145	0x39aba1f6	0.00032736332
146	0xba45f91b	-0.0007552073
147	0x3b34086a	0.0027470835
148	0xbac23cfd	-0.0014819201
149	0x3d0ca4bf	0.0343368
150	0xb72fb744	-1.0473483e-05
151	0x3b8ca91d	0.004292621
152	0x3c1dfdb2	0.009643005
153	0xbd0037d9	-0.03130326
154	0x39892349	0.00026156966
155	0x3678d78a	3.708034e-06
156	0xbcc05354	-0.023477234
157	0xbced83c3	-0.028993493
158	0x3957e121	0.00020587865
159	0xb751e544	-1.2510751e-05
160	0xb8697ff7	-5.5670705e-05
161	0x3875d455	5.86103e-05
162	0x37668823	1.3740765e-05
163	0xb6c4af40	-5.861657e-06
164	0x3ae4b597	0.0017449138
165	0xbc8577c0	-0.016292453
166	0xb8cce738	-9.770546e-05
167	0xbcd8bc84	-0.026457079
168	0xbc93d1ab	-0.018044313
169	0xbc3926ad	-0.011300725
170	0x384e6971	4.9212427e-05
171	0x330b0d10	3.237534e-08
172	0xbc9965f8	-0.01872538
173	0xbcf612d3	-0.030038273
174	0x384eb16c	4.9279464e-05
175	0xb6b7e75f	-5.48076e-06
176	0x3ce28757	0.027652426
177	0x3d00a3cd	0.031406213
178	0xb5bf63ea	-1.4259688e-06
179	0x37489217	1.1954943e-05
180	0x3730568f	1.0510571e-05
181	0x3ba5ccad	0.0050597996
182	0x3951793e	0.0001997696
183	0x35c05465	1.4329677e-06
184	0xbb0e36a4	-0.0021700049
185	0xbc43744a	-0.011929581
186	0xbc2773e7	-0.010220504
187	0xbcde6864	-0.027149387
188	0x3caf958e	0.021433618
189	0x3905499e	0.00012711293
190	0x3ca6ea25	0.02037532
191	0xbc71b595	-0.014752765
192	0x3cc3d853	0.023906862
193	0xb71beddb	-9.2941e-06
194	0x3b6b402e	0.0035896408
195	0x3c54ed1c	0.012995984
196	0x378c9c62	1.6762122e-05
197	0xbb142a71	-0.0022608305
198	0x3ad2184a	0.0016028967
199	0xbab6e490	-0.0013953615
200	0xb72ac23a	-1.01780115e-05
201	0x3bef376a	0.007300307
202	0xb5c26ff6	-1.4486711e-06
203	0xbc18c1ae	-0.009323521
204	0x3c7f571e	0.015584735
205	0xb705a078	-7.96478e-06
206	0xbb0b18d8	-0.0021224525
207	0x3821c362	3.8567356e-05
208	0x3d01c5ab	0.03168265
209	0xb691f065	-4.3493224e-06
210	0xbd118737	-0.03552934
211	0x3d0e7907	0.03478339
212	0x3aa61b67	0.0012672961
213	0x38004093	3.0577718e-05
214	0x373d8866	1.1297036e-05
215	0x39cb9835	0.0003883258
216	0xb71f3138	-9.488598e-06
217	0xbc1a5f26	-0.009422099
218	0x3bbca02d	0.005756399
219	0x360f1d97	2.1325884e-06
220	0xb649b3be	-3.0055958e-06
221	0xb6b17103	-5.2881674e-06
222	0xbb95cdb0	-0.004571639
223	0xbc1d4fba	-0.009601528
224	0x3cd3bdfb	0.025847426
225	0x3bafeb95	0.0053686597
226	0x3782c54e	1.5589085e-05
227	0xbb6dcc3a	-0.0036285059
228	0x3bb3263f	0.005467206
229	0xba56654c	-0.00081785466
230	0xb748d97e	-1.1971568e-05
231	0x3b02bc62	0.001994871
232	0xb7797d00	-1.487066e-05
233	0xbccf7457	-0.02532403
234	0x3bb13a61	0.0054085706
235	0x3ca0d8c0	0.019634604
236	0x3bbd40b4	0.0057755355
237	0x3a0f7226	0.00054720265
238	0x39d6796b	0.00040907724
239	0xbc039853	-0.008031922
240	0x3bf56fad	0.0074901194
241	0xbd0bd663	-0.034140002
242	0x3965f8f1	0.0002193188
243	0x3a63233d	0.00086646137
244	0xb9135f75	-0.00014054573
245	0x3ccc94f4	0.02497337
246	0xb981cf3f	-0.00024759208
247	0x3c05b3ff	0.00816059
248	0xbbe47498	-0.006971907
249	0xb7c951aa	-2.3999095e-05
250	0xbc502084	-0.012703065
251	0xbb9b23e4	-0.004734503
252	0x3c02dcde	0.007987229
253	0x3d2070f8	0.039170235
254	0x3c8c6529	0.01713808
255	0x3b265212	0.0025378508

layers.4.bias f4 [400]
0	0x3d171d12	0.036892958
1	0x3ce75098	0.028236672
2	0x3d6c96dc	0.05776106
3	0xbd35f5e0	-0.044423938
4	0xbd2fb8bf	-0.042900797
5	0x3a6b7548	0.0008982015
6	0x3ce8be82	0.028411154
7	0x3cd61762	0.026134197
8	0x39f97168	0.00047577475
9	0x3ba6324f	0.005071915
10	0xbbfca659	-0.00771026
11	0x3cd1e941	0.02562392
12	0x3c84698f	0.016163616
13	0xbb70cda6	-0.003674367
14	0x3b66893f	0.003517702
15	0xbc812efc	-0.015769474
16	0x3a8d73d1	0.0010791962
17	0x3d42f2b4	0.04759474
18	0xbd7a41d8	-0.06109795
19	0x3d19d349	0.037555013
20	0x3bd4137c	0.0064720493
21	0x3cdfe659	0.027331518
22	0x3d1a5027	0.037674095
23	0x3c2305f9	0.009950154
24	0xbc18c811	-0.009325043
25	0x3b9b8740	0.0047463477
26	0xbcae01b6	-0.02124105
27	0x3c9e1d4d	0.019301081
28	0xbcdaea68	-0.026723102
29	0xbcb48a04	-0.022038467
30	0x37a59800	1.9740313e-05
31	0xbcb050b5	-0.02152286
32	0x3d705cfc	0.058682427
33	0xbc796dc2	-0.015223922
34	0xbc7ea595	-0.0155424075
35	0x3d114d41	0.035474066
36	0xb8738247	-5.8057045e-05
37	0xb7c9f9e9	-2.407744e-05
38	0xbc52c735	-0.0128648775
39	0xbc47c624	-0.0121932365
40	0xbcc87b16	-0.024472754
41	0x3b8b2cca	0.0042472826
42	0x39515ea6	0.00019967053
43	0x3c2f5ff3	0.010704028
44	0x3b0d1794	0.0021528946
45	0x3d3c629d	0.045992482
46	0x3cf424de	0.029802736
47	0x3b37161d	0.0027936765
48	0xb7f5ff7c	-2.9325245e-05
49	0x3ce07d2e	0.02740344
50	0x3cad98a0	0.021190941
51	0xbcf3b579	-0.029749619
52	0xba6d8bde	-0.00090616744
53	0xbc89cbf8	-0.016820893
54	0x3bbc8867	0.005753565
55	0x3d81888f	0.063248746
56	0x3cc8f352	0.024530087
57	0x39800318	0.00024416368
58	0x3b8790f4	0.004137153
59	0x3d01b71e	0.031668775
60	0x3c963515	0.018335858
61	0x397b8ddc	0.00023990072
62	0xb7a02c44	-1.90941e-05
63	0xb8ccc5f6	-9.764351e-05
64	0x3a06a81f	0.00051367463
65	0x3d7f2b72	0.062297292
66	0x3d42eb21	0.047587518
67	0x3c520763	0.012819144
68	0xb829ed9c	-4.051403e-05
69	0x3d2617b9	0.040549967
70	0xbcc57c02	-0.024106983
71	0x3cc27a6b	0.023740014
72	0xbce3b35f	-0.027795492
73	0xb8279c2b	-3.9961345e-05
74	0x3a99f478	0.0011745831
75	0x3cdc464d	0.02688899
76	0x3c91c9ec	0.01779648
77	0x3b8e5696	0.004343818
78	0xbd03f457	-0.032215443
79	0x3d33d28f	0.043901976
80	0x3c0e2498	0.008675717
81	0x39b232d8	0.00033988687
82	0x3cff2a19	0.031148003
83	0x3ced58b9	0.02897297
84	0x3c0f9b7b	0.008765097
85	0x3b9e6759	0.0048340973
86	0xba859142	-0.0010190385
87	0x3bf2a4e1	0.007404909
88	0xb91dc928	-0.00015047623
89	0xbd0eac96	-0.03483256
90	0x3beef9e3	0.0072929724
91	0xbc28adea	-0.010295371
92	0x3abc83f4	0.0014382587
93	0x3ce910fb	0.02845048
94	0xbccceee2	-0.025016252
95	0x3b1d3ff1	0.002399441
96	0x3c3e3e65	0.011611556
97	0xb8918bb8	-6.9401634e-05
98	0xbbcec385	-0.006309929
99	0x3cafd266	0.02146263
100	0x3d4f3f5a	0.050597526
101	0x3d342810	0.04398352
102	0x38a1b62c	7.7110104e-05
103	0x38f07b30	0.00011467037
104	0xbc1c426b	-0.00953732
105	0xbb9da48a	-0.0048108744
106	0xbc785371	-0.015156613
107	0x3c99afd5	0.018760601
108	0x3c805b16	0.015668433
109	0x3ce7b47a	0.0282843
110	0x3c5ee640	0.013604701
111	0x396c4724	0.00022533216
112	0x38273a49	3.9870185e-05
113	0x3c5d8b9c	0.013522055
114	0x3d7adbac	0.06124465
115	0x389f39a4	7.592447e-05
116	0x37d27a50	2.5090907e-05
117	0x3cca2876	0.024677496
118	0x3ce5acf2	0.028036568
119	0x3d442786	0.047889255
120	0x3d47126b	0.04860155
121	0x3c0e32af	0.008679076
122	0xbd1410b9	-0.03614876
123	0x3cd33eed	0.025786841
124	0xb9d17418	-0.00039950083
125	0xbbee3a2c	-0.007270118
126	0x3b9a728e	0.004713363
127	0xbc68e1a5	-0.014213954
128	0x3d00d12e	0.03144949
129	0xb89da3b6	-7.516837e-05
130	0x38d44f92	0.00010123769
131	0xbd407ba9	-0.04699293
132	0x3d3f9ce9	0.0467805
133	0x3cb25617	0.021769566
134	0xbd5b9d70	-0.05361694
135	0x38f319c8	0.00011591945
136	0xbd320664	-0.043463126
137	0x38543754	5.0596267e-05
138	0xbd474029	-0.048645172
139	0x3a17422d	0.0005770054
140	0xb93cc501	-0.00018002467
141	0x3cbc9c6b	0.023023805
142	0x3d5d2d7e	0.053998463
143	0x3d7c59e0	0.06160915
144	0xbd38c3b7	-0.045108523
145	0xbcce6dc8	-0.025198832
146	0x3d6d4b1f	0.05793297
147	0x3d7c3c04	0.061580673
148	0xb8e7c622	-0.000110518435
149	0xbc13fde9	-0.009032705
150	0x3c97c16c	0.018524848
151	0x3d676249	0.056490216
152	0xbcb5a2b2	-0.022172306
153	0xb89b5ead	-7.408611e-05
154	0x3cad2f9c	0.021140866
155	0x3b952c01	0.004552365
156	0x3bb89e83	0.0056341304
157	0x3c8ece11	0.017432244
158	0x3c7d050b	0.015443097
159	0xbcb5ac51	-0.022176893
160	0x3d366ff5	0.044540364
161	0x3be10eea	0.006868233
162	0x3cd750f8	0.026283726
163	0x39bf0c2a	0.00036439422
164	0x3a476dfe	0.00076076377
165	0x389a4513	7.356158e-05
166	0x36fb00a6	7.4804584e-06
167	0x3d09824a	0.03357152
168	0xbd5ad25d	-0.053423274
169	0xba6c19ae	-0.0009006512
170	0x37a0d630	1.9173225e-05
171	0x376e46fc	1.4202433e-05
172	0xbd332135	-0.04373284
173	0x3ab88aa6	0.0014079406
174	0x3cf5fc72	0.030027602
175	0x3cb72588	0.022356763
176	0xbd3ab8c7	-0.045586374
177	0x366c0adf	3.5173068e-06
178	0x3d076e4a	0.033064164
179	0xba268b19	-0.00063531246
180	0x3cdf1598	0.027231976
181	0xbc2d1268	-0.01056347
182	0x374a3bde	1.2054077e-05
183	0x3c874018	0.016510054
184	0xba24db72	-0.00062888034
185	0xb8bbafa2	-8.949569e-05
186	0x3d2d2538	0.042271823
187	0xb8cac52b	-9.668836e-05
188	0xb928735e	-0.00016064706
189	0xbc1c271b	-0.009530808
190	0x3d259f11	0.0404349
191	0xb93bf810	-0.0001792612
192	0x3d21286b	0.039345186
193	0xb715ea4d	-8.9356445e-06
194	0x3cc1f168	0.023674682
195	0x3ca585ae	0.020205345
196	0x3b2de6b4	0.0026535215
197	0xbc57391d	-0.013136175
198	0x3d35b8ce	0.044365697
199	0x36727288	3.6127476e-06
200	0x3d3cd95b	0.046105724
201	0x3c5566ce	0.013024999
202	0xb69faef8	-4.7589383e-06
203	0x3c4d218c	0.012520205
204	0x3d3edf5e	0.04659974
205	0xbb6545d2	-0.0034984243
206	0xb903cac5	-0.00012568671
207	0x3cb682a5	0.022279093
208	0x3b349e72	0.002756026
209	0x3d0a0bff	0.033702847
210	0xb882af58	-6.2315434e-05
211	0x3c567aac	0.013090771
212	0xba4ee137	-0.0007891836
213	0x39849342	0.00025286718
214	0x3c74dffd	0.014945981
215	0xba51adfe	-0.0007998644
216	0x3d4702c4	0.048586622
217	0x39b657cc	0.0003477916
218	0x3b8b7ae7	0.0042565945
219	0x3b048bbe	0.0020224894
220	0xbd25e9e0	-0.040506244
221	0x3cbae71b	0.022815278
222	0x3c20f7d1	0.009824709
223	0xbc50265a	-0.012704456
224	0xbcd07762	-0.025447551
225	0xbcb5e607	-0.022204412
226	0x3ce5d62c	0.028056227
227	0xbc946370	-0.018113822
228	0x38003436	3.0566203e-05
229	0x3cbf69e4	0.023365922
230	0xb8a1bf10	-7.7126664e-05
231	0x3a175f24	0.000577437
232	0x3a2ee394	0.0006671485
233	0x39116199	0.00013864636
234	0x39280222	0.00016022523
235	0xbd1f9eda	-0.038969852
236	0x3b84ff2b	0.0040587387
237	0xbd29ad3e	-0.041424982
238	0xbc59d15d	-0.013294545
239	0x3b469235	0.0030299549
240	0xbca37994	-0.019955434
241	0x3b207ab7	0.0024487206
242	0x3b9949db	0.0046779937
243	0xbd44f361	-0.048083667
244	0x3d53d14a	0.051713265
245	0xb9aab667	-0.00032560827
246	0x3bdfa20f	0.006824739
247	0x3b44fd67	0.0030058266
248	0x3ca32ffc	0.019920342
249	0x3756fef4	1.2814755e-05
250	0xbc1cea1a	-0.009577299
251	0x379b73bc	1.8531333e-05
252	0xbd35010f	-0.044190463
253	0x3c50fb2b	0.012755196
254	0x3bfc0ad2	0.0076917196
255	0x3d3000c1	0.04296947

layers.6.weight f4 [1, 400]
0	0x3b041a69	0.0020157343
1	0xba0e9a21	-0.0005439837
2	0x3d4ce181	0.050019745
3	0x3a2ba14e	0.00065471686
4	0x3bc31d93	0.0059544533
5	0x3c5bac95	0.013407846
6	0x3d3710cc	0.044693753
7	0xbd03ed79	-0.032208893
8	0x3a476b6b	0.0007607254
9	0xbcb69793	-0.022289073
10	0xba43f289	-0.00074748
11	0x3c075b5f	0.008261531
12	0x3d4b9792	0.049705096
13	0x3b436db4	0.0029820027
14	0xbc8de113	-0.017319238
15	0x3cfa1dbb	0.030531755
16	0x3d429f6a	0.04751531
17	0x3cc9fe7e	0.024657484
18	0xbca4e68e	-0.020129468
19	0xbc31b066	-0.010845279
20	0x3ba313fe	0.0049767485
21	0x3bb09f76	0.005390103
22	0xbd07625e	-0.033052795
23	0xbdb52dd8	-0.088466346
24	0x39d5ce71	0.00040780337
25	0xbca2e864	-0.019886203
26	0x3b9c8dd8	0.0047776513
27	0x3c57e72b	0.013177673
28	0xbceb0199	-0.028687285
29	0x3d119de9	0.035550985
30	0x39d9458a	0.00041441276
31	0xbb5d9bcb	-0.0033814784
32	0x3d1b8e20	0.037977338
33	0xbc807592	-0.015681062
34	0xbc2fd470	-0.010731801
35	0xbcb9f17e	-0.02269816
36	0x3629d788	2.5308418e-06
37	0xb9104c74	-0.00013761391
38	0xbc97b96a	-0.01852103
39	0x3d543b59	0.05181441
40	0x3c8838aa	0.016628582
41	0x3bd35f91	0.0064506014
42	0xba345f48	-0.0006880653
43	0xbd323d57	-0.04351553
44	0x3cbfd168	0.023415282
45	0x3c868756	0.016421955
46	0x3cfa7d79	0.030577408
47	0x3d15b58a	0.036550082
48	0xb94b8fee	-0.00019413207
49	0x3c00f999	0.007872009
50	0x3d3bbda0	0.045835137
51	0x3d1f91e2	0.038957484
52	0xbbd76ad5	-0.0065740147
53	0x3d31c379	0.043399308
54	0x3cb15b2f	0.021649925
55	0x3cc9247b	0.024553528
56	0x3cb767be	0.022388335
57	0x3cdffef7	0.027343256
58	0xbc0c3847	-0.008558339
59	0xbba6b90b	-0.005087977
60	0x3d2a5b2c	0.041590855
61	0xb76bacc2	-1.4047315e-05
62	0xb97c15d0	-0.00024040719
63	0x3676329a	3.668631e-06
64	0xbb036253	-0.002004762
65	0x3c965e88	0.018355623
66	0x3c2b241b	0.01044562
67	0xbae9b464	-0.001783025
68	0x38351c72	4.3180255e-05
69	0xbc5dba20	-0.013533145
70	0xbcb680c9	-0.022278206
71	0x3c2a556d	0.010396344
72	0xbcb6f779	-0.022334801
73	0xb6d186fd	-6.2444e-06
74	0xb894cedc	-7.0957205e-05
75	0x3d1f16d4	0.03884013
76	0x3d03dea9	0.032194767
77	0x3d3ac6a0	0.04559958
78	0xbc0cf6f0	-0.008603796
79	0x3d5a014a	0.053223886
80	0xbc394766	-0.011308527
81	0xbd22088e	-0.03955894
82	0x3ca9ae10	0.020712882
83	0x3b7af6a1	0.0038293975
84	0xbd200940	-0.03907132
85	0xbcdd0c60	-0.02698344
86	0x3c80bba3	0.015714472
87	0xbd0028d1	-0.031288926
88	0xb8f8db9a	-0.000118664655
89	0x3cf1f87b	0.02953743
90	0x3c3d0eef	0.011539205
91	0xbbe8706f	-0.0070934813
92	0xba8a051e	-0.001053009
93	0xbbef63ab	-0.0073055825
94	0xbcea2f00	-0.028586864
95	0x3d1ebbad	0.0387532
96	0x3d485b88	0.048915416
97	0x37a9d85a	2.0247116e-05
98	0x3ad6687b	0.0016358042
99	0x3d3f7f73	0.046752404
100	0x3d1160b9	0.035492633
101	0xbd0cafb0	-0.034347236
102	0x36275718	2.4935634e-06
103	0x38df302a	0.0001064244
104	0xbcc4904a	-0.023994584
105	0xba37ae05	-0.0007006827
106	0xbb4194a4	-0.002953806
107	0xbbaca1d4	-0.005268315
108	0xbd937320	-0.07199693
109	0xbc5c1243	-0.013432088
110	0x3c0b904a	0.008518288
111	0xba8e95e2	-0.0010878409
112	0xb8918506	-6.938916e-05
113	0xbda3f7c0	-0.08006239
114	0x3cdffdde	0.027342733
115	0x385a975f	5.2116226e-05
116	0x3848bb98	4.7858426e-05
117	0x3d2c19b5	0.042016704
118	0xbc6d6603	-0.0144896535
119	0x3d03c66e	0.03217166
120	0x3c694d9d	0.014239696
121	0x3d3a46b1	0.045477573
122	0x3c7df482	0.01550019
123	0x3c4fe630	0.012689158
124	0x3984e4fc	0.0002534761
125	0x3b2dc904	0.002651752
126	0xbc54c262	-0.012985798
127	0x3c4a6274	0.012352575
128	0x3bad9ab7	0.0052979845
129	0x384232c2	4.6300476e-05
130	0x3ae79453	0.0017668105
131	0x3caa3822	0.02077872
132	0xbd13735a	-0.03599868
133	0x3ce6dca5	0.028181383
134	0x3cfc7cd6	0.030821245
135	0xb8188f0c	-3.6372847e-05
136	0xbd2be964	-0.041970626
137	0x37f301ba	2.8968661e-05
138	0x3c9620a7	0.018326117
139	0x3b4c444c	0.0031168638
140	0xb78cb4d1	-1.67735e-05
141	0x3d20c94e	0.03925448
142	0x3d04d1a4	0.03242649
143	0x3cf869a2	0.030323807
144	0x3b7a061f	0.003815062
145	0x3be802bc	0.007080404
146	0x3cb03fb8	0.021514758
147	0x3d4e6625	0.05039038
148	0x3a51c9ea	0.0008002805
149	0x3c1c7da6	0.009551441
150	0xbca738da	-0.020412851
151	0x3cfd9ef3	0.030959582
152	0x385cf765	5.268249e-05
153	0x38c4d62d	9.385902e-05
154	0x3d22d53a	0.03975413
155	0x3b47bb14	0.0030476497
156	0xbd051417	-0.032489862
157	0xbd0a503d	-0.033767927
158	0x3a7fee21	0.0009762962
159	0xb88c76e4	-6.697865e-05
160	0x3cadadc6	0.021201026
161	0xbccd1a1a	-0.02503686
162	0xbcabf1cd	-0.020989323
163	0xbb8f4005	-0.0043716454
164	0x3d3c3455	0.045948345
165	0x373caf60	1.1246506e-05
166	0x388508a8	6.3435466e-05
167	0xbba9b480	-0.005178988
168	0xbc16d790	-0.009206668
169	0x39154c35	0.00014238137
170	0xbcfce989	-0.030873077
171	0xb81370b3	-3.515249e-05
172	0x3c0591b0	0.00815241
173	0xbc8d3e9d	-0.01724177
174	0x3cf7b630	0.030238241
175	0x3c0174f6	0.007901421
176	0xbc1c030a	-0.009522209
177	0x38143900	3.5339035e-05
178	0x3d21404e	0.039367966
179	0xba5ca44a	-0.0008416815
180	0x3c8fddf9	0.0175619
181	0x3ceca7d6	0.028888624
182	0x383b4b55	4.4654433e-05
183	0xbda359ac	-0.07976088
184	0xb3fbfdc0	-1.1734255e-07
185	0x371ec234	9.46275e-06
186	0xbb85235c	-0.004063053
187	0xb7d2d310	-2.5132234e-05
188	0x3995f22c	0.00028599927
189	0x3cf6131c	0.030038409
190	0xbcfd486b	-0.03091832
191	0x38c8a64a	9.567717e-05
192	0xbc2d7cc9	-0.010588833
193	0x38dfc592	0.00010670269
194	0x3d26a651	0.040685955
195	0x3bcbeb66	0.00622313
196	0xbd10005a	-0.035156585
197	0x3d5cc9a4	0.053903237
198	0x3d2c2f40	0.04203725
199	0xb6823846	-3.880853e-06
200	0xbce32657	-0.027728243
201	0xbcc841fa	-0.024445523
202	0x38faaddc	0.00011953313
203	0x3bed2f2a	0.0072382884
204	0x3d245d5d	0.0401281
205	0x3a52f19b	0.0008046866
206	0x38c15b48	9.2199596e-05
207	0x3d52a3d1	0.05142576
208	0x3c555cdf	0.0130226305
209	0xbcdf6c15	-0.027273217
210	0x3baed056	0.005334894
211	0x3b4898cc	0.0030608652
212	0x3b7578fe	0.003745615
213	0x3d54a0bd	0.051911104
214	0xbca22338	-0.019792184
215	0xb840acc8	-4.5937282e-05
216	0x3c67e07f	0.014152645
217	0xbb15cc2a	-0.0022857287
218	0x3d335658	0.043783516
219	0xbc45a8de	-0.012064187
220	0x3d20db37	0.03927156
221	0x3ba58490	0.005051203
222	0x3ceed703	0.02915526
223	0xbcf054f3	-0.029337382
224	0xbbb283ec	-0.005447855
225	0xbc70e1b5	-0.01470225
226	0x3d2e029c	0.042482957
227	0xbc370a7f	-0.011171936
228	0x3883a228	6.276771e-05
229	0xbb8ab4ce	-0.0042329794
230	0xb9dd4a9c	-0.00042207993
231	0xb8393bfa	-4.4163295e-05
232	0x3d104553	0.035222363
233	0xb9069f6f	-0.0001283863
234	0x390baec3	0.00013321177
235	0x3b93866a	0.0045021074
236	0x3b33ecd8	0.0027454402
237	0x3d3db4d2	0.04631502
238	0x3ba3b9ad	0.0049964995
239	0xbd0ec731	-0.034857932
240	0xbc800da7	-0.01563151
241	0xbc169ea6	-0.009193098
242	0xbc655280	-0.01399672
243	0xbd111b91	-0.03542668
244	0x3d57268e	0.052527003
245	0x39c9ee81	0.00038515407
246	0x3cd7f4de	0.026361879
247	0x3d1a714c	0.037705705
248	0x3c4ef7aa	0.01263229
249	0x36d03950	6.205555e-06
250	0x3cc1f953	0.023678457
251	0xb7ab6b42	-2.0434734e-05
252	0x3b51f42e	0.0032036412
253	0x3bca6a56	0.006177227
254	0xbcaddef2	-0.021224473
255	0x3c9e0a70	0.019292086
