data/model_Fortified.pt (torch_old, 611048 bytes, 7 tensors)

layers.0.weight f4 [100, 12]
0	0x3e570832	0.2099922
1	0x3e779f25	0.24181803
2	0xbd9755c4	-0.07389405
3	0x3e7cb542	0.2467852
4	0xbd805f44	-0.062681705
5	0x3d5d9f51	0.054107014
6	0xbe0c2754	-0.13686877
7	0x3e1ec234	0.1550377
8	0x3e795e29	0.24352325
9	0xbe553c65	-0.2082382
10	0x3e70909a	0.23492661
11	0x3d2bc8ba	0.041939475
12	0x3e4b9379	0.19880475
13	0x3d024161	0.03180063
14	0x3e0637c9	0.13107218
15	0xbd0d078b	-0.03443102
16	0x3e55a187	0.20862399
17	0x3d377a36	0.044794284
18	0xbe014435	-0.12623675
19	0x3d9118ac	0.07084784
20	0xbdf4f873	-0.119614504
21	0xbcddf425	-0.027093956
22	0xbdd85c1b	-0.10564443
23	0x3e388963	0.18021159
24	0xbdda1918	-0.106493175
25	0xbcdf809d	-0.027283007
26	0xb8ecff2c	-0.000113008864
27	0xbd6fb306	-0.05852034
28	0x3c55987e	0.013036845
29	0xbe23a9b0	-0.159827
30	0x3e0cf01a	0.13763466
31	0xbdf9a887	-0.12190347
32	0x3dd331ff	0.103122704
33	0x3c155e31	0.009116695
34	0xbb4aaa2a	-0.003092418
35	0x3d84a985	0.06477646
36	0x3d4353e9	0.047687445
37	0x3e7ed402	0.24885562
38	0x3cecd9b7	0.028912408
39	0xbdbf1c22	-0.09331538
40	0x3da83893	0.08213916
41	0xbd9743de	-0.073859915
42	0x3e013b7d	0.12620349
43	0x3e80c176	0.251476
44	0x3e2c5737	0.16830145
45	0xbdf6e607	-0.12055593
46	0x3e2801ab	0.16406886
47	0x3d443d06	0.04790976
48	0x3e11d5bb	0.14241688
49	0xbe18d317	-0.14924274
50	0xbe5eb54d	-0.21748848
51	0xbda54afb	-0.08070942
52	0xbe43fd54	-0.19139606
53	0x3e7026e0	0.2345233
54	0x3d48b259	0.04899821
55	0x3dfe288a	0.12410076
56	0x3da980cd	0.0827652
57	0x3a20d0ee	0.00061346486
58	0x3e5a00f7	0.2128943
59	0xbe2bd486	-0.1678029
60	0x3961f5ce	0.00021549242
61	0xbda286c7	-0.07935863
62	0x3b9eb497	0.0048433053
63	0xbc0dbab6	-0.008650472
64	0x3b99bbf9	0.0046915975
65	0x39f544d1	0.00046781314
66	0x3df05f00	0.1173687
67	0xbd6b3517	-0.057423677
68	0xbd6efa22	-0.058344014
69	0xbd6ee4e6	-0.058323763
70	0x3e0b4782	0.13601497
71	0x3bf710a4	0.0075398255
72	0x3e8f09fe	0.2793731
73	0xbe7748cb	-0.24148862
74	0xbe703761	-0.23458625
75	0xbe4842fc	-0.19556803
76	0xbe3137a3	-0.1730638
77	0x3e0927cb	0.13394086
78	0x3dcb813b	0.09936758
79	0x3e85168a	0.25993758
80	0xbe071430	-0.13191295
81	0xbe366b4d	-0.1781437
82	0x3e2d2e38	0.16912162
83	0xbda65fb9	-0.081237264
84	0x3e115dae	0.14195892
85	0xbd9759e7	-0.073901944
86	0x3e0ac6d7	0.13552414
87	0xbe420ccc	-0.18950194
88	0xbe0da830	-0.1383369
89	0x3d853699	0.06504554
90	0x3d1e7028	0.03868118
91	0xbd950892	-0.07277025
92	0x3e0e91bf	0.13922785
93	0x3e290fca	0.1650993
94	0xbe4024d9	-0.18764056
95	0xbe088c21	-0.13334705
96	0x3e0fb158	0.14032495
97	0xbc01f044	-0.007930819
98	0xbc26aad1	-0.010172562
99	0xbe1e0e83	-0.15435223
100	0xbd582965	-0.052773852
101	0x3a33fabe	0.00068656716
102	0xb77a5477	-1.4920827e-05
103	0xbdb92155	-0.09039561
104	0xb6726c5d	-3.6123886e-06
105	0xbda2eda4	-0.079554826
106	0xbdfa93cc	-0.12235221
107	0xbd436987	-0.04770806
108	0xbe04985b	-0.12948744
109	0xbd8b6b40	-0.06807566
110	0x3e26f7b5	0.1630543
111	0xb8e54159	-0.00010931743
112	0x3b9925f0	0.004673712
113	0xbe146332	-0.14490965
114	0xbd958202	-0.07300188
115	0xbbf18a5c	-0.00737123
116	0x3830436c	4.202446e-05
117	0xbe05e1f4	-0.13074476
118	0xbcb9ab3e	-0.022664662
119	0xbd7138c4	-0.058892027
120	0x3bdae639	0.0066802767
121	0xbe0a6677	-0.1351565
122	0x3b772ee2	0.0037717153
123	0xbe263f63	-0.16235118
124	0xbe339ca1	-0.17540218
125	0xbe17607a	-0.14782897
126	0xbdbc92f0	-0.092077136
127	0xbe40ecc7	-0.18840323
128	0x3e787c7d	0.24266239
129	0xbd05b246	-0.032640718
130	0x3e81d086	0.25354403
131	0x3dd2d8fa	0.10295291
132	0xbdf9b54f	-0.12192785
133	0x3da78974	0.08180514
134	0xbb024ffe	-0.0019884105
135	0xbc6cc9fa	-0.014452452
136	0xbdf0a457	-0.11750095
137	0xbe2572d1	-0.1615708
138	0x3b34bc39	0.002757801
139	0x3870d8c2	5.742233e-05
140	0x3c7c8e75	0.015414824
141	0xbdeb8f2f	-0.115019195
142	0x3dc1d13e	0.09463738
143	0xbdbd698b	-0.09248646
144	0xbd44ae45	-0.04801776
145	0x3d65401d	0.055969346
146	0x3dea5616	0.11442201
147	0x3e4c43aa	0.19947687
148	0x3e6e0426	0.2324377
149	0xbe5a2f2f	-0.21307062
150	0x3d71ae92	0.059004374
151	0xbde6b829	-0.112655945
152	0xbd14cfa0	-0.03633082
153	0xbe4cf961	-0.20017006
154	0x3e5fc99f	0.21854256
155	0xbe3b6478	-0.18300045
156	0x3e1e6471	0.15468003
157	0x3deec31f	0.1165831
158	0x3db1d7e6	0.086837575
159	0xbe1fcd9b	-0.15605776
160	0x3e874f87	0.26427862
161	0x3d86f5ae	0.065898284
162	0x3d2e4344	0.04254462
163	0xbe81f9ed	-0.2538599
164	0x3dfc8aeb	0.12331184
165	0xbd26d894	-0.04073389
166	0xbe0577e6	-0.13034019
167	0x3e7475e2	0.23873094
168	0xb6403884	-2.8643126e-06
169	0xbd45da3c	-0.048303828
170	0xbd1afa1b	-0.037836175
171	0x36e4d230	6.8193985e-06
172	0x3d4a9e70	0.049467504
173	0xba7202ed	-0.00092320034
174	0xbd562ab6	-0.052286826
175	0xbc0c4ead	-0.00856368
176	0xbdc44437	-0.095833234
177	0x3c2b7afe	0.010466335
178	0x3dd28fa5	0.10281304
179	0xbe16cec8	-0.14727318
180	0x3d8b96d6	0.06815879
181	0x3e2c50b8	0.16827667
182	0x3d3f72e8	0.046740443
183	0xbddb59d0	-0.1071049
184	0x3e1d95bf	0.15389155
185	0x3e1b712e	0.15179893
186	0x3de68f69	0.11257822
187	0xbd64a8cd	-0.055825043
188	0xbd9580ac	-0.07299933
189	0x3d06eb7e	0.032939427
190	0xbd569c41	-0.05239511
191	0xbdb9ef2d	-0.09078822
192	0x3e359615	0.17733033
193	0x3e80e3ec	0.2517389
194	0xbd115113	-0.03547771
195	0xbd929873	-0.07157984
196	0x3b290003	0.002578736
197	0xbca549b9	-0.020176755
198	0x3d89936d	0.06717572
199	0x3d92771c	0.071516246
200	0xbe850d7d	-0.25986853
201	0xbddc7d2b	-0.107660614
202	0x3e6dcfe2	0.23223832
203	0x3dd1b3dc	0.102393836
204	0x3963afb7	0.00021713866
205	0xbd755897	-0.05989894
206	0xbd7e12c9	-0.062029634
207	0xbe0a3914	-0.13498336
208	0xbbd6db5b	-0.006556911
209	0x3c029921	0.007971079
210	0x3d8bdde0	0.06829429
211	0x3cea5fb2	0.028610084
212	0xbe06fbb4	-0.13181955
213	0xbd73d692	-0.059530802
214	0x37460d5b	1.1804829e-05
215	0x3e1dfd74	0.15428716
216	0x3d2676ba	0.04064057
217	0xbd93b84d	-0.07212887
218	0x3ddec5a6	0.10877542
219	0xbdce2824	-0.1006625
220	0xbe3005c6	-0.17189702
221	0x3e499429	0.19685425
222	0xbdfd6adb	-0.12373897
223	0xbd60fb40	-0.05492711
224	0xbe868af5	-0.2627789
225	0x3e3a70af	0.18207048
226	0x3e50fe7e	0.20409581
227	0x3dc4fa8e	0.09618102
228	0xbdaa3e19	-0.083126254
229	0xbe236fc7	-0.15960608
230	0xbde6fc54	-0.112785965
231	0x3dc38a9a	0.095479205
232	0x3d0479a4	0.032342568
233	0x3df6d5e8	0.12052518
234	0x3d2acf26	0.04170146
235	0x3a5683ad	0.00081830734
236	0xb4ed32a6	-4.4181542e-07
237	0xbdcb5ec2	-0.09930183
238	0xbdff21e0	-0.12457633
239	0xbe151f9f	-0.14562844
240	0x3c99ef4d	0.018790865
241	0xbd0dbfd8	-0.034606785
242	0x391277db	0.00013968295
243	0xbd5addeb	-0.053434294
244	0x38a021d4	7.6356955e-05
245	0xbdada3e2	-0.08478524
246	0xbd93cef2	-0.07217206
247	0x3bed0b82	0.007234038
248	0xbb6fe61d	-0.0036605664
249	0x3d81c615	0.06336609
250	0xbbc4240e	-0.0059857434
251	0xbdbd282c	-0.09236178
252	0xbd30f92a	-0.04320637
253	0xbdf82d3a	-0.12118001
254	0xbda0ef97	-0.07858198
255	0xbe8136ee	-0.2523722

layers.0.bias f4 [100]
0	0xbe164aaa	-0.1467692
1	0xbdb0ff99	-0.086425014
2	0xbc04dcba	-0.008109266
3	0x3e915514	0.28385222
4	0xbdb2b59c	-0.087260455
5	0xbdb3d3c5	-0.08780626
6	0x3e062f6b	0.13104026
7	0xbcddbd23	-0.027067726
8	0x3dce0dc5	0.1006122
9	0x3d857bbe	0.065177426
10	0x3e87e088	0.2653849
11	0xbdbc85d9	-0.09205217
12	0x3e29f919	0.1659893
13	0x3e77c997	0.24197994
14	0xbd1038e9	-0.035210524
15	0x3e87bf5c	0.26513183
16	0x3e57252f	0.21010278
17	0x39178981	0.00014451706
18	0x3e07e6c0	0.13271618
19	0xbc1bc05b	-0.00950631
20	0xbe03c49a	-0.12867966
21	0x3d92408f	0.0714122
22	0x3db34f1b	0.087553225
23	0xbd93e183	-0.07220747
24	0x3d08a1e5	0.03335752
25	0xbdfa8d06	-0.12233929
26	0x3e77996d	0.24179621
27	0x3e1e471b	0.15456812
28	0x3aeccb1b	0.0018065901
29	0xbe3107b2	-0.17288092
30	0x3e089b7f	0.13340567
31	0x3d605aea	0.054774202
32	0x3db97991	0.0905639
33	0x3be13993	0.0068733185
34	0x3e5f5e9e	0.21813437
35	0xbcda4150	-0.026642472
36	0xbd89e696	-0.06733434
37	0x3da26d75	0.079310335
38	0x38b31d22	8.5408115e-05
39	0x3e6aabc1	0.22917081
40	0xbe15f865	-0.14645536
41	0xbc5f306e	-0.013622386
42	0xb8d1e214	-0.00010008007
43	0xbda9a399	-0.08283157
44	0x3e457b63	0.1928535
45	0x3cc8aaae	0.024495449
46	0xbe84b879	-0.2592199
47	0x37cfbcb6	2.4764198e-05
48	0xbdec45c2	-0.11536743
49	0x3cc05fc2	0.02348316
50	0x3c8f2123	0.017471856
51	0xbe24d3f8	-0.16096485
52	0x38a026f3	7.6366494e-05
53	0xb6cc3a08	-6.0864295e-06
54	0xbdc3cdc8	-0.09560734
55	0x3e853a57	0.26021072
56	0xbd5e78dc	-0.05431448
57	0x3e23332e	0.15937492
58	0x3d913a97	0.07091253
59	0xbe063129	-0.1310469
60	0x3d9b8b9c	0.07594988
61	0x3e70479c	0.23464817
62	0xbd9539d0	-0.072864175
63	0xbd9041a2	-0.070437685
64	0x3e81f6d4	0.25383627
65	0x3e4ed982	0.2020016
66	0xbd4a2e0f	-0.04936033
67	0x3e2eadf0	0.1705854
68	0xbd2085fc	-0.039190277
69	0xbe2327bd	-0.15933128
70	0xb6a4c390	-4.9103473e-06
71	0x3db4bace	0.08824693
72	0xbdaf4962	-0.085589185
73	0x3dcc1881	0.09965611
74	0xbdfe3901	-0.124132164
75	0x3e4111d1	0.18854453
76	0x3e69c426	0.22828731
77	0x3e1f42ea	0.1555287
78	0xb6e1c0fd	-6.7279893e-06
79	0x3d9256b7	0.07145446
80	0xbdb7e827	-0.089798264
81	0xbd93ee3d	-0.07223175
82	0xb6e75b2c	-6.8949503e-06
83	0xbd48dbaf	-0.04903763
84	0xbdced6b8	-0.10099548
85	0x3d9d9170	0.076937556
86	0x3e440d4f	0.19145702
87	0xbe3501cb	-0.17676465
88	0x3d9e8b4b	0.07741412
89	0x3deaa989	0.114581175
90	0x3e853142	0.26014143
91	0x3e1e39ab	0.15451686
92	0x3e84dbf1	0.25949052
93	0xbda94dc5	-0.082667865
94	0x3e45e963	0.19327311
95	0x3e514fc8	0.2044059
96	0xbe8b6d50	-0.27231836
97	0xbdefc38a	-0.11707218
98	0x3d4f9992	0.050683565
99	0x3e289617	0.16463505

layers.2.weight f4 [300, 100]
0	0x38b1963a	8.4679996e-05
1	0x3684e1e7	3.960205e-06
2	0xb4975aad	-2.8191917e-07
3	0xb83cdab8	-4.502639e-05
4	0x38c82df5	9.545303e-05
5	0xb90a643b	-0.00013198044
6	0x390073f7	0.00012250232
7	0xb9b9d915	-0.00035447688
8	0x3402119a	1.2113597e-07
9	0xb4d78853	-4.014606e-07
10	0xb7b665a9	-2.174343e-05
11	0x3bcb0644	0.0061958153
12	0x37a7b427	1.9991841e-05
13	0x37db17dd	2.6117947e-05
14	0x3ba2c675	0.0049675056
15	0x38a041d8	7.641659e-05
16	0xb7c38c0d	-2.3311028e-05
17	0xb6820501	-3.8748844e-06
18	0xba9d0930	-0.0011980888
19	0x36d681a2	6.3927882e-06
20	0xb96c9aa9	-0.00022564329
21	0x368054e5	3.8245803e-06
22	0x36891496	4.0853147e-06
23	0xb6d8d62d	-6.462235e-06
24	0xbb53d44e	-0.0032322588
25	0xbbe29bc9	-0.0069155437
26	0x38cbe814	9.723022e-05
27	0x3b6f3c18	0.0036504325
28	0xbb96b522	-0.0045992294
29	0x3826c90c	3.9764724e-05
30	0xba5d0de3	-0.000843255
31	0x367f2e23	3.8024816e-06
32	0x3c04d827	0.008108175
33	0x3aa69b68	0.001271111
34	0xba3f2413	-0.0007291447
35	0xb8c63d65	-9.452811e-05
36	0xb8e78f6d	-0.000110416535
37	0xb3a3721c	-7.6110354e-08
38	0x3bfcc9f9	0.0077145067
39	0x38db1cd0	0.000104481005
40	0xb760d3c6	-1.3400748e-05
41	0x38c8079a	9.538159e-05
42	0xb5e3a97c	-1.6962144e-06
43	0xb7ac1fa6	-2.0518735e-05
44	0xb59c6876	-1.1653308e-06
45	0x3762992c	1.3506313e-05
46	0xb7e53f0d	-2.7328288e-05
47	0xb7cac080	-2.4169916e-05
48	0xbb8b4e50	-0.004251279
49	0xb6d4ebe8	-6.3455554e-06
50	0x359b087d	1.155087e-06
51	0xb823a813	-3.901876e-05
52	0xb6940cd2	-4.412236e-06
53	0xb4669990	-2.1476285e-07
54	0x39f51cab	0.000467514
55	0xb60f36ae	-2.1340488e-06
56	0x38ac34e9	8.2114544e-05
57	0x3afbe06b	0.0019216662
58	0x360ebec0	2.127068e-06
59	0x36696e24	3.4783816e-06
60	0xb87b6cf5	-5.9944537e-05
61	0xb814243b	-3.5319692e-05
62	0xbbe7e76a	-0.0070771473
63	0x37841a6a	1.5747926e-05
64	0xb8526281	-5.015964e-05
65	0xbb861496	-0.0040918095
66	0xb86be810	-5.624449e-05
67	0xba116402	-0.00055462134
68	0x3baa703a	0.0052013667
69	0x3b60b524	0.0034287656
70	0x3609cce2	2.0533848e-06
71	0x3c2457fa	0.010030741
72	0x37ea907d	2.7962256e-05
73	0xbc472936	-0.012155822
74	0xb798b843	-1.8205616e-05
75	0xb68986e5	-4.098622e-06
76	0x3c19024d	0.009338927
77	0x3505fc1d	4.9913234e-07
78	0x3ab957dd	0.0014140565
79	0x37b7f6c0	2.1930202e-05
80	0x3a3d534d	0.00072221906
81	0xbc27adc0	-0.010234296
82	0x3b308135	0.0026932482
83	0xbb653172	-0.0034972099
84	0x3ba0ed98	0.004911136
85	0x36193392	2.2828794e-06
86	0xbb94f1a4	-0.0045454074
87	0x369ac2fe	4.6122577e-06
88	0x375dea57	1.3227188e-05
89	0xbbbea630	-0.005818151
90	0xb804d68a	-3.1671058e-05
91	0xb6ccccfd	-6.1035375e-06
92	0x3b395732	0.0028280732
93	0x37f67d6f	2.9383895e-05
94	0xb5fb4f20	-1.8723986e-06
95	0xb6eaf4e4	-7.0022525e-06
96	0xb6db3234	-6.532553e-06
97	0xb73e3a7c	-1.13384995e-05
98	0xb81d951b	-3.7570582e-05
99	0xbb3de994	-0.0028978335
100	0xbc299356	-0.010350069
101	0xbc8bfe12	-0.017088924
102	0xb956b8fa	-0.0002047754
103	0xbbb6dba0	-0.0055803806
104	0x3bdcfc39	0.0067439345
105	0xb80089e0	-3.0645984e-05
106	0xb5e71f80	-1.7220009e-06
107	0xbb4804e6	-0.0030520498
108	0x38f94f0e	0.0001188797
109	0x35dfdb84	1.6678682e-06
110	0xbb9bcd8b	-0.0047547272
111	0xb64e97a1	-3.0784652e-06
112	0xb92f9da6	-0.00016748029
113	0xbc8f894f	-0.017521529
114	0x37b6ba72	2.1782911e-05
115	0xb9497696	-0.0001921303
116	0xbc8fb4a6	-0.017542195
117	0x3809eb8b	3.2882712e-05
118	0x3c34ec61	0.011042685
119	0x37be3f25	2.2679169e-05
120	0x375a619e	1.3016541e-05
121	0xba71bd95	-0.00092216703
122	0x3bbc0938	0.0057384036
123	0xba770654	-0.0009423245
124	0x383c2fa1	4.486705e-05
125	0x3a33a581	0.000685297
126	0xbc038750	-0.0080278665
127	0x37e99373	2.7844426e-05
128	0xb75be616	-1.3106988e-05
129	0xbac17de8	-0.0014762254
130	0x3ba6fa90	0.0050957873
131	0xbbcce7a9	-0.006253202
132	0x3bfe11f7	0.0077536064
133	0x3bd46ffd	0.0064830766
134	0xbc02b02a	-0.007976571
135	0x3a9b5275	0.0011850136
136	0x3b49c897	0.0030789727
137	0xb9a18e71	-0.0003081444
138	0xbb04a276	-0.0020238436
139	0x3c129258	0.008946024
140	0xbb338322	-0.0027391394
141	0xba88ce51	-0.0010437464
142	0x3739c051	1.1071636e-05
143	0xbcab6c0e	-0.020925548
144	0xbc950a8b	-0.018193504
145	0xbcb1611f	-0.021652756
146	0x3af81b0a	0.0018928957
147	0x381b6eb9	3.7058e-05
148	0xbb6f23d2	-0.0036489856
149	0x3bc31dc5	0.0059544765
150	0x3bb1e022	0.00542833
151	0xbb7d357b	-0.0038636613
152	0xb909dc6f	-0.00013147456
153	0x3bab8f0f	0.00523556
154	0xbcc9b1cc	-0.024620913
155	0xbc59fc3e	-0.013304768
156	0x3b9fa764	0.0048722494
157	0x3a61f2d4	0.0008619253
158	0x3c9b58a0	0.018963158
159	0x3ac22f79	0.0014815173
160	0x3ba07efc	0.00489795
161	0x3befe676	0.0073211743
162	0xba698150	-0.00089075137
163	0x37ea36c9	2.7920485e-05
164	0x3c2f5da6	0.01070348
165	0xbb529bdc	-0.0032136356
166	0x3b198b36	0.0023428923
167	0xbc00cc69	-0.007861235
168	0x3cefcf3d	0.029273624
169	0x3b9c9238	0.004778173
170	0xb6c414b9	-5.8436676e-06
171	0xbabf60b1	-0.001460096
172	0x39df2620	0.0004256228
173	0x3d04bdea	0.03240768
174	0xbba62a45	-0.005070957
175	0x3b9f3bbf	0.004859417
176	0x3b791f7f	0.0038013158
177	0x3b3603b7	0.002777321
178	0x34a67d00	3.101086e-07
179	0xbb06a272	-0.0020543602
180	0xb6c8cfd1	-5.9846575e-06
181	0x3ba50b3a	0.0050367387
182	0xb9c46693	-0.00037460457
183	0x3859a7da	5.1893156e-05
184	0xb5f64772	-1.8349222e-06
185	0x36be9a7a	5.6804247e-06
186	0xbbe78dfc	-0.0070664864
187	0x3a0ba47c	0.0005326939
188	0x3ac99460	0.0015379302
189	0x3d0f9130	0.03505057
190	0xbc740cc5	-0.014895623
191	0xbc194ef4	-0.009357203
192	0x3bdfd2a7	0.0068305316
193	0x3ba72e2b	0.005101939
194	0xbb51983f	-0.0031981615
195	0xbb8bae85	-0.0042627477
196	0xbced3e37	-0.02896033
197	0xb94f6181	-0.00019777381
198	0x3c22f496	0.009946009
199	0x3c41d117	0.011829636
200	0x3dad017a	0.08447547
201	0xbbb602d2	-0.0055545354
202	0xbac541ba	-0.0015049495
203	0xbd619ea4	-0.055082932
204	0xbc556c1a	-0.013026262
205	0xbbef4986	-0.007302466
206	0xbca2d273	-0.01987574
207	0x3caee246	0.02134813
208	0xb7b61398	-2.1705215e-05
209	0xb605df4a	-1.9948516e-06
210	0xbce715a8	-0.028208569
211	0x3b703e27	0.003665814
212	0x3d477aee	0.04870122
213	0x3d8e32e8	0.06943303
214	0xb70c0bfe	-8.347442e-06
215	0x3d8aaae6	0.067708775
216	0x3d8dea70	0.06929481
217	0x37e7135e	2.7546364e-05
218	0x3d862bb5	0.06551305
219	0x365923a5	3.2356268e-06
220	0x389a27b4	7.3506875e-05
221	0x3c003de5	0.007827257
222	0x3d8b1591	0.06791223
223	0x3c01e0e1	0.00792715
224	0x368d12bc	4.2043084e-06
225	0x3befa8ee	0.007313839
226	0xbc0b3d53	-0.008498508
227	0x35b27c52	1.3298215e-06
228	0x370a0f4b	8.229002e-06
229	0xbce3b35d	-0.027795488
230	0x3c6b558a	0.014363656
231	0x3d813bf4	0.06310263
232	0xbd14eb87	-0.03635743
233	0xb6967ec4	-4.485106e-06
234	0x3c86fc85	0.016477833
235	0xb9f57b30	-0.00046821823
236	0xbb09b1ad	-0.0021010444
237	0xbcdc3c06	-0.02688409
238	0x3895f344	7.1501854e-05
239	0xbced93e4	-0.029001184
240	0xbd1490ad	-0.036270786
241	0x3db267f6	0.08711235
242	0x3795510e	1.7799928e-05
243	0x3dad6516	0.08466546
244	0x3ceff2e8	0.029290631
245	0x3cc12d4b	0.023581168
246	0x3d4ec2f7	0.0504789
247	0x36cae45e	6.0466546e-06
248	0xbc16499a	-0.009172821
249	0xbc5d85ce	-0.013520671
250	0xbcb82209	-0.022477167
251	0xb54b48e4	-7.5729463e-07
252	0x37274c0a	9.97168e-06
253	0x37a32fec	1.945343e-05
254	0x3d827c86	0.06371407
255	0x3cc71e87	0.024306549

layers.2.bias f4 [300]
0	0x393c9776	0.00017985501
1	0xb9514133	-0.00019956082
2	0x3d1df2c3	0.038561594
3	0x3d7ad9de	0.06124293
4	0x38db068e	0.00010443955
5	0xbd10281c	-0.0351945
6	0xbc5a7aae	-0.013334913
7	0xbcc76589	-0.024340408
8	0x3cb66c4f	0.022268442
9	0x3ab4c18a	0.0013790589
10	0x3c8e3774	0.017360426
11	0x3d5676e1	0.052359466
12	0xbd76f1b0	-0.060289085
13	0x3bdd288c	0.0067492183
14	0x3d1157b9	0.03548405
15	0x3c87c8c2	0.016575221
16	0xb78a4dbe	-1.6487083e-05
17	0xbd015a09	-0.031580005
18	0xbd01301f	-0.031540032
19	0xbab2afeb	-0.001363275
20	0xbb53f499	-0.0032341836
21	0xba5f4d6a	-0.00085183105
22	0xbb863d3c	-0.004096655
23	0x3d30c3f4	0.043155625
24	0xbc4ad830	-0.012380645
25	0x378a1f55	1.6465472e-05
26	0x3db40cf5	0.08791534
27	0x3b62a125	0.0034580913
28	0x3d8ca132	0.06866683
29	0x3c8ea490	0.017412454
30	0xbd1aad51	-0.037762944
31	0xb408d610	-1.2743862e-07
32	0x37b77bc4	2.1872933e-05
33	0x3db45489	0.08805186
34	0x39c09d5f	0.00036738344
35	0xbcf7dcfa	-0.030256737
36	0xbc7c5aa1	-0.015402467
37	0xbce00f45	-0.027351031
38	0xbd7bf658	-0.06151423
39	0x3c1425e8	0.009042241
40	0x3d64c5d8	0.05585274
41	0x3791ec01	1.7395245e-05
42	0xbcc312a4	-0.0238126
43	0xbd81b09f	-0.06332516
44	0x37987e22	1.8178547e-05
45	0x3cb879aa	0.022518951
46	0x3d046056	0.032318436
47	0x3da5cd41	0.0809579
48	0xbc611a17	-0.01373913
49	0x3d3d41ff	0.046205517
50	0xbb2e3821	-0.0026583748
51	0xbcf88d92	-0.030340943
52	0xbda218a6	-0.079148576
53	0xbcfc0aa6	-0.030766796
54	0x37d0fc04	2.4912886e-05
55	0xbbac0b0a	-0.0052503394
56	0xbd3e719d	-0.04649507
57	0xb83a0177	-4.434722e-05
58	0xbb2a1953	-0.0025955036
59	0x3d8f0b33	0.06984558
60	0x3d974382	0.07385923
61	0x3b37cfb6	0.002804739
62	0x3c210e85	0.009830122
63	0xbbd0b700	-0.0063694715
64	0x3d9f12ed	0.07767282
65	0x3b319106	0.0027094497
66	0xbc2ae1bc	-0.010429796
67	0x3bf7b62b	0.007559558
68	0x3d997416	0.07492845
69	0x3d61c717	0.055121507
70	0x3dae5ff7	0.085143976
71	0x3d94d052	0.072662964
72	0xbb354c18	-0.0027663764
73	0xbb984482	-0.0046468386
74	0xb559c200	-8.1121107e-07
75	0xbb4ad692	-0.0030950648
76	0xbc94e3c0	-0.018175006
77	0xbd1de570	-0.038548887
78	0xbd1ff8dd	-0.039055694
79	0x3d11aa23	0.035562646
80	0xbc97deea	-0.01853891
81	0x3d777f9f	0.060424443
82	0x3c3a44fe	0.011368988
83	0x3d752c94	0.059856966
84	0x3d7e0185	0.062013168
85	0xbd11189c	-0.03542386
86	0xb8225c61	-3.8709844e-05
87	0xbac8746e	-0.0015293488
88	0xbdb8a638	-0.09016079
89	0xbae56ab2	-0.0017503111
90	0xbb721b07	-0.003694238
91	0x3d779733	0.06044693
92	0xbd61c8f3	-0.05512328
93	0x38c74c6c	9.503294e-05
94	0xbcc53bf2	-0.024076436
95	0xb9bee5ca	-0.0003641083
96	0xbd6d0ea0	-0.057875276
97	0xbdb9a477	-0.09064572
98	0x3dce2ede	0.10067533
99	0xbd0ca2e7	-0.034335043
100	0xbba265fe	-0.004956006
101	0x3cdc3a4d	0.026883269
102	0x3b087922	0.0020824154
103	0x3b808342	0.003921897
104	0x3d46b856	0.04851564
105	0xb7a50410	-1.9671425e-05
106	0xb80bec91	-3.3360502e-05
107	0xbc24e10a	-0.010063419
108	0xbd9df508	-0.077127516
109	0x38b2d07f	8.526537e-05
110	0x3d42885d	0.047493327
111	0x3a53d721	0.0008081068
112	0xbd87fbdd	-0.06639836
113	0xbac89f2e	-0.0015306228
114	0xbce00ebf	-0.027350781
115	0x3db5d683	0.088788055
116	0x3d530310	0.051516593
117	0xbd90e3d6	-0.07074706
118	0x3d35d3f9	0.044391606
119	0xba8ebec4	-0.0010890593
120	0x3c076925	0.0082648145
121	0x3c1e3969	0.009657242
122	0x35a20b34	1.2073201e-06
123	0x3daac938	0.08339161
124	0xbc02bf41	-0.007980169
125	0xbdc9e0e6	-0.09857349
126	0x3d79cb75	0.060985047
127	0x3c7b97f5	0.015356054
128	0xbcc542dd	-0.024079734
129	0x3b91bb62	0.0044473866
130	0x3a4c6db9	0.00077983324
131	0x3d2944bf	0.041325327
132	0xbba8f39f	-0.005155995
133	0xbd4e5802	-0.0503769
134	0x3c0d58ef	0.00862716
135	0x3d95f52d	0.07322154
136	0x3cab1689	0.020884769
137	0xbbe38d08	-0.0069443025
138	0x3dc5d2b7	0.09659331
139	0x3bf44c65	0.007455396
140	0x39bf29ff	0.00036461648
141	0xbdc99a7c	-0.09843919
142	0xbd30d587	-0.043172386
143	0x3835e5c6	4.3367756e-05
144	0xba7e9b6e	-0.0009712492
145	0xbb7b61a8	-0.0038357768
146	0xbd82c6ce	-0.06385575
147	0x3d011da5	0.03152241
148	0xbda83de5	-0.082149304
149	0xbb017ba4	-0.0019757533
150	0xbbb09e81	-0.005389989
151	0xbcb83978	-0.02248834
152	0x3cb03a22	0.021512095
153	0xbc977402	-0.018487934
154	0xbc982518	-0.018572375
155	0xbb2d9b02	-0.0026490097
156	0x3d124abe	0.03571581
157	0x37336da5	1.069476e-05
158	0x3cc913c4	0.024545558
159	0x3d734397	0.05939063
160	0xbab45ffa	-0.0013761513
161	0xbb49ced0	-0.0030793436
162	0x3d1b7f2c	0.037963077
163	0x3dbaa44a	0.09113367
164	0xb9a05cc8	-0.00030586706
165	0xbd8a8173	-0.06762972
166	0xbd2c58ce	-0.04207688
167	0x3c8941d4	0.016755022
168	0x3b6778f5	0.0035319899
169	0x3d139062	0.036026366
170	0x3bbec8b3	0.005822265
171	0xb8b33893	-8.545923e-05
172	0x3d7ce172	0.06173844
173	0x3db989c4	0.0905948
174	0xbd44e213	-0.048067164
175	0xb775662c	-1.4626927e-05
176	0x3d91bfb8	0.071166456
177	0x3dc6c9a6	0.0970643
178	0x3cc0bda8	0.023527935
179	0xbd302720	-0.043006063
180	0xbccb9160	-0.024849594
181	0xbbfd922a	-0.0077383714
182	0xbcae5d62	-0.021284763
183	0xbd6cfaf3	-0.05785651
184	0x3bb232ea	0.0054381983
185	0xbc8e484f	-0.017368464
186	0x3d0b2581	0.033971313
187	0xb9083222	-0.00012988647
188	0xbb20a88c	-0.0024514524
189	0x3ce212d0	0.027596861
190	0xbb92f10a	-0.0044843005
191	0x36f8c526	7.413927e-06
192	0xbbed78c1	-0.007247061
193	0xbc1667ea	-0.0091800485
194	0x3a2827fb	0.0006414649
195	0x3d98a4d8	0.074533165
196	0x3a34eabd	0.0006901434
197	0x3d1e1bde	0.038600795
198	0x3b3d8bf2	0.0028922525
199	0xbb3edc96	-0.0029123179
200	0x3db38c52	0.08766998
201	0x38a06ede	7.650045e-05
202	0xbca9aea3	-0.020713156
203	0xbb1a09c8	-0.0023504365
204	0xbd8080af	-0.062745444
205	0xbd3555c0	-0.04427123
206	0xbd292738	-0.041297168
207	0xbbd907a8	-0.006623227
208	0x3d849c58	0.06475133
209	0xbd473b05	-0.04864027
210	0xbc89e123	-0.016830986
211	0xbc56f14e	-0.013119055
212	0x3793e1b4	1.7628867e-05
213	0x3c8541a2	0.016266648
214	0xb9445fb2	-0.00018727666
215	0xba0448f2	-0.000504627
216	0x3d9f6b41	0.07784129
217	0xbca20d31	-0.01978168
218	0xbccf60a5	-0.025314638
219	0xb910cbfb	-0.00013808899
220	0x37267f7e	9.924055e-06
221	0xb81dec1a	-3.7651604e-05
222	0x3dac9ed2	0.0842873
223	0xbcf330d5	-0.02968637
224	0xbc7cabb3	-0.015421796
225	0xb83e19ca	-4.5323548e-05
226	0xb9f9a290	-0.000476141
227	0x3d8b2037	0.06793254
228	0x3d7ddf9f	0.06198084
229	0x3c08cd84	0.00834978
230	0xbcb54553	-0.022127783
231	0x3d7db056	0.061935745
232	0x3d430a96	0.047617517
233	0xbd78c4d7	-0.060734596
234	0x3cfb04bb	0.030641904
235	0x3ce9a6ed	0.02852198
236	0x3dd1d04c	0.102448076
237	0xbcbed920	-0.023296893
238	0xbd8b9f6b	-0.06817516
239	0xbce018ee	-0.027355637
240	0xbc0afa2f	-0.0084825
241	0x3a9a7084	0.00117828
242	0x3d5e0e07	0.054212596
243	0x3880141a	6.10726e-05
244	0x3dbd634d	0.09247456
245	0x3d7869e0	0.060647845
246	0xb89f5739	-7.597957e-05
247	0x385cdee2	5.2659663e-05
248	0x3d823597	0.06357878
249	0x3d86fd21	0.06591249
250	0x3d7c6a27	0.061624672
251	0xbd8e9844	-0.06962636
252	0x3d32a1dc	0.043611392
253	0x3cd676f5	0.02617977
254	0x363e04ce	2.8315003e-06
255	0x3db1441d	0.0865557

layers.4.weight f4 [400, 300]
0	0x3622bd89	2.4250205e-06
1	0xba9ba5b1	-0.0011874941
2	0x3cbe6d6b	0.023245534
3	0xbc9e4972	-0.01932213
4	0x36d837ad	6.443783e-06
5	0x3bc1d893	0.0059157102
6	0xb7017d8a	-7.7182285e-06
7	0xb823fac7	-3.9095783e-05
8	0xbbd0afbe	-0.0063686064
9	0x3800e783	3.073319e-05
10	0xbbb6cd41	-0.0055786674
11	0xba885a2f	-0.0010402853
12	0xbcdde3ed	-0.027086223
13	0xba7e862b	-0.00097093236
14	0xbcc2edd5	-0.023795048
15	0x383d9588	4.5200373e-05
16	0xb7dd6392	-2.6391619e-05
17	0x3c826b57	0.015920324
18	0x389a7162	7.3644114e-05
19	0xb824b847	-3.927227e-05
20	0x38998a15	7.321328e-05
21	0xb84419ca	-4.675406e-05
22	0xb76431ac	-1.3601424e-05
23	0xb8082d3d	-3.246706e-05
24	0x3645b4c6	2.9460512e-06
25	0x38852075	6.34798e-05
26	0xbcacb6a3	-0.021083182
27	0xbc24424b	-0.010025571
28	0xbb77f0f7	-0.0037832835
29	0xb910642d	-0.00013770229
30	0x3d051206	0.03248789
31	0x38f9b438	0.000119068136
32	0x358e74f1	1.0613859e-06
33	0x3cfbfa46	0.030758988
34	0x38884358	6.497529e-05
35	0xbbe81ac6	-0.00708327
36	0x39efadb9	0.00045715066
37	0x3c70c1eb	0.014694671
38	0xbc248fa2	-0.01004401
39	0x3b5c99b2	0.0033660945
40	0x3b2a9968	0.0026031379
41	0x377df9f4	1.5138172e-05
42	0xbcd4236b	-0.025895795
43	0x3be7f786	0.0070790676
44	0x37f901c4	2.9683935e-05
45	0xbc214b04	-0.009844545
46	0xba9dbd4c	-0.0012034564
47	0x3c78143c	0.015141543
48	0x38c21e37	9.256269e-05
49	0xbb981514	-0.0046411846
50	0xba1e72d8	-0.0006044335
51	0x38a35791	7.788756e-05
52	0xbc83a296	-0.016068738
53	0xb7a45299	-1.9588786e-05
54	0x361f14f3	2.370504e-06
55	0x378e8a9d	1.6992266e-05
56	0x3be74f57	0.0070590186
57	0xb66436cf	-3.400655e-06
58	0xb7550768	-1.2697514e-05
59	0xbb5d65e9	-0.0033782667
60	0xbb8d91ab	-0.0043203435
61	0x38beaea4	9.092435e-05
62	0xbbe3607a	-0.006938991
63	0xbae54bc8	-0.0017493898
64	0x3a1ca412	0.0005975376
65	0x3c9296ff	0.017894266
66	0x3baacdfa	0.0052125426
67	0xbb995719	-0.0046795723
68	0x3b8df4f8	0.004332181
69	0xbaf91814	-0.0019004368
70	0x3caeddbb	0.021345964
71	0x3c94a7ad	0.01814636
72	0xb77a3b9d	-1.4915041e-05
73	0xb2df0f00	-2.5967438e-08
74	0x37ee7a42	2.8428742e-05
75	0x3784d145	1.5833075e-05
76	0xbc95760e	-0.01824477
77	0x380d7369	3.3724504e-05
78	0xbc517d84	-0.012786273
79	0xbc31ceb0	-0.010852501
80	0x3c09a553	0.008401233
81	0x3c5063d6	0.012719115
82	0xbaac66be	-0.0013153178
83	0xb58bffcc	-1.0430754e-06
84	0x3c8cc56e	0.017183986
85	0x3ca1e0b8	0.019760475
86	0x3383d470	6.138805e-08
87	0x3cbe522f	0.023232548
88	0x3c574d31	0.013140962
89	0xbae06f71	-0.0017123056
90	0x362de39e	2.59115e-06
91	0x3a8e90bb	0.0010876873
92	0x3cfe1f1d	0.031020695
93	0xb4c668b0	-3.6956544e-07
94	0xbb7b12e9	-0.0038310832
95	0x355cb6d8	8.222246e-07
96	0xbc35c67d	-0.011094687
97	0x391f95c6	0.00015219217
98	0x3ca52f0c	0.020164035
99	0xbbf25961	-0.0073959087
100	0xbc956046	-0.018234383
101	0xbbc025e4	-0.005863892
102	0x38bea721	9.091036e-05
103	0xbaea0dcd	-0.0017856896
104	0x3c003145	0.007824247
105	0x38aba2f5	8.1842685e-05
106	0x356e370e	8.8742024e-07
107	0x390cfaac	0.00013444823
108	0x38ef7d90	0.00011419796
109	0xb59752e3	-1.12745e-06
110	0x3c0a2357	0.008431277
111	0x3c2aa882	0.010416152
112	0xb89b1e4a	-7.396618e-05
113	0xbb24c37e	-0.0025140936
114	0xbbd98360	-0.0066379756
115	0x3c994a92	0.018712316
116	0xbcd74de3	-0.026282256
117	0x3b648bec	0.003487344
118	0x3c3ddfbf	0.01158899
119	0x374f250d	1.2346788e-05
120	0x37c9a5ca	2.4038269e-05
121	0xba848450	-0.0010110233
122	0x3701999a	7.724762e-06
123	0xbbbedcdb	-0.005824668
124	0x3c0459b3	0.008078027
125	0xbcaa964a	-0.020823617
126	0x3ca76a6f	0.020436494
127	0x3c585837	0.013204626
128	0x3bad2278	0.00528365
129	0x3c5c4cf4	0.013446081
130	0xb7532fe9	-1.2587735e-05
131	0xb9436575	-0.00018634445
132	0xb7d588ea	-2.5455334e-05
133	0x3b49f8f5	0.0030818556
134	0x37c79451	2.3791714e-05
135	0x3a396ef3	0.00070737227
136	0x3bd011c8	0.006349776
137	0xbbbb57ab	-0.005717238
138	0x3b86ed81	0.004117668
139	0xbc3ed337	-0.011647037
140	0xb5d03cab	-1.5514864e-06
141	0x37354172	1.0803678e-05
142	0xbbd6afca	-0.0065517174
143	0xb712857e	-8.733359e-06
144	0xb7994afd	-1.827394e-05
145	0x3cbd5683	0.023112541
146	0x3cd7d972	0.026348803
147	0x3bb727d0	0.005589463
148	0x3c11c8e9	0.008897998
149	0xbb075777	-0.0020651498
150	0x379edb13	1.8937082e-05
151	0xbc867137	-0.016411407
152	0x3963e009	0.00021731867
153	0x3c781850	0.015142515
154	0x3a9079c3	0.0011022616
155	0xb2f294e0	-2.8240208e-08
156	0x3ceb7e48	0.028746739
157	0xb82a4f8e	-4.060525e-05
158	0xbc8fb3e1	-0.017541828
159	0xbc10f018	-0.008846305
160	0xb82b1e93	-4.079805e-05
161	0xb84fa167	-4.9502964e-05
162	0x3bcf8982	0.006333531
163	0x3c83008c	0.015991472
164	0xbb61bd0e	-0.003444496
165	0xba8c549a	-0.0010706366
166	0xbcbc0b68	-0.022954658
167	0xbb96c5b6	-0.0046012057
168	0xbcb94888	-0.022617593
169	0xbc472ae5	-0.012156223
170	0x36e75bc6	6.8950203e-06
171	0x36cb60a1	6.0611205e-06
172	0x39fcc7d0	0.00048214057
173	0x3c5dda53	0.013540822
174	0xb9b7b5ec	-0.00035040022
175	0x388b08c0	6.629666e-05
176	0xbc95d6bb	-0.018290868
177	0x3c11895a	0.008882845
178	0xbd033cb2	-0.032040305
179	0x3c579076	0.013157001
180	0x3ae9bb02	0.0017832222
181	0x383876a2	4.3979504e-05
182	0xba05065b	-0.00050744944
183	0xb87f388a	-6.0849394e-05
184	0x3756c737	1.2801777e-05
185	0xb795b3c3	-1.7845892e-05
186	0xb9ad523d	-0.00033058404
187	0xb84fa63a	-4.9507456e-05
188	0x3a79a936	0.00095238106
189	0x3ca56ce5	0.020193527
190	0x37609406	1.3385905e-05
191	0x355beb0a	8.1925884e-07
192	0xb952fdc8	-0.00020121702
193	0xbb9e6341	-0.0048336093
194	0xbc99ea41	-0.018788459
195	0x3cbbcb2c	0.022924028
196	0x3be58aee	0.007005087
197	0x3c990d74	0.018683173
198	0x3adce064	0.0016851542
199	0x3540fb90	7.1891645e-07
200	0xbcc563e0	-0.024095476
201	0xb80e385a	-3.390792e-05
202	0x3bcb86aa	0.0062111216
203	0xb94b0594	-0.00019361667
204	0x3c7dc6fe	0.015489338
205	0xbc6d030b	-0.0144660575
206	0x3b1cc41b	0.00239206
207	0x3b094452	0.0020945263
208	0xbcd241c8	-0.025666133
209	0xb5afc73b	-1.30965e-06
210	0x35a1aa14	1.2044934e-06
211	0x37b9674e	2.2101824e-05
212	0xb7b7d6c5	-2.191531e-05
213	0xbc030fad	-0.007999343
214	0x37cb38fa	2.4226018e-05
215	0x36fa2ad1	7.455565e-06
216	0xbc2b3d38	-0.010451607
217	0xbc353412	-0.011059778
218	0xba23b3eb	-0.00062447664
219	0xb9078ba5	-0.00012926625
220	0x38271421	3.983465e-05
221	0x37e7188f	2.7548782e-05
222	0xbaeeca26	-0.0018218204
223	0x3610ce8c	2.1577898e-06
224	0xb7d308ea	-2.5157311e-05
225	0xb911e10c	-0.00013912114
226	0xb6ad8134	-5.170843e-06
227	0xb7f37fc8	-2.902736e-05
228	0xbce46afb	-0.027883044
229	0xbb4d38b1	-0.0031314308
230	0xbbd703d1	-0.0065617342
231	0x3d16c9c7	0.036813524
232	0xbc32dabe	-0.01091641
233	0x3c9dbfc6	0.019256484
234	0xbbe7cdca	-0.0070740925
235	0xbcab18d5	-0.020885864
236	0x3b68289a	0.003542459
237	0xbc073174	-0.008251537
238	0xbc4bb9e3	-0.012434456
239	0x3893d76e	7.049633e-05
240	0x37e0cebf	2.6799155e-05
241	0x3c9d24c7	0.019182576
242	0x3c3ed601	0.011647702
243	0xb60065b4	-1.9132685e-06
244	0x3d2ffa89	0.04296354
245	0x3cc4827c	0.023988001
246	0x347b7aae	2.3420827e-07
247	0x384cdfa4	4.884567e-05
248	0x3ca5452f	0.02017459
249	0x3cbc2ea0	0.022971451
250	0xbd0431ff	-0.032274242
251	0x3b4f5a58	0.0031639542
252	0x3ad75eef	0.0016431491
253	0x3c894651	0.016757162
254	0xb4ca1574	-3.764104e-07
255	0x3bd6f080	0.0065594316

layers.4.bias f4 [400]
0	0x3d2f364d	0.042776395
1	0x3d2defae	0.042464904
2	0xb8471518	-4.7464942e-05
3	0xba2f73dc	-0.00066929846
4	0xbc9610d1	-0.018318566
5	0xbcb9ebcd	-0.022695446
6	0xbcd42f22	-0.02590138
7	0x3d37d0aa	0.044876732
8	0x3c2eb79d	0.010663894
9	0x3886d330	6.428955e-05
10	0xbd1a1e44	-0.03762652
11	0xba1c4257	-0.0005960813
12	0x3b6973fe	0.0035622115
13	0x3bfeccc4	0.007775875
14	0xb8a8698d	-8.0305246e-05
15	0xb8f113a8	-0.00011495437
16	0x37c6e067	2.3707935e-05
17	0xbd31bcd5	-0.043392975
18	0xbc2c36b9	-0.010511094
19	0x3d2d778e	0.042350344
20	0x3cd7fcf0	0.026365727
21	0xbcfd45a2	-0.030916993
22	0x3c8c9412	0.01716045
23	0xbd4f4444	-0.050602213
24	0x3d39149c	0.04518567
25	0xbcd840d7	-0.026398106
26	0x373698ee	1.0883652e-05
27	0x3d2eb618	0.042654127
28	0xbcc47357	-0.02398078
29	0xbd3950a2	-0.045242913
30	0x3d24baff	0.040217396
31	0x3c995f8e	0.018722322
32	0x3d2c09cc	0.04200153
33	0xba1bbe11	-0.0005941103
34	0x3aeccc43	0.0018066246
35	0xb8bc213a	-8.9707275e-05
36	0xbb9c43dd	-0.004768832
37	0x3cd13446	0.025537621
38	0x3cf96118	0.030441806
39	0xbaff78ae	-0.0019490921
40	0xb86d5b26	-5.6590092e-05
41	0xbd2e2fe0	-0.042526126
42	0x3c85a197	0.016312404
43	0x3d0d98d8	0.03456959
44	0x3c28c3a1	0.010300548
45	0x3d786ef3	0.060652684
46	0x38c8c7ee	9.573983e-05
47	0x3c05710d	0.008144629
48	0x36abceaf	5.1202583e-06
49	0xba4270fc	-0.00074173487
50	0xbc1e1d58	-0.009650551
51	0xb899584b	-7.3120544e-05
52	0xb913fcdb	-0.00014113208
53	0x3c320ad4	0.010866839
54	0xbc6a486a	-0.014299491
55	0xbbb8e30a	-0.0056422995
56	0xbcbe5c26	-0.0232373
57	0x3d769d20	0.06020844
58	0x3d3ddddf	0.04635417
59	0xbc199a54	-0.009375174
60	0x3d3d0841	0.04615045
61	0xbb0d0726	-0.0021519153
62	0x3d06a5fb	0.032873135
63	0x3cf9a6c2	0.030475024
64	0x3d02b7f2	0.031913705
65	0xbc4a1ac4	-0.012335483
66	0x3d296de7	0.041364577
67	0xbcb34716	-0.021884482
68	0x3cad4d6d	0.021155084
69	0xb985598e	-0.0002543446
70	0xb98792de	-0.0002585863
71	0x3cd3072e	0.02576026
72	0xbd0d34d5	-0.034474213
73	0xb7bd7078	-2.2582928e-05
74	0x3c2071e5	0.00979278
75	0xbc51ff43	-0.012817207
76	0x3cfaf469	0.030634122
77	0xb8df2224	-0.00010639828
78	0xbcee65bd	-0.029101247
79	0xba44f675	-0.00075135316
80	0x3b7acec2	0.003827021
81	0x3d0105bb	0.031499606
82	0xbaab458c	-0.0013066991
83	0x3c812bb7	0.015767915
84	0xbd4f2c97	-0.050579634
85	0xbd49aaae	-0.04923504
86	0xbcbd1b7e	-0.023084398
87	0x3a310acd	0.00067536236
88	0xba123268	-0.0005576969
89	0x3ce5f823	0.028072422
90	0xba4893af	-0.0007651401
91	0xbc48ebb9	-0.012263232
92	0xbce82942	-0.028339986
93	0x3d3280e1	0.04357994
94	0xb9ba89da	-0.00035579392
95	0x3cab22c5	0.020890603
96	0xbd42f900	-0.047600746
97	0xbd36dc4d	-0.04464369
98	0xbcd397f9	-0.025829302
99	0x3c0ba4dd	0.008523193
100	0x3bd1871d	0.0063942806
101	0xbb2e9519	-0.0026639162
102	0xba34c2b7	-0.000689547
103	0xb97f41ca	-0.00024343203
104	0xbd25f0dd	-0.04051291
105	0x390edc13	0.0001362416
106	0x367c4f60	3.7597129e-06
107	0x3c7682d1	0.0150458375
108	0x3d016924	0.03159441
109	0x3c4638e6	0.012098527
110	0xb91d7860	-0.0001501753
111	0x3bac10ba	0.0052510174
112	0xbd4ffdee	-0.050779276
113	0xbd7b82dd	-0.061404098
114	0x3d6d9e37	0.058012214
115	0xbd4504f1	-0.048100416
116	0xb7c289bc	-2.319074e-05
117	0x37a08c51	1.9138826e-05
118	0xbd72d3a9	-0.059283886
119	0x3c4d76c8	0.012540527
120	0xbd11df2e	-0.03561323
121	0x3cf15574	0.029459693
122	0x3d2a55ef	0.04158586
123	0x3cf43e33	0.029814815
124	0x3cb2fd8e	0.02184942
125	0x3d40171a	0.04689703
126	0x3aadac1c	0.0013250145
127	0xbb8b735b	-0.004255695
128	0x3b3deb49	0.0028979352
129	0xb935a894	-0.00017324305
130	0xb8dd7bb1	-0.000105611405
131	0x3c6c439e	0.014420418
132	0x3d139dd7	0.0360392
133	0x3c0e505d	0.008686152
134	0xb8a0c621	-7.666299e-05
135	0x3d487870	0.048942983
136	0xbc888fbe	-0.016670104
137	0x3a543ecd	0.0008096516
138	0x3af13f1c	0.0018405649
139	0xbd21abca	-0.03947047
140	0xbcde2950	-0.027119309
141	0xbbbeea21	-0.00582625
142	0x3a79f6bc	0.00095353625
143	0xbd145455	-0.036213238
144	0xbcf5001d	-0.02990728
145	0x3cff944c	0.031198643
146	0xbc52c8cf	-0.012865259
147	0xbc977ab9	-0.018491136
148	0x3d3d1f45	0.0461724
149	0x3c863cc9	0.016386406
150	0x3ba1fc0a	0.0049433755
151	0x3ca37710	0.019954234
152	0xb9b30722	-0.00034146855
153	0x3d079ce7	0.033108618
154	0x38c3fc6a	9.3453404e-05
155	0xbc8a9e69	-0.016921239
156	0x3bd2b209	0.006429915
157	0x3c448442	0.011994423
158	0x3c95573c	0.018230073
159	0x3cadca0c	0.021214508
160	0x3d1a7746	0.037711404
161	0xb9c08d57	-0.000367264
162	0x3d1e77fc	0.038688645
163	0xbc07e6af	-0.008294745
164	0xb80c5f3a	-3.3467288e-05
165	0x3c05e208	0.008171566
166	0xbaabec78	-0.0013116738
167	0x3ccbfa7a	0.02489971
168	0xb977e1a4	-0.00023639813
169	0x3b319831	0.002709877
170	0xbc83d6fb	-0.016093722
171	0xbc87a5c0	-0.016558528
172	0xbc28cd0a	-0.010302791
173	0xbd36e0d4	-0.044648007
174	0x3d190827	0.03736129
175	0x3d78f8d7	0.060784187
176	0x3934a0c0	0.00017226022
177	0xbc956964	-0.01823873
178	0xbcddda85	-0.027081737
179	0x3c4963c2	0.0122918505
180	0xbb102cb7	-0.0021999308
181	0x3d24b66b	0.04021303
182	0x3d0d72ad	0.03453319
183	0x3d0bf738	0.034171313
184	0x39983048	0.00029027672
185	0x3d118f8b	0.035537284
186	0xb83d13c0	-4.5079505e-05
187	0x3cdf1960	0.02723378
188	0xbd0cf95f	-0.034417506
189	0x3bda6124	0.006664412
190	0x3c7c685b	0.01540574
191	0xba94528a	-0.0011316102
192	0xbcb7a26e	-0.02241632
193	0x3d1385b9	0.0360162
194	0x3cc44725	0.023959706
195	0x3d34abaf	0.044109043
196	0x3c85e150	0.016342789
197	0xbc04fbf1	-0.008116708
198	0xbd4e2318	-0.050326437
199	0xbd05370f	-0.03252321
200	0x3d182eb8	0.03715393
201	0x3be35afc	0.0069383364
202	0xbc5b80de	-0.013397424
203	0x3b538500	0.003227532
204	0x3b7c22bb	0.003847285
205	0xbac58131	-0.0015068409
206	0xbcc13686	-0.02358557
207	0x3c9dcf04	0.019263752
208	0x3bced2c6	0.0063117472
209	0x3d69d7ae	0.057090454
210	0x37d04ac7	2.4830353e-05
211	0x3c9cb215	0.019127885
212	0xb9cadc9e	-0.00038692815
213	0xbbb8720d	-0.0056288303
214	0x3b8836a0	0.0041569024
215	0x3d460e69	0.048353586
216	0xbd09c72a	-0.033637203
217	0x3ce7e958	0.02830951
218	0x3d59118d	0.052995253
219	0xbb3f6ae9	-0.002920801
220	0xb90fb763	-0.0001370586
221	0x3c4f3da0	0.01264897
222	0xbcb3b4b9	-0.021936761
223	0xb9a52fae	-0.00031506777
224	0x3c02734f	0.007962062
225	0x3d2a5b30	0.04159087
226	0x37146433	8.844817e-06
227	0xb908bf0d	-0.00013041143
228	0x3c451fbb	0.012031491
229	0xbcc17e85	-0.0236199
230	0xbbe82085	-0.0070839548
231	0xb7560588	-1.2756682e-05
232	0xbd1caaf7	-0.038248982
233	0xbd40b4b2	-0.047047324
234	0xbc074d98	-0.008258246
235	0xb72589ae	-9.866822e-06
236	0xbc25078d	-0.010072601
237	0xbb63209a	-0.0034656883
238	0xbd6eeccb	-0.058331292
239	0xbbee9b0a	-0.0072816657
240	0xbca86c1a	-0.02055936
241	0x3d5bf7a2	0.053702958
242	0xbcd531ae	-0.026024666
243	0x3d69ea06	0.057107948
244	0x3d14d360	0.036334395
245	0x3c9063b6	0.01762567
246	0x3c68b550	0.0142033845
247	0x3c88f137	0.016716583
248	0x3808bf95	3.260335e-05
249	0x3afff583	0.0019528124
250	0xb8018ed7	-3.0889027e-05
251	0x3c32083b	0.01086622
252	0xb91edcdb	-0.0001515033
253	0x3c0bbe5b	0.008529271
254	0x371912ef	9.123919e-06
255	0xbb513f5e	-0.003192864

layers.6.weight f4 [1, 400]
0	0x3bec51c9	0.007211898
1	0xbcd54460	-0.02603358
2	0xb7d40a5e	-2.5277197e-05
3	0xba5fc616	-0.0008536292
4	0x3ce5fca9	0.02807458
5	0xbc73a4fa	-0.014870876
6	0xb82aeec4	-4.0753526e-05
7	0xbba94cb9	-0.0051666168
8	0xbd43f8ea	-0.047844805
9	0x38ca38bb	9.6426775e-05
10	0x3c879a3c	0.016553037
11	0x3c27e658	0.010247789
12	0xbab07e25	-0.0013465328
13	0xbbef7719	-0.0073078987
14	0xb8926a50	-6.981625e-05
15	0xb8c69936	-9.4699135e-05
16	0xb7a2745d	-1.936609e-05
17	0xbcaf306d	-0.021385396
18	0x3c029d0e	0.007972015
19	0xbba89594	-0.005144784
20	0xbc477076	-0.012172809
21	0xb7b25eb4	-2.1263353e-05
22	0xbd8bea1e	-0.06831764
23	0x3cf2bb29	0.02963026
24	0x3d042bfd	0.032268513
25	0x3d674f08	0.056471854
26	0xb8cbabea	-9.711816e-05
27	0x3cb9dce2	0.022688333
28	0x3d070e66	0.032972716
29	0x3c0dde1c	0.008658912
30	0x3d32ee1d	0.043684114
31	0xbc0f3121	-0.008739741
32	0x3b48cd8a	0.003064009
33	0xba1f4ac8	-0.0006076512
34	0x3cc96c64	0.024587817
35	0x389260b9	6.9798385e-05
36	0x3c986de8	0.018607095
37	0x3ab49991	0.0013778677
38	0x3d0e90ef	0.03480619
39	0x3a971514	0.0011526668
40	0x3744fba3	1.1741099e-05
41	0x3c07498a	0.008257279
42	0x3d439135	0.047745902
43	0x3cfe4b2c	0.031041704
44	0x3d4cd1d1	0.050004784
45	0x3cacc1ff	0.021088598
46	0x39c1b89d	0.00036949376
47	0xbb8eb6de	-0.0043552956
48	0xb83fa43e	-4.569091e-05
49	0xbd0c6754	-0.03427823
50	0xbc65dc97	-0.0140296435
51	0xb8ecfcf8	-0.00011300476
52	0x39943658	0.0002826925
53	0xbcedf4d1	-0.029047402
54	0xbb336229	-0.002737174
55	0x3bdbc343	0.0067066266
56	0x3bc7dbe5	0.0060992115
57	0x3d565e01	0.052335743
58	0x3b6a1521	0.003571816
59	0xbcba2d06	-0.022726547
60	0x3c83674b	0.016040465
61	0x3c42abbb	0.011881764
62	0xbbf60b66	-0.007508683
63	0xbc1da4f1	-0.009621845
64	0x3d162920	0.036660314
65	0x3d1e4e84	0.038649097
66	0xbcfa8b99	-0.030584143
67	0xbceb67c1	-0.028735997
68	0xbca8c80d	-0.020603204
69	0xb7d97940	-2.5924877e-05
70	0x39a9aba1	0.00032362065
71	0x3cbfd096	0.023414891
72	0x3cdde33a	0.02708589
73	0x38c6e63a	9.484259e-05
74	0xbbd62ab9	-0.0065358547
75	0x3d479807	0.04872897
76	0x3d46ae45	0.04850604
77	0x392388de	0.00015595878
78	0xbd0d6b10	-0.03452593
79	0xb84f34a6	-4.940168e-05
80	0x3abf394b	0.0014589218
81	0xbcc3be28	-0.023894385
82	0xb74cdbe5	-1.2210546e-05
83	0xbbb3b819	-0.0054845926
84	0xbb23a21e	-0.0024968456
85	0x3c87f272	0.0165951
86	0x3d282466	0.041050337
87	0xbcc2cfd8	-0.023780748
88	0xb94945ae	-0.00019194811
89	0x3d27d281	0.040972237
90	0xb628a048	-2.5127247e-06
91	0xbce7e925	-0.028309414
92	0xbb5c0b70	-0.0033576153
93	0xbcf52ce1	-0.029928626
94	0x3a129541	0.00055916986
95	0x3d4cb4c6	0.049977086
96	0xbcebc81c	-0.028781943
97	0x3c54067e	0.012941001
98	0x3b83cb8a	0.0040220665
99	0xbd0a5e2c	-0.033781216
100	0xbc205585	-0.009786014
101	0xbc77ee78	-0.015132539
102	0x3aac2417	0.0013133314
103	0xb90a2741	-0.00013175329
104	0x3cd73aad	0.026273096
105	0xb6870d1e	-4.0248406e-06
106	0xb7c779e8	-2.3779416e-05
107	0x3b67c2cc	0.003536391
108	0xbc818f1e	-0.015815314
109	0x3c32cae0	0.010912627
110	0xba29bae9	-0.000647469
111	0x3cb43cde	0.02200168
112	0xbd0f3d16	-0.034970365
113	0xbcda1f63	-0.026626294
114	0x3cb50dc9	0.0221013
115	0x3ba20482	0.004944385
116	0xb816f053	-3.5986606e-05
117	0x3814bcc5	3.5461755e-05
118	0xbceed5d8	-0.029154703
119	0x3d244d50	0.040112793
120	0x3d0198d3	0.031639885
121	0x3d1bd462	0.03804434
122	0xbd0aea12	-0.033914633
123	0x3be0b76d	0.0068578036
124	0x3d1a36c1	0.037649874
125	0x3d1d3fe7	0.03839102
126	0xb95377c4	-0.00020167144
127	0xbce074e6	-0.027399492
128	0xbbe61570	-0.0070215985
129	0xb922805c	-0.00015497342
130	0xb8f7fdf7	-0.000118251824
131	0xbcb19c23	-0.021680897
132	0xbccfe322	-0.02537686
133	0xbd0daec6	-0.034590505
134	0xb8283faf	-4.011363e-05
135	0x3d5688a6	0.05237641
136	0xba1037dd	-0.00055014883
137	0x3c92f15d	0.017937357
138	0x3ceb7604	0.028742798
139	0x3c9f4f8a	0.019447107
140	0x3b17f420	0.0023186281
141	0x37b76e3c	2.1866632e-05
142	0x39f5337e	0.00046768406
143	0x3c741221	0.0148969
144	0xbd15eb1d	-0.036601175
145	0xbc4a1624	-0.01233438
146	0x3c99c77e	0.018771883
147	0xbd06bfd4	-0.032897785
148	0xbd1509c8	-0.03638628
149	0x3cf13185	0.029442558
150	0x3b5a51c8	0.0033312906
151	0x3d163135	0.03666802
152	0x3a6a7201	0.00089433795
153	0x3c7a8032	0.015289353
154	0x3891690f	6.9337075e-05
155	0x3d0fdae2	0.035120852
156	0x3b23c23c	0.00249876
157	0xbcbc4da2	-0.022986237
158	0xbb6cba24	-0.003612169
159	0xbd08e117	-0.033417787
160	0x3b76f2c4	0.003768132
161	0xb8a39120	-7.799477e-05
162	0xbd132677	-0.035925355
163	0xbbae1b43	-0.0053133084
164	0x389ece0f	7.5724085e-05
165	0x3d26d51c	0.04073058
166	0x3c35cd66	0.011096334
167	0x3c2106d6	0.00982829
168	0xbcc772c2	-0.024346713
169	0xbd21fe33	-0.039549064
170	0x3c7d7b47	0.015471286
171	0x3d04c96a	0.032418646
172	0xbd1daf61	-0.038497332
173	0x3d2a176c	0.041526243
174	0x3ca4951b	0.02009063
175	0x3c7de0a9	0.015495458
176	0xb56cb3d0	-8.817851e-07
177	0x3cded8c6	0.027202975
178	0xbcb92ce3	-0.022604411
179	0x3d39710f	0.045273837
180	0x3c288f82	0.010288121
181	0xbceca3c0	-0.028886676
182	0x3ce0ca6f	0.027440278
183	0xbd57077d	-0.052497376
184	0x3ccacbe2	0.024755422
185	0xbce81c5e	-0.028333839
186	0x3682b31e	3.895154e-06
187	0xbc0d2b08	-0.0086162165
188	0x3c15307f	0.009105801
189	0xbc62ae86	-0.013835555
190	0xbbd54b2a	-0.0065092044
191	0xbab1d18f	-0.0013566482
192	0x3b207d43	0.0024488724
193	0x3d02f2e9	0.03196994
194	0xbca3a16d	-0.019974435
195	0xbdb3515e	-0.08755754
196	0x3d18551b	0.037190538
197	0xb7686f12	-1.3854138e-05
198	0x3b7753c5	0.003773914
199	0xbc3d4117	-0.011551163
200	0xbd8119ac	-0.06303725
201	0xbc5f2c91	-0.013621465
202	0x3cf6fbca	0.03014936
203	0xbbdfd2a9	-0.0068305326
204	0x38d4621f	0.00010127224
205	0x3cfaf1d1	0.030632885
206	0x363f1370	2.8472532e-06
207	0xbc874bd2	-0.016515646
208	0xbc3ef589	-0.01165522
209	0x3ccab545	0.02474464
210	0xbc5dd93f	-0.013540565
211	0x3baba33e	0.005237966
212	0x3a4a485f	0.00077164726
213	0x3d61ddf5	0.055143315
214	0x3d24763a	0.040151812
215	0x3c3ec96b	0.0116447015
216	0xbb96ffc7	-0.0046081278
217	0x3b103938	0.0022006761
218	0x3c1f7732	0.009733008
219	0xbad85b26	-0.0016506657
220	0xb8dcc9a4	-0.00010527976
221	0xbd4018a8	-0.046898514
222	0x3ca57767	0.020198537
223	0xb7c2d084	-2.32237e-05
224	0xbd416a07	-0.047220256
225	0xbca81e47	-0.02052225
226	0xb82f0178	-4.172462e-05
227	0x382f369d	4.1774114e-05
228	0x3ca8d889	0.020611065
229	0xbc0a4457	-0.008439145
230	0x3b7440f6	0.0037270165
231	0x39f35897	0.00046414576
232	0x3c9777cc	0.01848974
233	0x3c609509	0.013707408
234	0xbc92f672	-0.01793978
235	0xb6143546	-2.2084728e-06
236	0x3d454eea	0.04817096
237	0xb95ac4b5	-0.00020863379
238	0xbcde798d	-0.02715757
239	0x3d564038	0.052307338
240	0x3880f74f	6.1495804e-05
241	0x3d283d5c	0.04107414
242	0x3bb4293e	0.0054980805
243	0x3d43f843	0.047844183
244	0xbcf8f0c8	-0.030388251
245	0x3d485a3a	0.04891417
246	0x3cd23c59	0.025663542
247	0xba92ca9e	-0.0011199301
248	0xb8292a18	-4.0331943e-05
249	0x3c26851a	0.01016357
250	0xb89e0d4d	-7.5365046e-05
251	0xbd02150a	-0.031758346
252	0x38bab3e6	8.90268e-05
253	0x3cad07f7	0.021121962
254	0x36b56b05	5.406679e-06
255	0xbba1f356	-0.004942338
