data/model.pt (torch_old, 87954 bytes, 5 tensors)

layers.0.weight f4 [100, 12]
0.22175089 0.033149358 0.037754964 -0.1263007 0.21315053 -0.14396772 -0.20340218 -0.2573238
0.04503316 -0.05563256 0.2840418 0.17702785 0.11151512 -0.21618117 0.15913583 0.20865239
0.18744099 -0.12818831 0.20736343 -0.2814433 -0.084288366 0.23380867 -0.23181938 0.1494068
-0.1857008 -0.14331865 0.012755446 0.28359392 -0.091922164 0.2852407 0.25274292 0.248065
-0.043548755 0.0694828 -0.03328102 0.012581398 0.07169081 0.11606254 0.07643473 -0.11238741
0.19867939 -0.20562832 0.28400913 -0.26060158 -0.16653566 0.16057982 -0.26338193 0.11610809
-0.03326881 -0.21935545 -0.2830984 -0.010709584 -0.17556834 -0.1998663 -0.071590126 -0.096157014
0.2838924 -0.22209722 -7.95424e-05 0.12924954 0.20233524 -0.026906002 -0.12940559 -0.13636808
0.2815986 0.11062961 0.17786549 -0.26864615 0.29190847 0.06752324 -0.10596302 -0.1556291
0.23236775 0.24469984 0.24790716 -0.24621622 -0.18722165 -0.106350526 0.20559362 -0.038821414
0.1329189 -0.08956598 -0.28160724 -0.26923195 0.1595666 0.05383997 0.13484044 0.20808315
0.17120111 0.043711297 0.2803012 -0.2544808 0.063617334 -0.038080327 0.18050085 -0.13589606
0.121880315 0.27934125 0.09585318 0.23785535 -0.24615343 0.24642362 -0.17072414 0.12591362
0.15020655 -0.14289251 0.25441375 -0.16848989 0.03802564 0.11023135 -0.22208923 0.2532505
0.10253085 -0.2917121 -0.08400543 0.26328215 -0.18818343 0.13035925 -0.14486013 0.106800616
-0.11723931 0.19505093 0.28107217 -0.13517489 0.12293329 0.12003382 0.19335876 -0.11076242
0.123801544 0.14545435 0.1418536 -0.15261075 0.20706983 -0.038856078 -0.19025677 -0.17285687
0.0048481748 -0.1811658 0.1768384 0.11460428 -0.004128304 0.28555846 0.19121207 0.25483444
-0.05322039 0.022771478 0.09960759 -0.25867638 -0.103615716 0.04213181 -0.1385803 -0.11272684
0.062674105 0.1562475 -0.25679022 -0.2016677 -0.19912231 -0.005611225 -0.05476417 -0.21831937
0.044334944 0.24260458 -0.12901007 0.122038536 0.23314033 0.04135678 0.22893728 0.07330303
-0.2036484 -0.26898813 0.28034467 0.1364085 -0.13670342 0.13064094 0.08504523 0.052792475
0.08605537 0.27529097 -0.21888131 -0.22924966 -0.29021713 0.25929478 -0.011635136 0.23560534
-0.097661555 -0.032651223 -0.18041019 -0.28755838 -0.24330205 0.23383439 -0.27368662 0.24798511
-0.20690049 -0.28341538 -0.23488577 0.06362428 -0.017043225 0.11515212 0.17151885 -0.1252405
-0.029206267 0.21306486 0.22672115 0.13159622 0.1968469 0.12520203 0.14107743 0.0049697757
0.07086241 -0.13152632 -0.11717647 -0.24670805 0.22291285 -0.252228 -0.080764234 -0.25142068
-0.023044702 -0.2906143 -0.25201708 0.27060276 0.13181281 -0.28794843 0.056047235 -0.24272317
0.10106628 0.044749815 -0.095057964 -0.025475077 0.012622371 0.1556499 -0.15507184 -0.12862198
0.2642282 -0.054801393 -0.023787146 -0.030768426 -0.16574165 0.13560337 0.30569682 -0.26264134
0.21039009 0.0071234633 -0.024048172 -0.24088821 -0.22172174 0.21259634 0.20231561 -0.15667681
-0.197805 -0.010426919 -0.044879775 0.25994387 0.23268966 -0.055731542 -0.12265613 0.07016658
00000000: aa12 633e 9fc7 073d f3a4 1a3d f854 01be
00000010: 2244 5a3e 466c 13be a948 50be f2bf 83be
00000020: b174 383d f8de 63bd ed6d 913e ca46 353e
00000030: 0a62 e43d 995e 5dbe 81f4 223e f9a8 553e
00000040: 88f0 3f3e cc43 03be 1457 543e 5619 90be
00000050: 619f acbd 8a6b 6f3e 0f62 6dbe 19fe 183e
00000060: 5a28 3ebe 20c2 12be 38fc 503c 3933 913e
00000070: b041 bcbd 120b 923e 8567 813e c004 7e3e
00000080: 2e60 32bd 004d 8e3d ae51 08bd 3522 4e3c
00000090: a2d2 923d 32b2 ed3d d089 9c3d 5f2b e6bd
000000a0: 9c72 4b3e 3b90 52be a569 913e 926d 85be
000000b0: 5388 2abe 096f 243e ffd9 86be 14ca ed3d
000000c0: e044 08bd b79e 60be 46f2 90be 4077 2fbc
000000d0: 30c8 33be c0a9 4cbe d89d 92bd f8ed c4bd
000000e0: 585a 913e 746d 63be 00d0 a6b8 fe59 043e
000000f0: f830 4f3e fa69 dcbc e682 04be 13a4 0bbe
00000100: b12d 903e c791 e23d 5f22 363e fd8b 89be
00000110: 0775 953e a049 8a3d 2403 d9bd 3c5d 1fbe
00000120: d0f1 6d3e 9892 7a3e 60db 7d3e 1b20 7cbe
00000130: 08b7 3fbe 4ece d9bd 2287 523e 3403 1fbd
00000140: e41b 083e 5e6e b7bd d32e 90be c5d8 89be
00000150: 6d65 233e 4d87 5c3d 9d13 0a3e c013 553e
00000160: 584f 2f3e 9e0a 333d a483 8f3e 4f4b 82be
00000170: ce49 823d 1efa 1bbd 37d5 383e 5628 0bbe
00000180: 639c f93d d105 8f3e ac4e c43d 5a90 733e
00000190: a50f 7cbe 7956 7c3e 4fd2 2ebe 80ef 003e
000001a0: bfcf 193e 6a52 12be 8542 823e 9d88 2cbe
000001b0: c6c0 1b3d f9c0 e13d 5c6b 63be 0daa 813e
000001c0: b2fb d13d 4a5b 95be 0a0b acbd ebcc 863e
000001d0: 28b3 40be e57c 053e 3756 14be 48ba da3d
000001e0: 2a1b f0bd 6ebb 473e b1e8 8f3e 496b 0abe
000001f0: 73c4 fb3d 4bd4 f53d d7ff 453e 68d7 e2bd
00000200: aa8b fd3d fcf1 143e 1242 113e fe45 1cbe
00000210: 1d0a 543e 8d27 1fbd acd2 42be 6401 31be
00000220: 70dd 9e3b 8783 39be 2015 353e a6b5 ea3d
00000230: b946 87bb b834 923e 19cd 433e a979 823e
00000240: a0fd 59bd 408b ba3c 10ff cb3d 3b71 84be
00000250: 7a34 d4bd 6892 2c3d ffe7 0dbe 54dd e6bd
00000260: 485b 803d 58ff 1f3e 027a 83be fa81 4ebe
00000270: b8e6 4bbe 5ede b7bb 6550 60bd 1d8f 5fbe
00000280: 8f98 353d 566d 783e 371b 04be 57ef f93d
00000290: 57bc 6e3e ba65 293d 896e 6a3e e61f 963d
000002a0: 3589 50be d0b8 89be 5689 8f3e abae 0b3e
000002b0: fbfb 0bbe bdc6 053e 322c ae3d ec3c 583d
000002c0: cc3d b03d f0f2 8c3e 6c22 60be 6cc0 6abe
000002d0: 5797 94be 49c2 843e 4ca1 3ebc 8742 713e
000002e0: c802 c8bd 4abd 05bd 73bd 38be da3a 93be
000002f0: 2c24 79be 4872 6f3e a720 8cbe cfef 7d3e
00000300: b9dd 53be d21b 91be e585 70be 724d 823d
00000310: 3c9e 8bbc e0d4 eb3d a3a2 2f3e 0c3f 00be
00000320: fb41 efbc ad2d 5a3e 9729 683e 29c1 063e
00000330: 3c92 493e f634 003e 9a76 103e 80d9 a23b
00000340: 5020 913d d6ae 06be 38fa efbd 09a1 7cbe
00000350: 4443 643e 0724 81be b867 a5bd 36ba 80be
00000360: 3ec8 bcbc 66cb 94be 6208 81be 728c 8a3e
00000370: f0f9 063e fa6d 93be c991 653d 6c8c 78be
00000380: d6fb ce3d 954b 373d c0ad c2bd 1cb1 d0bc
00000390: 10ce 4e3c b062 1f3e 27cb 1ebe 7bb5 03be
000003a0: eb48 873e 6d77 60bd 43dd c2bc 110e fcbc
000003b0: 2eb8 29be 9cdb 0a3e 4b84 9c3e ed78 86be
000003c0: 8070 573e f16b e93b ac00 c5bc 66ab 76be
000003d0: 060b 63be dbb2 593e d32b 4f3e e36f 20be
000003e0: 658d 4abe abd5 2abc dbd3 37bd 5d17 853e
000003f0: 3346 6e3e c246 64bd 2333 fbbd 7fb3 8f3d

layers.0.bias f4 [100]
0.20956452 -0.26943123 0.2800916 0.067908056 -0.22537571 -0.075384654 -0.08334306 0.29621395
-0.23101012 -0.117986076 0.021193052 -0.1617838 0.12997505 0.11355777 -0.120735735 0.07035749
-0.11316756 -0.14863971 0.120412745 0.017887093 0.048198137 -0.030723067 0.14984977 -0.044888824
-0.009902011 -0.23523259 -0.07749168 4.8535003e-05 -0.02306959 -0.1629873 0.022024453 -0.08882944
-0.20582005 0.21083799 0.15849718 -0.10135771 0.21088943 -0.26887435 0.23205715 -0.08713916
0.12332222 0.11349156 0.120422184 0.10771912 -0.1272786 0.03477291 0.010371298 -0.11041333
-0.1787489 -0.0699434 -0.13328363 -0.27325016 -0.08545737 0.048309404 -0.11277027 -0.111827426
0.15372346 0.216558 -0.2237365 -0.021689277 -0.28291926 -0.14490151 -0.15526828 0.1524207
-0.13796559 -0.060386375 -0.14490138 -0.19748208 0.2527127 -0.13631985 0.22476585 -0.14559846
-0.26031125 0.13576736 0.2058205 -0.25364223 0.26174733 -0.02822939 -0.13522427 -0.17363523
0.10884692 0.17588001 -0.24750872 -0.12649906 0.039349437 -0.096000284 0.21852684 -0.18386449
-0.029485613 -0.10792877 0.24044707 0.05938875 0.26182616 0.2630437 0.18721445 0.27906168
-0.10156849 0.18185912 0.090469696 0.04641667
00000000: 1598 563e e4f2 89be 2b68 8f3e 6113 8b3d
00000010: e4c8 66be 4563 9abd c4af aabd 5ba9 973e
00000020: eb8d 6cbe afa2 f1bd 0d9d ad3c a7aa 25be
00000030: 2e18 053e fa90 e83d 4c44 f7bd 9617 903d
00000040: 65c4 e7bd 0235 18be f59a f63d f487 923c
00000050: 696b 453d f1ae fbbc 3872 193e 58dd 37bd
00000060: 0b3c 22bc d0e0 70be f5b3 9ebd 1092 4b38
00000070: 70fc bcbc 25e6 26be a06c b43c 36ec b5bd
00000080: 7ec2 52be eae5 573e 164d 223e a294 cfbd
00000090: 66f3 573e e6a9 89be 64a0 6d3e 0476 b2bd
000000a0: 5c90 fc3d 436e e83d e89f f63d d89b dc3d
000000b0: 5255 02be 0a6e 0e3d 60ec 293c 6220 e2bd
000000c0: f409 37be 7c3e 8fbd 817b 08be 72e7 8bbe
000000d0: 4604 afbd 15e0 453d 19f4 e6bd c705 e5bd
000000e0: af69 1d3e 61c1 5d3e 2e1b 65be b6ad b1bc
000000f0: cbda 90be 1061 14be a6fe 1ebe 2c14 1c3e
00000100: da46 0dbe b457 77bd 0761 14be be38 4abe
00000110: 8f63 813e 6e97 0bbe 0529 663e c317 15be
00000120: 8447 85be 9906 0b3e 9cc2 523e 65dd 81be
00000130: bf03 863e 5241 e7bc 3b78 0abe 6fcd 31be
00000140: 22eb de3d e419 343e ed72 7dbe f888 01be
00000150: e02c 213d cc9b c4bd 80c5 5f3e f946 3cbe
00000160: d08b f1bc c209 ddbd c237 763e 9e41 733d
00000170: 140e 863e aaad 863e 25b5 3f3e 2ce1 8e3e
00000180: 2403 d0bd 4739 3a3e 2d48 b93d 681f 3e3d

layers.2.weight f4 [200, 100]
-0.09053262 0.01302852 0.052673694 -0.014771296 -0.05108538 -0.06899907 -0.07664104 0.03841427
-0.049541146 -0.05962162 0.006217402 0.032549813 0.05221755 -0.08199977 0.014882415 -0.05797342
-0.016433353 0.09066453 -0.009918045 0.05508063 -0.09534391 -0.07152618 0.02112215 -0.01398313
-0.05847918 -0.08545973 -0.094744034 -0.12553006 0.0015852004 0.04845146 -0.016865395 0.041366383
-0.023677208 -0.057301644 0.030071387 -0.041516807 -0.06402263 0.04181952 -0.09277512 0.016847089
0.035785083 0.030269625 0.031742703 -0.07128861 -0.013578751 -0.028678648 -0.054197945 -0.08779992
-0.027021907 -0.09648961 -0.0421483 -0.09287101 -0.03767779 0.05200535 -0.08453226 -0.06684676
0.012065712 0.028146751 -0.00863491 0.03734814 -0.07565276 -0.0241168 0.0064798044 -0.036505558
-0.08394546 -0.03748413 0.04671028 -0.002048358 -0.102807485 0.083169945 0.07666798 0.03681557
-0.058014642 -0.09520185 -0.008368097 -0.03564018 0.013434878 -0.082344085 0.07385757 -0.014090427
0.08794331 -0.09178027 0.048044156 0.07098464 0.045065872 -0.10942373 0.03258316 -0.01600383
-0.08553199 -0.06329567 0.059473887 -0.022963198 0.054517068 -0.05087109 0.052223783 -0.073362544
0.03296543 -0.004612429 0.044580624 0.035753574 -0.021550447 -0.030434899 -0.06235111 0.0381992
0.0595868 0.08480294 0.036187656 -0.042396124 -0.07739164 -0.034710523 -0.09094708 0.04589343
-0.05595976 -0.0058979075 -0.07823125 -0.10619333 -0.046843447 -0.09706441 0.042891912 -0.063899204
0.020536125 0.06540452 -0.053208157 -0.025377773 0.04733146 0.0057942495 0.067055546 0.07249404
0.08355983 -0.09685477 -0.09573429 0.06044385 0.08944715 0.06857462 -0.09382554 0.03308501
0.014636998 -0.08990904 0.031752847 -0.013917528 -0.09668331 0.06587038 0.007238566 0.002636537
-0.062878236 0.078357495 -0.016184436 0.02650354 0.015731417 0.08229556 0.024903378 0.092125095
0.054845728 -0.10363728 0.062489476 0.021536317 0.052180897 0.0368386 -0.096798085 0.04492367
0.0523187 -0.07004336 -0.03876318 0.03096163 -0.050281648 -0.007355407 -0.04736073 0.00058874727
-0.010651677 0.029331274 -0.06634331 0.038085714 0.006216444 -0.014016947 0.015737496 -0.04001509
-0.08383638 0.05288022 -0.045238804 0.036629178 0.046580523 0.042664424 -0.09891058 0.052510556
-0.0063922033 0.013856599 0.03768981 -0.07755763 -0.058356 -0.052870695 -0.03722596 0.020727864
0.03169441 -0.09073865 -0.04284956 -0.03194295 -0.08038668 -0.007361955 -0.10688262 0.011647095
-0.009292595 -0.06870257 0.04857417 -0.03133578 -0.09266738 -0.08932339 0.067796476 -0.017082386
0.09230857 -0.07964237 -0.056292836 -0.026195366 -0.09456744 -0.06055342 0.057281185 0.08856632
-0.003070849 -0.07460667 -0.087638274 0.12162935 0.008815378 0.092699364 0.046366636 -0.07294049
-0.08843281 -0.07859278 -0.01717926 0.12709156 -0.09479666 0.09733588 0.056206264 -0.098386906
-0.014942706 0.05011739 0.077397205 0.077743955 -0.08279561 0.07894177 -0.06734399 0.04485362
-0.031590763 0.10651281 0.08999906 -0.0147605315 -0.026758498 -0.023123523 0.07661665 -0.05852381
0.08090293 -0.081171386 0.0017808945 0.04277452 0.08066041 -0.07003008 0.010297186 0.030059233
00000000: 2b69 b9bd 9375 553c 5fc0 573d 4e03 72bc
00000010: e73e 51bd 624f 8dbd faf5 9cbd 4858 1d3d
00000020: a8eb 4abd cd35 74bd 59bb cb3b f452 053d
00000030: 12e2 553d 7fef a7bd 5fd5 733c 8975 6dbd
00000040: 3d9f 86bc 53ae b93d 4c7f 22bc 3a9c 613d
00000050: ab43 c3bd 517c 92bd 5c08 ad3c 8019 65bc
00000060: dd87 6fbd 8305 afbd 2909 c2bd f48a 00be
00000070: 80c6 cf3a 0a75 463d 4c29 8abc cc6f 293d
00000080: b4f6 c1bc 21b5 6abd 4558 f63c 870d 2abd
00000090: 4c1e 83bd f24a 2b3d e200 bebd e802 8a3c
000000a0: 6193 123d 01f8 f73c a304 023d c3ff 91bd
000000b0: 6979 5ebc 7cef eabc aafe 5dbd 72d0 b3bd
000000c0: 0c5d ddbc 589c c5bd b2a3 2cbd 2833 bebd
000000d0: 0754 1abd 9003 553d 401f adbd f4e6 88bd
000000e0: 44af 453c 0494 e63c 7079 0dbc 5dfa 183d
000000f0: d6ef 9abd 9890 c5bc 8a54 d43b da86 15bd
00000100: 99eb abbd f688 19bd 4753 3f3d bf3d 06bb
00000110: bb8c d2bd 0155 aa3d 1a04 9d3d eccb 163d
00000120: c3a0 6dbd 30f9 c2bd 581a 09bc 70fb 11bd
00000130: f61d 5c3c 04a4 a8bd a342 973d 89db 66bc
00000140: 9f1b b43d 4bf7 bbbd f3c9 443d 6560 913d
00000150: fe96 383d 8c19 e0bd eb75 053d 771a 83bc
00000160: 652b afbd 29a1 81bd e49a 733d 511d bcbc
00000170: 4a4d 5f3d 345e 50bd 9be8 553d 1a3f 96bd
00000180: c206 073d dc23 97bb 2c9a 363d 5772 123d
00000190: 908a b0bc 9c52 f9bc e163 7fbd c476 1c3d
000001a0: 4a11 743d 2aad ad3d 8239 143d 8fa7 2dbd
000001b0: 827f 9ebd 9f2c 0ebd 7642 babd c0fa 3b3d
000001c0: 1036 65bd 3c43 c1bb b537 a0bd e37b d9bd
000001d0: eade 3fbd b5c9 c6bd 6eaf 2f3d 96dd 82bd
000001e0: 603b a83c cef2 853d ccf0 59bd 0ce5 cfbc
000001f0: a2de 413d b0dd bd3b 6b54 893d c177 943d
00000200: 6b21 ab3d cb5b c6bd 5710 c4bd f893 773d
00000210: 1130 b73d da70 8c3d 9b27 c0bd 2684 073d
00000220: 05d0 6f3c 3b22 b8bd 460f 023d 5806 64bc
00000230: e601 c6bd 0de7 863d 7e31 ed3b c0c9 2c3b
00000240: 4ec6 80bd e579 a03d 3995 84bc f41d d93c
00000250: 2cdf 803c 938a a83d 2b02 cc3c 15ac bc3d
00000260: eaa5 603d c83f d4bd f7f4 7f3d ee6c b03c
00000270: a3bb 553d 12e4 163d 133e c6bd e201 383d
00000280: 224c 563d e572 8fbd 24c6 1ebd 3fa3 fd3c
00000290: 21f4 4dbd a005 f1bb 53fd 41bd 2956 1a3a
000002a0: 5f84 2ebc 2448 f03c 00df 87bd c4ff 1b3d
000002b0: 50b3 cb3b 56a7 65bc eceb 803c dde6 23bd
000002c0: 68b2 abbd ee98 583d 534c 39bd 7a08 163d
000002d0: 38cb 3e3d e4c0 2e3d a191 cabd 4f15 573d
000002e0: b075 d1bb ca06 633c a160 1a3d 89d6 9ebd
000002f0: b306 6fbd f18e 58bd 407a 18bd 7bcd a93c
00000300: ffd1 013d 2fd5 b9bd 0583 2fbd 9cd6 02bd
00000310: c6a1 a4bd 8e3c f1bb 46e5 dabd 75d3 3e3c
00000320: f83f 18bc efb3 8cbd b5f5 463d f259 00bd
00000330: 65c8 bdbd 2eef b6bd e1d8 8a3d 5cf0 8bbc
00000340: 470c bd3d 8a1b a3bd 5193 66bd aa97 d6bc
00000350: 93ac c1bd dd06 78bd ad9f 6a3d 4262 b53d
00000360: 4c40 49bb 62cb 98bd b27b b3bd cf18 f93d
00000370: 606e 103c 2ad9 bd3d f1ea 3d3d d361 95bd
00000380: 431c b5bd 40f5 a0bd 85bb 8cbc 4a24 023e
00000390: c024 c2bd 0958 c73d 8a38 663d 137f c9bd
000003a0: 40d2 74bc e447 4d3d 6d82 9e3d 3938 9f3d
000003b0: bf90 a9bd 39ac a13d a5eb 89bd 6eb8 373d
000003c0: 5165 01bd 6323 da3d 6d51 b83d 28d6 71bc
000003d0: a334 dbbc 8b6d bdbc 31e9 9c3d aab6 6fbd
000003e0: 6fb0 a53d 2f3d a6bd e76c e93a 5634 2f3d
000003f0: 4931 a53d ee6b 8fbd 87b5 283c c83e f63c

layers.2.bias f4 [200]
0.08533771 0.04950838 0.09441147 0.026569702 0.04022277 -0.036200944 0.09794613 0.04206767
0.02812469 -0.06056678 -0.058414966 -0.05920745 -0.009845925 -0.044165015 0.02097224 -0.059349153
-0.022207776 -0.04668854 -0.08551868 0.0616458 0.07113662 -0.05920084 -0.018687733 -0.09608334
-0.035293207 -0.10736874 0.044120025 -0.018419877 -0.057757262 0.04824873 -0.026441671 -0.09263256
0.08325352 -0.082100384 -0.07732046 -0.005696253 -0.049897913 -0.047495272 -0.09283862 -0.0027708178
-0.0066536814 0.009530277 -0.09827943 -0.05302938 0.090874664 -0.05150042 0.03898511 0.026979811
-0.004083112 -0.06367754 0.039485715 0.021825373 0.068809554 0.003854349 0.09001176 0.009722948
0.06215448 -0.10421259 0.08553296 -0.08034434 0.06973391 -0.107976295 -0.03215631 0.060772933
-0.03344375 -0.022867225 0.03790938 0.047957685 -0.0038561951 -0.016435273 -0.09774035 0.0068021193
0.02412323 -0.01454991 0.07809539 0.035390504 -0.04362116 -0.04384175 0.045248374 0.0952211
0.08229489 -0.094020426 -0.09610661 0.048357263 -0.06457037 -0.022325352 0.03904687 0.054323874
0.051553473 -0.072573304 -0.053827476 -0.008621367 -0.06908874 -0.03943775 0.0109888315 -0.06187992
0.033665083 -0.031196686 0.04461295 0.028771393 -0.009898663 -0.047563538 -0.07182101 0.034900516
0.04650687 -0.018251318 0.084317334 -0.03731396 0.08577666 0.045856006 0.06820362 0.058158603
0.06790576 -0.04044428 0.059096374 -0.08451092 -0.03638692 0.04691116 -0.022590825 -0.061482597
-0.079752155 -0.04480685 -0.038505245 0.06349448 -0.08363019 0.043745577 0.08379126 -0.020579921
-0.08244405 0.072343715 -0.08515947 -0.04212574 0.062862396 -0.04317627 0.07844699 -0.009887777
0.088236324 -0.02089795 -0.006550643 0.029044727 0.06935048 0.06324896 0.035626955 -0.036450565
0.04101335 0.05220382 0.088158734 -0.046343245 -0.09976717 0.08413916 -0.09953429 0.048616897
-0.05732599 -0.06621643 0.00021255264 0.079906955 -0.0069854856 0.0124558 -0.019451201 -0.04704263
0.035048105 0.010312612 -0.07647799 -0.015315361 -0.058624096 -0.03343393 -0.054211162 -0.045312643
-0.09966223 -0.0136236185 -0.027923236 0.0032310486 0.057552256 -0.00810345 0.019881848 -0.09885818
0.058336116 0.021390934 -0.08829905 -0.07384143 -0.07763423 0.10131465 -0.06382434 -0.09991516
0.07395061 -0.066602826 0.10301944 0.016181692 -0.024079919 -0.066254415 0.060390595 0.011572225
0.0029570088 0.10046976 0.028458515 -0.013610016 -0.08431285 0.036006503 -0.077807985 -0.008423382
00000000: 8ac5 ae3d 4dc9 4a3d cd5a c13d b4a8 d93c
00000010: a2c0 243d 7147 14bd fb97 c83d 264f 2c3d
00000020: c065 e63c df14 78bd 8844 6fbd 8383 72bd
00000030: cd50 21bc 60e6 34bd facd ab3c 1918 73bd
00000040: 15ed b5bc 7c3c 3fbd 6b24 afbd 4e80 7c3d
00000050: 14b0 913d 947c 72bd 0417 99bc 58c7 c4bd
00000060: 9c8f 10bd 24e4 dbbd 33b7 343d 48e5 96bc
00000070: e192 6cbd 76a0 453d 349c d8bc 24b6 bdbd
00000080: d280 aa3d 3f24 a8bd 305a 9ebd a2a7 babb
00000090: c161 4cbd 678a 42bd 2d22 bebd 9c96 35bb
000000a0: 2007 dabb e124 1c3c ba46 c9bd 5635 59bd
000000b0: 7f1c ba3d 1bf2 52bd daae 1f3d c404 dd3c
000000c0: a0cb 85bb 5f69 82bd c6bb 213d 20cb b23c
000000d0: 06ec 8c3d 3f99 7c3b 1658 b83d 004d 1f3c
000000e0: b295 7e3d 696d d5bd e82b af3d 938b a4bd
000000f0: a7d0 8e3d ad22 ddbd 56b6 03bd 0aed 783d
00000100: 50fc 08bd 0c54 bbbc de46 1b3d 476f 443d
00000110: 38b8 7cbb 44a3 86bc 182c c8bd 50e4 de3b
00000120: 149e c53c bf62 6ebc 7af0 9f3d a2f5 103d
00000130: 1aac 32bd 6893 33bd 5c56 393d 4803 c33d
00000140: 398a a83d c88d c0bd 8bd3 c4bd 4412 463d
00000150: 783d 84bd a8e3 b6bc 9cef 1f3d b682 5e3d
00000160: bc29 533d 50a1 94bd 337a 5cbd a240 0dbc
00000170: 667e 8dbd 7a89 21bd 800a 343c cd75 7dbd
00000180: 66e4 093d 3190 ffbc 12bc 363d fcb1 eb3c
00000190: 002e 22bc fcd1 42bd e516 93bd d8f3 0e3d
000001a0: fd7d 3e3d ca83 95bc 91ae ac3d 86d6 18bd
000001b0: acab af3d 82d3 3b3d 57ae 8b3d b737 6e3d
000001c0: 2d12 8b3d e7a8 25bd 0a0f 723d 1014 adbd
000001d0: 730a 15bd eb25 403d 6510 b9bc 2dd5 7bbd
000001e0: 1955 a3bd 6387 37bd adb7 1dbd 6509 823d
000001f0: 4e46 abbd 902e 333d c19a ab3d 3997 a8bc
00000200: 6dd8 a8bd f128 943d 1768 aebd 0a8c 2cbd
00000210: 00be 803d 9ad9 30bd d1a8 a03d 5800 22bc
00000220: 3fb5 b43d 2d32 abbc c7a6 d6bb 35ef ed3c
00000230: a007 8e3d ac88 813d 92ed 113d 304d 15bd
00000240: 9dfd 273d acd3 553d 918c b43d 6ad2 3dbd
00000250: bb52 ccbd 2751 ac3d a2d8 cbbd 8322 473d
00000260: a8ce 6abd 7b9c 87bd aae0 5e39 42a6 a33d
00000270: 80e6 e4bb 6913 4c3c 2058 9fbc c6af 40bd
00000280: 9a8e 0f3d 3bf6 283c 7ea0 9cbd 48ed 7abc
00000290: d21f 70bd 04f2 08bd 860c 5ebd c099 39bd
000002a0: b61b ccbd 9935 5fbc 45bf e4bc 00c0 533b
000002b0: eabb 6b3d 55c4 04bc 42df a23c 2876 cabd
000002c0: daf1 6e3d 0a3c af3c 22d6 b4bd 2d3a 97bd
000002d0: b2fe 9ebd 0e7e cf3d 56b6 82bd 52a0 ccbd
000002e0: 6b73 973d 1067 88bd dbfb d23d 788f 843c
000002f0: 4043 c5bc 65b0 87bd 215c 773d 6e99 3d3c
00000300: 60ca 413b 17c3 cd3d d521 e93c 8bfc 5ebc
00000310: 37ac acbd 8e7b 133d cb59 9fbd 3a02 0abc

layers.4.weight f4 [1, 200]
-0.04121197 -0.009457317 0.030128235 -0.024913888 0.05361335 -0.019389294 0.033707917 0.035052978
0.0075033377 0.07148398 0.01650635 -0.065584555 0.0046712547 0.025665797 0.05901828 -0.008189107
-0.035092555 0.024863908 -0.04122919 0.07038223 0.029411696 0.03317242 0.02892746 -0.023125723
-0.008527808 -0.0564886 -0.040732577 0.016282931 0.026071645 -0.05013529 -0.022369046 0.02669029
0.034165584 0.04308382 -0.03944967 0.052341443 -0.021051591 -0.021483373 -0.022471337 -0.011444077
-0.047376186 0.018710038 0.06938661 0.0646362 0.019612774 0.03120444 0.045401074 0.01636485
0.042555213 0.047746427 -0.032821547 0.058954515 0.07766206 0.010738965 0.00985023 0.0169386
0.074758105 -0.05210143 0.068535626 0.009415828 0.029996224 -0.016429545 -0.04379375 -0.0055761198
0.019543536 -0.00028720498 0.02836107 -0.04901074 0.06754855 0.07122681 -0.029281944 0.004595007
-0.03817992 -0.0591888 -0.04501321 0.049619112 0.056199044 -0.04404268 -0.025199458 0.015359859
0.06936536 -0.011283547 0.034506135 0.054522157 0.050259918 0.04975135 -0.02105086 -0.030808065
0.047280543 -0.0011098012 0.050220814 0.022272939 -0.020633811 -0.0014424324 -0.0097621195 0.024152301
0.002136536 0.045867853 0.0066420315 0.057784386 0.013043046 0.054117173 -0.0008007775 0.034214057
0.0311903 -0.018912576 -0.06374316 -0.020897716 -0.02816669 0.033118233 0.05914862 0.069227025
0.002304184 -0.004069922 -0.03273578 0.0031123608 -0.029158087 -0.058614295 -0.038002543 0.04471329
0.07130244 -0.03262604 0.036621943 -0.043059617 -0.044292454 0.048054334 -0.04065685 -0.056028422
-0.019230958 0.0010018338 0.044375777 -0.02386456 0.028729603 0.019331222 0.046519443 0.061022244
-0.006662911 0.019218575 -0.036322586 0.050276414 0.054181036 -0.03961331 -0.041537777 0.06521634
0.0413677 -0.035036687 -0.008384019 0.038307652 0.02921611 0.0026494775 0.06046147 -0.035131138
-0.0012251491 0.008258955 0.0325617 -0.036967013 0.0025980398 0.02861183 0.06028471 -0.05212392
0.05256717 -0.023907246 0.019120954 -0.037693825 -0.05614459 0.033413254 0.0016720921 0.00074989436
0.029486015 -0.046383884 -0.052611716 -0.0072650462 -0.020108912 0.069592714 -0.04021535 0.037220754
-0.026837053 -0.020679204 -0.022080787 -0.0002604723 0.038206685 0.01332114 0.04442551 -0.0026984587
-0.01977159 0.06589152 0.030643193 -0.016479839 -0.022723887 0.008245394 -0.022363069 0.033011876
0.031317055 0.027063148 0.0025268635 -0.023103902 0.06498432 -0.010253698 0.001910805 -0.006310122
00000000: e2cd 28bd ddf2 1abc 7dcf f63c 3618 ccbc
00000010: ac99 5b3d 4cd6 9ebc 5011 0a3d b693 0f3d
00000020: 8fde f53b 3166 923d 5338 873c 3251 86bd
00000030: 5311 993b 1441 d23c 27bd 713d 9b2b 06bc
00000040: 36bd 0fbd 65af cb3c f0df 28bd 8f24 903d
00000050: ccf0 f03c cedf 073d 48f9 ec3c 2872 bdbc
00000060: 38b8 0bbc 9760 67bd 34d7 26bd c863 853c
00000070: 3494 d53c a95a 4dbd 4a3f b7bc 98a5 da3c
00000080: 36f1 0b3d a978 303d fa95 21bd fb63 563d
00000090: 6374 acbc e6fd afbc cf15 b8bc f07f 3bbc
000000a0: 880d 42bd cb45 993c 911a 8e3d fc5f 843d
000000b0: f8aa a03c 74a0 ff3c 7af6 393d 940f 863c
000000c0: 604e 2e3d c291 433d e36f 06bd 4a7a 713d
000000d0: 490d 9f3d 7cf2 2f3c dc62 213c d2c2 8a3c
000000e0: c71a 993d 4f68 55bd 685c 8c3d d844 1a3c
000000f0: a4ba f53c 4197 86bc 1361 33bd e2b7 b6bb
00000100: c419 a03c 0094 96b9 7a55 e83c 7cbf 48bd
00000110: e556 8a3d 5ddf 913d b0e0 efbc b691 963b
00000120: 8c62 1cbd f56f 72bd c65f 38bd 693d 4b3d
00000130: f830 663d 1966 34bd 186f cebc eba7 7b3c
00000140: 6d0f 8e3d a0de 38bc 4e56 0d3d a052 5f3d
00000150: 58dd 4d3d 12c8 4b3d da72 acbc 3261 fcbc
00000160: 3ea9 413d c076 91ba 57b4 4d3d bd75 b63c
00000170: 3d08 a9bc 0010 bdba 4cf1 1fbc 0cdb c53c
00000180: 2005 0c3b eedf 3b3d 66a5 d93b 52af 6c3d
00000190: 80b2 553c f8a9 5d3d 45eb 51ba 0a24 0c3d
000001a0: cd82 ff3c 8cee 9abc c68b 82bd b031 abbc
000001b0: d5bd e6bc fca6 073d d345 723d e6c6 8d3d
000001c0: cb01 173b fb5c 85bb f415 06bd c0f8 4b3b
000001d0: f1dc eebc 8b15 70bd 8ea8 1bbd 4825 373d
000001e0: 0307 923d e2a2 05bd e400 163d 485f 30bd
000001f0: 016c 35bd 9fd4 443d cc87 26bd 0f7e 65bd
00000200: 3e8a 9dbc f74f 833a 60c3 353d 9c7f c3bc
00000210: 585a eb3c 835c 9e3c 2c8b 3e3d 76f2 793d
00000220: 8c54 dabb 4670 9d3c fec6 14bd a4ee 4d3d
00000230: efec 5d3d 9141 22bd 8423 2abd 2590 853d
00000240: 2d71 293d a182 0fbd 205d 09bc 7ce8 1c3d
00000250: a056 ef3c dba2 2d3b 72a6 773d abe5 0fbd
00000260: 2f95 a0ba 9150 073c 6b5f 053d b96a 17bd
00000270: e043 2a3b 5b63 ea3c 1aed 763d e47f 55bd
00000280: ac50 573d 21d9 c3bc 8ca3 9c3c d764 1abd
00000290: dff7 65bd 56dc 083d 1a2a db3a 8f94 443a
000002a0: a88c f13c 07fd 3dbd 627f 57bd a00f eebb
000002b0: 72bb a4bc a086 8e3d dab8 24bd ca74 183d
000002c0: 61d9 dbbc 6f67 a9bc c4e2 b4bc 0090 88b9
000002d0: 9d7e 1c3d e940 5a3c 86f7 353d a0d8 30bb
000002e0: 08f8 a1bc 22f2 863d 6f07 fb3c ba00 87bc
000002f0: 7227 babc b017 073c c132 b7bc 7637 073d
00000300: 5046 003d 89b3 dd3c bc99 253b 6544 bdbc
00000310: 8016 853d 20ff 27bc fa73 fa3a 24c5 cebb
