data/model_sparkling .pt (torch_old, 611048 bytes, 7 tensors)

layers.0.weight f4 [100, 12]
0	0x3e82a6b1	0.255178
1	0xbe0583ec	-0.13038605
2	0xbe54f2a2	-0.20795682
3	0x3e625004	0.22100836
4	0x3e3ee38d	0.18641491
5	0xbdd541be	-0.1041293
6	0x3e87d92c	0.26532876
7	0x3e56faa9	0.20994057
8	0xbe560707	-0.20901118
9	0x3cdab9a8	0.026699856
10	0x3c9eede0	0.019400537
11	0xbe314186	-0.17310151
12	0x3e19b0f9	0.15008916
13	0x3e40c91a	0.18826714
14	0x3caade27	0.020857884
15	0x3e5f9c3b	0.21836941
16	0xbda06681	-0.07832051
17	0x3e2ab9d9	0.16672458
18	0xbd3aec29	-0.045635376
19	0xbddbbcc4	-0.107293636
20	0xbe0bb1e0	-0.13642073
21	0x3e74de2e	0.2391288
22	0xbdada54c	-0.084787935
23	0xb9f1b516	-0.00046102022
24	0xbdf0fce7	-0.11766987
25	0x3e139dc0	0.14415646
26	0x3da286d4	0.07935873
27	0xbd617239	-0.05504057
28	0x3e4cd172	0.20001772
29	0xbe2fe9d8	-0.17179048
30	0xbdc9450d	-0.098276235
31	0x3d53a1d9	0.05166802
32	0x3cad133d	0.021127338
33	0xbc955e1a	-0.018233348
34	0xbde93e75	-0.11388866
35	0x3e07003e	0.13183686
36	0xbe329b74	-0.17442113
37	0xbd970a29	-0.07374985
38	0xbe04cd4c	-0.1296894
39	0x3d9bf15f	0.07614397
40	0xbc6c4890	-0.014421597
41	0xbdcd611a	-0.10028286
42	0x3e11eeb9	0.14251222
43	0x3e6dd618	0.23226202
44	0x3df2ae6b	0.11849674
45	0x3db724f9	0.08942599
46	0x3e784e7d	0.24248691
47	0xbd8dd5e9	-0.06925566
48	0xbe622ad1	-0.22086646
49	0xbe758e6d	-0.23980112
50	0x3e4e6b5b	0.2015814
51	0x3e6ac3eb	0.229263
52	0xbbb57dce	-0.0055386787
53	0x3e8cd17d	0.27503577
54	0x3dfc8990	0.123309255
55	0x3e0303fe	0.12794492
56	0xbde65cc6	-0.11248164
57	0xbdad64ef	-0.08466517
58	0x3dadfce9	0.084955044
59	0x3e26a386	0.16273317
60	0xb90fc90a	-0.00013712436
61	0xbda1140f	-0.07865154
62	0x3df4d2dc	0.11954281
63	0xbdc3201d	-0.095276095
64	0xbe04ccdc	-0.12968773
65	0xb799df82	-1.83431e-05
66	0xb68fd428	-4.2864303e-06
67	0xb8e2b208	-0.00010809681
68	0xb83c3a1a	-4.4876804e-05
69	0xbd316255	-0.043306667
70	0xb72e5ee5	-1.0393303e-05
71	0xbd33f196	-0.043931566
72	0x3e762ec2	0.24041274
73	0x3e73558b	0.23763101
74	0xbd0163e9	-0.031589422
75	0x3dd4372b	0.10362085
76	0x3da7bd90	0.08190453
77	0x3d3300f0	0.043702066
78	0xbd83519f	-0.06412052
79	0xbd955fff	-0.072937004
80	0x3e5336eb	0.20626418
81	0x3d50dff0	0.050994813
82	0x3c97f19a	0.018547822
83	0xbd735d6e	-0.059415273
84	0xbd7bbed3	-0.06146128
85	0xbd9811da	-0.0742528
86	0xbe614fcc	-0.22003096
87	0x3bacd638	0.0052745603
88	0xbe3b0560	-0.18263769
89	0xbdb9d40a	-0.09073646
90	0xbe6e2677	-0.2325686
91	0x3e5fbb2a	0.21848741
92	0x3e2f455d	0.17116304
93	0x3cfdb141	0.03096831
94	0x3e824baa	0.25448352
95	0x3e7b61b5	0.24548991
96	0x37e39e96	2.7134356e-05
97	0xb4cdf538	-3.8362646e-07
98	0x38463b64	4.726219e-05
99	0xbda99f67	-0.08282357
100	0x3d148c7f	0.0362668
101	0x3d806d2f	0.06270825
102	0xbe1fdadb	-0.1561083
103	0xbdd955f9	-0.10612101
104	0x3dfd0408	0.123542845
105	0xbde61c9f	-0.11235928
106	0xb50f0c96	-5.3289966e-07
107	0xbd6f7ed9	-0.05847058
108	0x3e273773	0.16329746
109	0x3e3222ca	0.17396083
110	0xbe8d8d1e	-0.27646726
111	0xbdebb830	-0.1150974
112	0x3df84f75	0.1212453
113	0x3e053e94	0.13012153
114	0xbd674917	-0.05646619
115	0x3e5599b6	0.20859417
116	0x3e6adbbc	0.22935385
117	0xbd1cb1cf	-0.03825551
118	0x3dbb554a	0.09147127
119	0xbe0d3bb0	-0.137923
120	0x37b150e7	2.1137717e-05
121	0xbd982acf	-0.0743004
122	0x3620d8bd	2.3968016e-06
123	0xbdf22cf5	-0.11824981
124	0x3e0d8018	0.13818395
125	0x365f590b	3.328142e-06
126	0xbc9dec6a	-0.01927777
127	0xb788446e	-1.6244328e-05
128	0xbdbebcad	-0.09313331
129	0xbb8fd576	-0.00438946
130	0xbde57ac7	-0.112050585
131	0x3e089ff9	0.13342275
132	0x3e31b7db	0.17355292
133	0x3e5c1624	0.21492821
134	0xbd865b8d	-0.06560431
135	0x3e77cd1b	0.24199335
136	0x3e57d231	0.21076275
137	0xbe4504eb	-0.19240157
138	0xbc7c9016	-0.015415212
139	0x3e741bb1	0.23838688
140	0x3e6a7c9d	0.22899099
141	0x3e83199e	0.25605482
142	0xbe448a0e	-0.19193289
143	0xbdef876c	-0.116957515
144	0x3e456d09	0.19279875
145	0xbd476f2f	-0.048690017
146	0x3e830a79	0.25593928
147	0x3c02bc17	0.007979414
148	0x3de8f546	0.11374907
149	0x3baa3ce8	0.005195249
150	0x3dc601eb	0.096683346
151	0xbd2df85c	-0.042473182
152	0x3d0142a9	0.031557713
153	0xbe3e4d16	-0.18584093
154	0x3e589639	0.21151055
155	0x3d65ddbe	0.056119673
156	0xbe673fd9	-0.2258295
157	0x3e53f02e	0.2069709
158	0x3c55d785	0.013051872
159	0xbdff96c3	-0.124799274
160	0x3dc7b862	0.09751965
161	0xbd0647de	-0.03278338
162	0x3e7bff10	0.24609017
163	0x3de3f00b	0.11129769
164	0xbe727b72	-0.23679903
165	0xbcccf863	-0.025020784
166	0xbdf5d867	-0.12004166
167	0xbd9121c1	-0.07086516
168	0xbd80d329	-0.062902756
169	0x3d8290b6	0.06375258
170	0x3e4e2f79	0.20135297
171	0xbe4edcdc	-0.20201439
172	0xbd418275	-0.047243554
173	0xbe8a0bd5	-0.26962152
174	0x3e7d11ac	0.24713773
175	0xbdece9c3	-0.11568024
176	0xbe4b36b3	-0.19845085
177	0xbcef2639	-0.02919303
178	0x3e49ef3e	0.1972017
179	0xbd30f726	-0.04320445
180	0xbd7b58fa	-0.06136415
181	0x3d44f9e0	0.048089862
182	0x3d5ce538	0.053929538
183	0xbde35178	-0.11099523
184	0xbb391579	-0.0028241558
185	0x3906be08	0.00012850028
186	0xbcfef6ff	-0.031123636
187	0x3de80ae9	0.11330206
188	0xb8402736	-4.5812885e-05
189	0xbdade3f6	-0.08490746
190	0xb8479b8f	-4.7590172e-05
191	0xb8f1e826	-0.000115350165
192	0xbe5b1c21	-0.21397449
193	0x3e11b22d	0.14228125
194	0x3e360df2	0.17778757
195	0x3dd16777	0.102248125
196	0xbe20bb1a	-0.15696374
197	0xbdbfd914	-0.09367576
198	0xbe40b87e	-0.18820378
199	0x3e698337	0.2280396
200	0x3e8691f8	0.2628324
201	0xbe5aade7	-0.21355401
202	0xbe7123bb	-0.23548786
203	0x3e83a994	0.25715315
204	0xbc5daabd	-0.013529477
205	0xbdec6cf1	-0.115442164
206	0x3e1ed700	0.15511703
207	0x3cc801b8	0.024414882
208	0xbde6373b	-0.11241003
209	0xbc8e85b3	-0.017397737
210	0xbc80d622	-0.015727106
211	0x3e0266f9	0.12734593
212	0xbdb341be	-0.08752774
213	0xbc404178	-0.011734359
214	0x3cb9300a	0.022605915
215	0xbbe22d63	-0.006902383
216	0xbdb65a70	-0.08903968
217	0x3e8482c8	0.25881028
218	0x3dea35f9	0.11436076
219	0x3e23d758	0.16000116
220	0x3e14e59a	0.14540711
221	0xbd62299d	-0.055215467
222	0xbe12d502	-0.14339069
223	0x3e056927	0.13028394
224	0x3e0bf518	0.13667715
225	0x3e23e4b0	0.16005206
226	0x3d849454	0.06473604
227	0xbe5c8771	-0.21536042
228	0xbe008044	-0.1254893
229	0xbd09d422	-0.03364957
230	0x3e6a920c	0.22907275
231	0xbdbe55cd	-0.09293709
232	0x3e84b0eb	0.25916228
233	0x3e593d4d	0.2121479
234	0xbc16f82f	-0.009214445
235	0x3de46dfd	0.11153791
236	0x3de282ab	0.11060079
237	0x3e7e160e	0.248131
238	0x3d866335	0.06561891
239	0x3e87a3d3	0.26492175
240	0x3e252918	0.16128957
241	0x3ddfe549	0.109324045
242	0xbe5000a4	-0.20312744
243	0x3d5fa0f9	0.054596875
244	0xbe803ed1	-0.25047925
245	0x3e6375c1	0.22212888
246	0x3e4e04e7	0.20119058
247	0xbe8c7dc3	-0.274397
248	0xbe1dff3e	-0.15429398
249	0x3e5d281b	0.2159733
250	0x3de2809b	0.11059686
251	0xbddc8614	-0.10767761
252	0x3e5d5647	0.21614943
253	0xbe50af30	-0.20379329
254	0xbe8b9891	-0.27264836
255	0x3dfa5253	0.12222733

layers.0.bias f4 [100]
0	0x3d94a0c6	0.072572276
1	0xbe02a6db	-0.12758963
2	0xbe05d400	-0.13069153
3	0x3e1bde57	0.15221535
4	0xbbeb9ec7	-0.0071905586
5	0xbceadae4	-0.028668828
6	0xbe05f269	-0.13080753
7	0x3dfc077a	0.123061135
8	0xbe22c6da	-0.15896168
9	0xbe059246	-0.1304408
10	0xbe174c4f	-0.14775203
11	0xbd3cabd1	-0.046062294
12	0xba759f20	-0.000936972
13	0x3e01565c	0.126306
14	0x3e0069a6	0.12540302
15	0xbd4055c8	-0.046956807
16	0xbd610a9e	-0.054941766
17	0xbca7c671	-0.020480366
18	0xbe414998	-0.1887573
19	0x3e7931de	0.24335429
20	0x3cffd380	0.03122878
21	0x3e841cb0	0.25803137
22	0xbb4b8c7e	-0.0031059082
23	0xbcf53988	-0.02993466
24	0xbdc5deb0	-0.09661615
25	0xbdb0ee97	-0.086392574
26	0x3db9c9df	0.09071707
27	0xbe755b8d	-0.23960705
28	0xbda92701	-0.082593925
29	0xbe7de2a4	-0.24793488
30	0xbdde099a	-0.10841675
31	0xbe064c22	-0.1311498
32	0xbe78e946	-0.24307737
33	0x3d07a06b	0.03311197
34	0xbd361c19	-0.04446039
35	0x3e14c484	0.1452809
36	0x3e9739f6	0.29536408
37	0xbd84aadd	-0.06477902
38	0xbd4cca51	-0.04999763
39	0xbd80219d	-0.06256411
40	0xbc99c21b	-0.018769315
41	0x3dbcec9f	0.092248194
42	0x3e30587e	0.17221257
43	0x3d07952e	0.033101253
44	0x3e886784	0.26641476
45	0x3dbd5dd1	0.0924641
46	0x3d872713	0.0659925
47	0xbdf412cc	-0.11917648
48	0xb90e5b3d	-0.00013576164
49	0x3d72c6cc	0.05927162
50	0xbd840e40	-0.064480305
51	0x3c862a75	0.016377667
52	0x3e0ca121	0.13733341
53	0xb741d92d	-1.1554262e-05
54	0x3dd1803e	0.102295384
55	0xbe0b89b1	-0.13626744
56	0xbd22c038	-0.039734095
57	0xbd2a649a	-0.041599847
58	0xbdc2e30d	-0.09515963
59	0xbd6888f0	-0.05677122
60	0xbe0fc02c	-0.14038152
61	0xbd69dd43	-0.057095777
62	0x3518d905	5.694022e-07
63	0x3e554b59	0.20829524
64	0xb790d3fa	-1.7264847e-05
65	0x3d48da83	0.049036514
66	0x3acca81c	0.0015614065
67	0xbe1ad1e1	-0.15119125
68	0xbb9b0ff0	-0.0047321245
69	0x3e16db3b	0.14732067
70	0xbd0a01ad	-0.033693004
71	0x3e424f57	0.18975578
72	0x3e6c1ec3	0.2305861
73	0x3d16d650	0.036825478
74	0xbe7ce29c	-0.2469582
75	0x3c9964e4	0.018724866
76	0xbd869913	-0.06572165
77	0xbd0a7748	-0.03380516
78	0x3dea0490	0.114266515
79	0xbe030c6f	-0.12797712
80	0xbd56a975	-0.0524077
81	0x3dea88c3	0.114518665
82	0xbdb05e7c	-0.086117715
83	0xbcfeaf40	-0.031089425
84	0xbe451017	-0.19244419
85	0x3c85e2c8	0.01634349
86	0x38404d95	4.584862e-05
87	0x3b47594d	0.0030418218
88	0x3e661e12	0.22472408
89	0x39099835	0.0001312204
90	0xbd9b6502	-0.07587625
91	0x3e6c6eb0	0.23089099
92	0xbe0cc8c3	-0.1374846
93	0xb99faf52	-0.00030457467
94	0xbcc3f2b7	-0.023919446
95	0x3dd4dfde	0.10394262
96	0xbe2ac72b	-0.16677539
97	0xbe042884	-0.1290608
98	0xbddceae1	-0.10786987
99	0xbe0f58eb	-0.13998763

layers.2.weight f4 [300, 100]
0	0x3cb294f6	0.021799546
1	0xbc834ee1	-0.016028823
2	0x3a9bb4f3	0.0011879489
3	0x3b7d0f20	0.0038613752
4	0x3cba99bd	0.022778386
5	0x38173f00	3.605988e-05
6	0xbcb51f1b	-0.022109559
7	0x3c5002f5	0.0126960175
8	0x375005db	1.2399129e-05
9	0x3bffa8b6	0.0078020943
10	0x3627966a	2.4972492e-06
11	0xbc8874c6	-0.016657244
12	0x3c578a95	0.013155599
13	0xbb12a915	-0.0022378613
14	0xbbc57f31	-0.0060271253
15	0xb6a54757	-4.9256882e-06
16	0xbbe97773	-0.007124835
17	0xbbb885ab	-0.005631169
18	0xbce24cea	-0.027624566
19	0x3ab7c2a6	0.0014019802
20	0xbc1ff26b	-0.009762387
21	0x3ce8c482	0.028414015
22	0xbc0bf3e9	-0.008542039
23	0xbb81270d	-0.003941423
24	0xb6a9163c	-5.039181e-06
25	0x3625c23e	2.469998e-06
26	0xbbc33595	-0.005957315
27	0x3ca14757	0.019687338
28	0x370a0054	8.225517e-06
29	0x3bf83402	0.007574559
30	0x39647e21	0.00021790761
31	0xb6bc7f92	-5.6176877e-06
32	0xbadfe8f2	-0.0017082973
33	0xbbc4ed38	-0.006009724
34	0xb336d6c0	-4.257049e-08
35	0xbc000b2a	-0.007815162
36	0xbcd940c1	-0.026520135
37	0x3cb3eff7	0.02196501
38	0xb690cae2	-4.315153e-06
39	0x3cb7ea08	0.022450462
40	0xb568b330	-8.6687487e-07
41	0xbbe604ae	-0.007019601
42	0xbbf1faad	-0.007384619
43	0x3c3932c5	0.011303608
44	0xbca88b05	-0.020574102
45	0xbc5622e2	-0.01306984
46	0xbc1411d0	-0.00903745
47	0x39b58ada	0.00034626463
48	0x3b41ea96	0.0029589287
49	0x3c1da9d1	0.009623007
50	0x3b8ca0de	0.004291638
51	0xbc211053	-0.009830552
52	0xbc8dd2c9	-0.017312424
53	0xb70d8855	-8.435997e-06
54	0xbb8919b6	-0.004183973
55	0xbb92e024	-0.004482286
56	0x3ca39ebb	0.01997315
57	0xbcbfef3b	-0.023429504
58	0x3b213f6a	0.0024604448
59	0xbbc7fc5d	-0.006103082
60	0xbbdb18b2	-0.0066862935
61	0x3be53391	0.0069946726
62	0xb8d27e42	-0.00010037098
63	0x3c922ff5	0.017845133
64	0x37e742ba	2.7568418e-05
65	0x3c043756	0.008069834
66	0xb865d294	-5.479397e-05
67	0x3cff634e	0.031175282
68	0x3a1fb913	0.0006092947
69	0xbb16b669	-0.0022996909
70	0x3a01c396	0.0004950104
71	0x3c514e65	0.012775038
72	0x3bbd9cf5	0.005786533
73	0xbc1e1fed	-0.009651166
74	0x3c921b78	0.017835364
75	0x3c99d074	0.018776156
76	0x3bb7bf9b	0.005607558
77	0x3b4abe4b	0.0030936177
78	0xbc23d6d9	-0.009999954
79	0xb7aa1d96	-2.0279356e-05
80	0x3cbb4187	0.022858394
81	0x3c15e3e0	0.009148568
82	0xbba215c3	-0.004946442
83	0xbc6bcde9	-0.0143923545
84	0x3bce7959	0.006301087
85	0xbc65de58	-0.014030062
86	0xba23facf	-0.000625533
87	0x39b4f643	0.00034515755
88	0xbc2ed50b	-0.010670911
89	0x390041fe	0.00012231615
90	0xbbba36c9	-0.0056828004
91	0x3c004d6a	0.007830957
92	0xba982c9b	-0.0011609973
93	0x358e72d7	1.0613247e-06
94	0xbc7ca89b	-0.015421058
95	0xbc167580	-0.009183288
96	0xbc1b5c39	-0.009482437
97	0xba9d0e09	-0.0011982332
98	0x3c12a2f2	0.008949982
99	0xb6ae7602	-5.199342e-06
100	0x3a1081f7	0.00055125303
101	0x3aaa6129	0.0012998927
102	0xb92385f0	-0.00015594787
103	0xba838e04	-0.0010036831
104	0x3a41baa2	0.0007390176
105	0x3c09b166	0.0084041115
106	0xbb29ad83	-0.0025890775
107	0xbb3db04b	-0.002894419
108	0x37949205	1.771097e-05
109	0xbaae25b2	-0.001328638
110	0x37c41f1b	2.3379505e-05
111	0xbab62f33	-0.0013899565
112	0xb8a6901a	-7.942338e-05
113	0x3a9223fd	0.0011149641
114	0xb8539b98	-5.0451228e-05
115	0xb87e43bf	-6.0621413e-05
116	0x3b39f97f	0.002837747
117	0xb9b6bdb8	-0.00034855097
118	0x3a33a9b0	0.00068535935
119	0x3a9b62cf	0.0011855009
120	0x3c2046e6	0.0097825285
121	0x3a14877f	0.00056659424
122	0x372b7544	1.0219697e-05
123	0x39bfe8a0	0.00036603678
124	0xb523db70	-6.1041555e-07
125	0x3bb858d2	0.0056258226
126	0x3b072ea9	0.0020627177
127	0x3b744f84	0.003727884
128	0xb75914d3	-1.2939056e-05
129	0x3b193615	0.0023378183
130	0x394c162b	0.00019463214
131	0xb55c346c	-8.203267e-07
132	0xba719dbb	-0.0009216924
133	0xb7becf1f	-2.2746213e-05
134	0x3bd48746	0.0064858524
135	0xb8374382	-4.369347e-05
136	0x3b04f402	0.0020287042
137	0x361b7270	2.3163411e-06
138	0x3686f6a6	4.022225e-06
139	0xbaa908cc	-0.0012896298
140	0x380affa0	3.3139833e-05
141	0x3ba18389	0.0049290103
142	0x3bb1d2dd	0.005426748
143	0xb9a7f11c	-0.00032032363
144	0x3b04ff72	0.0020293859
145	0x3b682f79	0.0035428687
146	0x3b8493af	0.0040459256
147	0xb8d16615	-9.984911e-05
148	0x3a30f31f	0.0006750095
149	0xbb93a980	-0.00450629
150	0xbb328cc2	-0.0027244543
151	0xbb4ef7d8	-0.0031580832
152	0x3a1615c2	0.0005725288
153	0xb795606e	-1.7807088e-05
154	0xbb5e9406	-0.003396274
155	0xba1788ee	-0.0005780597
156	0xbc0013d7	-0.00781723
157	0x3b499ded	0.0030764297
158	0xbb7b243e	-0.0038321163
159	0x3908cf82	0.00013047273
160	0x3580ffd2	9.611197e-07
161	0x399c6ee6	0.00029837264
162	0xb8b780ae	-8.7500885e-05
163	0xba750714	-0.0009347063
164	0x366d3eb5	3.5352252e-06
165	0x39d97869	0.00041479178
166	0xb846efae	-4.7430098e-05
167	0xb9fc04c9	-0.0004806875
168	0x371c80ce	9.328314e-06
169	0x3b94d2d9	0.0045417366
170	0x379c6c4e	1.8647082e-05
171	0xba872d76	-0.0010313231
172	0xbc05e881	-0.008173109
173	0xb9d3d057	-0.0004040028
174	0xb8c42b80	-9.354111e-05
175	0x3b3fc743	0.0029263056
176	0xb962726d	-0.00021595666
177	0x3b527605	0.0032113802
178	0x39761854	0.00023469451
179	0x35b186b9	1.3226737e-06
180	0x3af72324	0.0018855077
181	0x3aeb5a30	0.0017955955
182	0x3aa089e4	0.0012248126
183	0x3a3410f6	0.00068689825
184	0xbc0243b8	-0.007950716
185	0x3bbc0f0b	0.005739098
186	0x3a9ca2a2	0.0011950324
187	0xb723a2ee	-9.753492e-06
188	0xbbafe6a1	-0.0053680693
189	0xb9a564dc	-0.00031546399
190	0xba92418b	-0.0011158449
191	0x3a2c5224	0.0006573519
192	0x3b0914e2	0.0020916988
193	0x384550a1	4.704355e-05
194	0xbaf29117	-0.0018506375
195	0xbb10fcb5	-0.0022123281
196	0x3972324b	0.00023097654
197	0x37e79cc7	2.7610351e-05
198	0xb861c675	-5.3829008e-05
199	0xb8a02396	-7.636023e-05
200	0x3d17da4f	0.03707343
201	0xbd0327a4	-0.032020226
202	0x369ffccb	4.7679982e-06
203	0xbbca87ed	-0.0061807544
204	0xbd3f78f2	-0.0467462
205	0x3847649d	4.7539e-05
206	0x3d4b6711	0.04965884
207	0x3cc61534	0.024180032
208	0xb6760fb7	-3.6666004e-06
209	0x3c9fad2f	0.01949176
210	0x378b3820	1.6596226e-05
211	0xbda1c1c5	-0.07898287
212	0xbcf30c97	-0.02966909
213	0x3c136028	0.008995093
214	0x36f6d646	7.356316e-06
215	0x376eb586	1.422817e-05
216	0x3bec0b83	0.0072035207
217	0xb7b15bf4	-2.1142863e-05
218	0xbd4c52c0	-0.049883604
219	0xbd239af7	-0.039942708
220	0xbc2a8f4a	-0.010410139
221	0xbc80685e	-0.015674766
222	0xb8846901	-6.313809e-05
223	0x3d22cfcc	0.03974895
224	0x37651719	1.36548415e-05
225	0xbbb7d8ee	-0.005610577
226	0x3bc6bb69	0.0060648215
227	0xbb54ca07	-0.003246905
228	0xba2fd1b8	-0.0006706971
229	0x3d2e8bab	0.042613667
230	0xb79ba497	-1.8554083e-05
231	0x37bfb836	2.2854754e-05
232	0xb61a793c	-2.3018356e-06
233	0x3a8c3076	0.0010695595
234	0xbb9c3490	-0.004767008
235	0xb90996fb	-0.00013121583
236	0xbb473425	-0.003039607
237	0xbd1b190c	-0.037865683
238	0xb76560cd	-1.3672002e-05
239	0x38415d8c	4.6101908e-05
240	0xb84b2fef	-4.8443613e-05
241	0x3a4ea787	0.000788324
242	0xbd8127c1	-0.063064106
243	0xbb23c999	-0.0024991988
244	0xbba6809d	-0.00508125
245	0x3b1c81aa	0.0023880997
246	0x3cdbf938	0.026852235
247	0xbae75d93	-0.0017651789
248	0x37a4f9a8	1.9666579e-05
249	0x3c818fcd	0.01581564
250	0xbad19a82	-0.0015991481
251	0x3d24a362	0.040194876
252	0xb7a43f47	-1.957979e-05
253	0x39122caa	0.00013940284
254	0xbbdc2504	-0.00671828
255	0xbc25a9eb	-0.010111312

layers.2.bias f4 [300]
0	0xbad40099	-0.0016174495
1	0xb917d77a	-0.00014480753
2	0x3d95ddb8	0.0731768
3	0xb6838b86	-3.920347e-06
4	0xbd8d5d47	-0.06902557
5	0xbce3ac9d	-0.02779227
6	0x3d287974	0.04113145
7	0x3b0ce3bc	0.0021498045
8	0x3c80c792	0.015720163
9	0xbd4553ce	-0.048175626
10	0xb83984bb	-4.4231052e-05
11	0x3ba94363	0.005165504
12	0x3d85daf0	0.065359
13	0xba24bf1a	-0.000628458
14	0xbd24c72d	-0.04022901
15	0x3d0d3c8a	0.034481563
16	0xbd83820f	-0.06421291
17	0x3a2d0592	0.00066002563
18	0xbd096ec0	-0.033552885
19	0x3cb94dbb	0.022620073
20	0x3990a7b8	0.0002759078
21	0x3a932f12	0.0011229238
22	0x3d4f1c21	0.050563935
23	0xb7644136	-1.3605042e-05
24	0x3d4dfb4d	0.050288487
25	0xbd8169ee	-0.063190326
26	0xbbd8b707	-0.0066136154
27	0x3ae7306b	0.0017638331
28	0x3d80059d	0.06251071
29	0x3d93201f	0.07183861
30	0xbbaa988d	-0.0052061738
31	0xbdac331c	-0.08408186
32	0x3cc78c3b	0.02435886
33	0xb5008279	-4.787358e-07
34	0x3d800525	0.06250981
35	0x3daa7533	0.08323135
36	0x3ba1fdcb	0.0049435846
37	0x3acd1cbc	0.0015648822
38	0xbc8e1a31	-0.017346473
39	0xb62620da	-2.475505e-06
40	0xbc86cbc6	-0.016454589
41	0x3d9b6a4f	0.07588636
42	0xbda0d127	-0.07852393
43	0xbaadfffb	-0.0013275141
44	0xb7a3cb57	-1.9525802e-05
45	0xbbf15be0	-0.0073656887
46	0xbdab16f5	-0.08353988
47	0x36ad3c42	5.1628167e-06
48	0x3c6d85b3	0.014497208
49	0xb68210ca	-3.8762564e-06
50	0x3c08e942	0.008356394
51	0x3c76a21a	0.015053296
52	0xbd470d4d	-0.04859667
53	0xb7ba11b9	-2.218118e-05
54	0xbc80f768	-0.015742972
55	0x36a9cfdd	5.060791e-06
56	0x38d9d3d7	0.000103868246
57	0xbbd3cd64	-0.0064636935
58	0xbaa0ea97	-0.0012276944
59	0x3d80a5f5	0.06281654
60	0xbd187d64	-0.037228957
61	0x3d1b7a5c	0.037958488
62	0xba4f1bfc	-0.00079005933
63	0xbd7f6231	-0.062349502
64	0x3db69c86	0.08916573
65	0xbd41fdc2	-0.047361143
66	0xbd7ce48e	-0.061741404
67	0xbb382efb	-0.0028104174
68	0xbd0c87f9	-0.03430936
69	0xbd318357	-0.043338146
70	0xbd831b9a	-0.06401749
71	0x3d80e695	0.0629398
72	0xb7f07368	-2.866397e-05
73	0xbdcc4ef8	-0.099759996
74	0x3d27efdc	0.041000232
75	0xbcb496b2	-0.022044513
76	0x3d6916fd	0.05690669
77	0x3d09f0b6	0.033676825
78	0x3cbf409f	0.023346243
79	0xbc0c1c10	-0.0085516125
80	0x3b0cd6e1	0.0021490382
81	0x3ce4df1b	0.027938416
82	0x39e3cd98	0.00043449993
83	0xbc958283	-0.01825071
84	0x3d554f1d	0.0520774
85	0xbd9079fb	-0.07054516
86	0xb9ded077	-0.00042498458
87	0x3d911c5b	0.070854865
88	0x39504c96	0.00019864956
89	0xbb8108ca	-0.0039378153
90	0x3d2baca3	0.041912686
91	0xb832e9ff	-4.2656433e-05
92	0xbdb96f3c	-0.090544194
93	0xbd85c171	-0.06531037
94	0x3568f722	8.678636e-07
95	0x3d5f8432	0.05456943
96	0x3d9dc2fc	0.07703206
97	0x3d3b8102	0.04577733
98	0xb4fa7a5a	-4.665515e-07
99	0x3cae00bd	0.021240586
100	0x3d7e3d0a	0.06206993
101	0xbc92ad48	-0.017904893
102	0x3d1f4893	0.03888757
103	0xbd219a0e	-0.03945356
104	0x3d2f82e5	0.04284944
105	0xbcdfe8bb	-0.027332654
106	0x3b891161	0.00418298
107	0x3d1dd0c9	0.03852919
108	0x3cddbfc2	0.027068976
109	0x3c33fcd3	0.010985571
110	0xbcadcf10	-0.0212169
111	0xbda86668	-0.082226574
112	0x3d2a6106	0.041596435
113	0xbb02a885	-0.0019936871
114	0x3b67c487	0.0035364942
115	0x3da40d2a	0.08010323
116	0xbd9a4987	-0.075335555
117	0xbc5db013	-0.013530749
118	0xbbfe31a9	-0.007757385
119	0x3d474e6a	0.048658766
120	0xbcc980ad	-0.02459749
121	0xbdbae3f7	-0.09125512
122	0xbbf0d473	-0.0073495447
123	0x3d85c29a	0.06531258
124	0xbb12c002	-0.0022392278
125	0xbaf70970	-0.0018847417
126	0x3d22c5fc	0.039739594
127	0x380b56f3	3.322116e-05
128	0x3b207d27	0.002448866
129	0x3d25ba6a	0.04046098
130	0x37916652	1.7332994e-05
131	0x3c9436b9	0.0180925
132	0x3ba9c08e	0.005180425
133	0xbdc41784	-0.09574798
134	0x3db9d88b	0.090745054
135	0xbbb52394	-0.005527923
136	0x3bfcaae0	0.0077107996
137	0x3db707b9	0.0893702
138	0xb790b90d	-1.7252309e-05
139	0x3db70b7f	0.089377396
140	0x37ea1504	2.790476e-05
141	0x3db1d1af	0.08682572
142	0x35ddc464	1.652294e-06
143	0xbda40810	-0.0800935
144	0xb6f2a7de	-7.2317043e-06
145	0xbd23184b	-0.03981809
146	0x38b14efc	8.45473e-05
147	0x3b570e2c	0.0032814844
148	0x3cfd2234	0.030900098
149	0xb7ea0aec	-2.790006e-05
150	0xbd8fb28e	-0.070164785
151	0x36bfa6df	5.71167e-06
152	0x3c3aa42c	0.011391681
153	0x3d2bb39e	0.041919343
154	0x3c879571	0.016550751
155	0x3d227afa	0.03966806
156	0x3a13ca45	0.00056377455
157	0x3d86960b	0.06571587
158	0x3d8e1995	0.06938473
159	0xbd2c5129	-0.042069588
160	0xbbc33781	-0.0059575443
161	0x3644a3df	2.9301661e-06
162	0xbaaa95d4	-0.0013014623
163	0x36039aa4	1.9610534e-06
164	0xbb438f81	-0.0029840174
165	0x3d9a114e	0.07522832
166	0xba3f4051	-0.00072956557
167	0x3aa62f15	0.0012678826
168	0x3c869a8f	0.016431121
169	0xbccb3991	-0.024807723
170	0xbcbfa94d	-0.023396159
171	0xbd9ce4ca	-0.076608256
172	0xb83bdf8f	-4.479248e-05
173	0xb994efbd	-0.0002840738
174	0x3d5e2894	0.054237917
175	0x3c059b2c	0.008154672
176	0x3be3ceb0	0.0069521293
177	0x3ab1917a	0.0013547384
178	0x39f9482e	0.0004754676
179	0x3b9f12e3	0.0048545464
180	0x3c0e97f7	0.008703223
181	0x3c1734b6	0.009228876
182	0xbceb392a	-0.028713781
183	0x3caa1486	0.02076174
184	0x3caf5d67	0.021406842
185	0x3ca24d92	0.019812379
186	0xbb89e5d4	-0.004208306
187	0x3838afe1	4.403282e-05
188	0xbbe12855	-0.006871263
189	0x3cc79656	0.024363678
190	0xbdace666	-0.084423825
191	0x3d6c4492	0.05768258
192	0xbd6d7c93	-0.05798013
193	0xbc114436	-0.00886636
194	0xbb41a903	-0.0029550202
195	0xbc90f413	-0.017694509
196	0xbc2375f9	-0.009976857
197	0xb84cecdd	-4.8857986e-05
198	0x3d9dae26	0.07699232
199	0x3c5ce5f4	0.0134825595
200	0x3ca6f3cc	0.020379923
201	0x3bf02c96	0.007329534
202	0x3779d91c	1.4892106e-05
203	0x3d67bf5e	0.056578986
204	0xbbec6e15	-0.0072152712
205	0x371e4dcc	9.435647e-06
206	0xbc4f1e2f	-0.012641474
207	0x3c3a8c9e	0.011386065
208	0xbda14a7f	-0.07875537
209	0x3755cb07	1.274306e-05
210	0x3d430b7d	0.047618378
211	0xb703d210	-7.857117e-06
212	0xbd2c786e	-0.04210704
213	0x3b2edabf	0.0026680676
214	0x3d15457b	0.036443215
215	0xbc658294	-0.014008183
216	0x3d90fba8	0.070792496
217	0x3d9c0a92	0.076192036
218	0xb6dffdaa	-6.6754483e-06
219	0xbc65b071	-0.014019118
220	0xb70892e0	-8.140429e-06
221	0xbc020aa4	-0.007937107
222	0xbad38c78	-0.0016139885
223	0x3ccfcbab	0.025365671
224	0xbd035f4e	-0.03207331
225	0x3dc777e6	0.09739666
226	0xbd8d72c9	-0.06906659
227	0x3c218c27	0.009860075
228	0xbb57e049	-0.003294008
229	0xbbde26e9	-0.006779541
230	0x3c93c5a5	0.01803858
231	0xbca7adc0	-0.020468593
232	0xb75e8dcd	-1.3265247e-05
233	0x3d1285aa	0.035772003
234	0x38b9a385	8.851945e-05
235	0xb79def68	-1.882734e-05
236	0x3dc1bb98	0.09459609
237	0x3d002fa2	0.031295426
238	0x3c993099	0.018699931
239	0x3d83b348	0.064306796
240	0x37f17365	2.8783174e-05
241	0x3d3e534d	0.04646616
242	0xbbc8d1a4	-0.0061285067
243	0x3d739150	0.059464753
244	0xb4b943f8	-3.450839e-07
245	0xbcab13d8	-0.020883486
246	0x3c2e2d25	0.0106308805
247	0x3d2c1297	0.042009916
248	0xbba1949d	-0.004931046
249	0xbac3be38	-0.0014934009
250	0x3cddab88	0.027059332
251	0xbd9c2759	-0.076246925
252	0x3d28a112	0.041169234
253	0xbd9d8174	-0.07690707
254	0x3d9f3b40	0.07774973
255	0x3d63e398	0.055636972

layers.4.weight f4 [400, 300]
0	0xb6e2fcc8	-6.7647525e-06
1	0xb7547642	-1.2663719e-05
2	0xb61f5fa5	-2.3748519e-06
3	0x3714ab89	8.861426e-06
4	0x3c1d3fa9	0.009597697
5	0xbc8b160f	-0.016978292
6	0xbd4e996e	-0.05043929
7	0x36847393	3.947361e-06
8	0x37a238de	1.9338386e-05
9	0x3c91a41b	0.017778447
10	0x3830b71c	4.2132204e-05
11	0xb5dc0b2e	-1.6394531e-06
12	0xbd3084a4	-0.043095246
13	0x36911a25	4.3243804e-06
14	0xbc061c09	-0.008185395
15	0xba8a1f58	-0.0010537906
16	0xbc59d077	-0.013294331
17	0xb719d1b9	-9.1683405e-06
18	0x3aeb6cdb	0.0017961519
19	0xb9e03c3c	-0.00042769487
20	0xbd3f194c	-0.046654984
21	0xb5d51e98	-1.5878641e-06
22	0x39130922	0.00014022415
23	0xb520cb79	-5.9900736e-07
24	0xb74fa4bd	-1.2376518e-05
25	0x3d207bbf	0.039180513
26	0xb7e5a7b4	-2.737702e-05
27	0x380bd31c	3.3336793e-05
28	0xbb79ccd9	-0.0038116483
29	0xbd52a097	-0.05142268
30	0xb73058cc	-1.0511092e-05
31	0xbcc2342c	-0.023706518
32	0xbceba14d	-0.028763438
33	0x3813bf8a	3.5225916e-05
34	0xbc0b37c7	-0.008497185
35	0xbc490e33	-0.012271452
36	0x3c9d2d4f	0.019186644
37	0xbc721adc	-0.014776912
38	0xbb5d951b	-0.0033810798
39	0xb4b141f4	-3.3016806e-07
40	0x3729ed11	1.0128381e-05
41	0xbd69aa70	-0.057047307
42	0x3b29c3db	0.0025904092
43	0xbc91a3f2	-0.01777837
44	0x384f291a	4.9390925e-05
45	0xb7e9c72b	-2.786851e-05
46	0xb82661b3	-3.9668474e-05
47	0xb82be05d	-4.097853e-05
48	0xbc55e798	-0.0130557045
49	0x370007ea	7.631237e-06
50	0xb7e592e0	-2.7367321e-05
51	0xb877b7f5	-5.9060712e-05
52	0xb9a9dea2	-0.00032400066
53	0x36b06977	5.2574865e-06
54	0xbcab60c9	-0.020920174
55	0x37662917	1.3718635e-05
56	0x36d5b5f6	6.3690777e-06
57	0x38f1f042	0.00011536527
58	0xb555206c	-7.9395863e-07
59	0xbc992b53	-0.018697416
60	0xbc851e33	-0.016249752
61	0xbcf0d15f	-0.02939671
62	0x36bd6a3e	5.645007e-06
63	0x3c3e120e	0.011600984
64	0xbd4f8ab1	-0.050669376
65	0x3b9641c5	0.004585477
66	0xbc9b9ebd	-0.01899659
67	0x3688ae7d	4.073429e-06
68	0xbc3767fe	-0.011194227
69	0x362d32ee	2.5808654e-06
70	0x3c929cd1	0.017897042
71	0xbcf94e8a	-0.030432958
72	0xb84f3c90	-4.940905e-05
73	0x3be9bb27	0.007132906
74	0xbb9adb85	-0.004725876
75	0xb74c20bf	-1.2166972e-05
76	0x3cbf743a	0.02337085
77	0xbd52faa6	-0.05150857
78	0xbc7f451b	-0.015580441
79	0x36508ad0	3.1075215e-06
80	0x361af75a	2.3091766e-06
81	0x3c1b7b43	0.009489837
82	0x381c097b	3.7202128e-05
83	0x3c4e8bcb	0.012606571
84	0xbd350c3a	-0.044201113
85	0xb6846810	-3.946021e-06
86	0xb8d2e2b8	-0.0001005581
87	0xbd2498f6	-0.040184937
88	0x3731391a	1.0563317e-05
89	0x36870b67	4.024641e-06
90	0xbd0c41ba	-0.03424237
91	0x37d692a7	2.5579078e-05
92	0xbc344ab7	-0.0110041415
93	0x3bd5a3d7	0.0065197754
94	0xb721ee94	-9.651896e-06
95	0x390da7a6	0.00013509262
96	0xba47401f	-0.00076008023
97	0xbbc26f70	-0.0059336945
98	0x3848f2a9	4.790971e-05
99	0xbc81fec3	-0.01586855
100	0xbd2d7361	-0.042346362
101	0x37509135	1.2431575e-05
102	0x3aee247d	0.0018168833
103	0x3783e764	1.5724167e-05
104	0x38605aa4	5.3490177e-05
105	0x3ab1d76b	0.0013568228
106	0xb84eb631	-4.9283906e-05
107	0xbd3143cf	-0.043277558
108	0xb90ad10a	-0.00013238579
109	0xbcdcf97a	-0.026974428
110	0xb714b686	-8.8639845e-06
111	0x390073f1	0.00012250223
112	0x3cb9d29b	0.022683432
113	0xb7a177ea	-1.9248535e-05
114	0x376776ef	1.3796364e-05
115	0xb9053140	-0.00012702215
116	0x3c735d23	0.0148537485
117	0xb9e86310	-0.00044324296
118	0xbba31f76	-0.0049781157
119	0x3d09db71	0.03365654
120	0x3a02b558	0.0004986129
121	0x3c15edfc	0.009150978
122	0xb64aca16	-3.0217975e-06
123	0xbc206c16	-0.009791395
124	0x375481b5	1.26663845e-05
125	0x3842dc7e	4.6458554e-05
126	0x3c89d135	0.01682339
127	0x36ac4cc3	5.1349357e-06
128	0x359df5a8	1.1768907e-06
129	0xbd10a8d0	-0.035317242
130	0x383e2448	4.533332e-05
131	0x373f15c6	1.1389557e-05
132	0xb6c8d460	-5.985188e-06
133	0xb8494bbd	-4.799267e-05
134	0xbc453ac9	-0.012037941
135	0x36214763	2.4032422e-06
136	0xb494fa00	-2.7749047e-07
137	0xb9f0b32c	-0.0004590986
138	0x37fd2997	3.0179317e-05
139	0x3c9a6b8a	0.018850107
140	0x37b0e84e	2.108901e-05
141	0xb9b69a76	-0.00034828827
142	0xb765b934	-1.3692585e-05
143	0x390e4458	0.00013567635
144	0xb4dbbf70	-4.0931218e-07
145	0xbd1dc291	-0.03851563
146	0xb8c01ae4	-9.160282e-05
147	0x38aabd7b	8.141525e-05
148	0x3c860951	0.016361864
149	0xb6c460ee	-5.8525393e-06
150	0xbd22ffb7	-0.03979465
151	0xb62d6e24	-2.584312e-06
152	0xb779bbed	-1.4885311e-05
153	0x3bbdb865	0.005789804
154	0x38fb432e	0.00011981126
155	0xbc516a02	-0.012781622
156	0x3c3b961f	0.011449366
157	0xbb09d2c3	-0.0021030165
158	0xbac7d387	-0.0015245535
159	0x3be6f269	0.0070479405
160	0x381e335e	3.7717975e-05
161	0x37a1e9f2	1.9301635e-05
162	0x363fc196	2.85739e-06
163	0xb7972c6c	-1.8021288e-05
164	0xb7e52945	-2.7318145e-05
165	0xbd0743cb	-0.033023637
166	0x3560a50c	8.368668e-07
167	0xb90194c4	-0.00012357818
168	0xbce98024	-0.028503485
169	0x3b953695	0.004553626
170	0x3cc7fbba	0.024412025
171	0x3b4781bd	0.003044232
172	0x37c0e42a	2.299443e-05
173	0x3845dd57	4.71746e-05
174	0xbb806d65	-0.003919291
175	0xbb47d3da	-0.0030491264
176	0x37c97440	2.40152e-05
177	0x3cef99da	0.029248167
178	0x379a4ecf	1.8394929e-05
179	0xbcc891b3	-0.024483537
180	0xb89fc4fb	-7.618401e-05
181	0x3d12eb55	0.03586896
182	0xbac1207b	-0.0014734411
183	0x394255ed	0.00018533292
184	0xb9033c0a	-0.000125155
185	0xb8c9a8be	-9.6158576e-05
186	0xb5d59176	-1.5912071e-06
187	0xb7e2d2fc	-2.7039547e-05
188	0x3747b8a8	1.1904318e-05
189	0xbb84c329	-0.004051585
190	0x3b113ab3	0.0022160232
191	0x3b3577f5	0.0027689908
192	0x3cd72212	0.026261363
193	0x390ecb12	0.00013617825
194	0xb66f76f0	-3.5683006e-06
195	0xb89f43e2	-7.594355e-05
196	0x388d93e6	6.750952e-05
197	0xb6bbc2cc	-5.5957116e-06
198	0x3cdfa1fd	0.027298922
199	0xb8bb427e	-8.92924e-05
200	0x3c1e08a6	0.009645617
201	0xb7651923	-1.3655316e-05
202	0xb7920293	-1.7405755e-05
203	0xbaadb320	-0.0013252236
204	0x3786c9f3	1.6068085e-05
205	0x36546aec	3.1652698e-06
206	0xb69c0f2d	-4.650929e-06
207	0x3cec52ce	0.028848078
208	0xbc74a5fe	-0.014932154
209	0x37ed33bb	2.827669e-05
210	0xbc473545	-0.012158697
211	0xb63ff092	-2.8601248e-06
212	0x37e7908f	2.7604661e-05
213	0x384c4244	4.8699105e-05
214	0x3bdfed42	0.0068337033
215	0xb86dfae9	-5.673888e-05
216	0xbb9b5b8b	-0.0047411374
217	0xbb8dc265	-0.004326152
218	0xb911867e	-0.0001387838
219	0x3abdff0a	0.0014495563
220	0x37ea2ace	2.7914906e-05
221	0x36f71ea4	7.3647407e-06
222	0xbbd7f33e	-0.006590276
223	0xb84fa5d8	-4.95071e-05
224	0x37b09653	2.1050835e-05
225	0xbd0c7f68	-0.03430119
226	0x3a628674	0.0008641251
227	0x381eaf92	3.7833648e-05
228	0x37840771	1.5739091e-05
229	0x3715656c	8.904706e-06
230	0x3d0882c1	0.03332782
231	0xb782c6b4	-1.5589736e-05
232	0xb8109f24	-3.4480487e-05
233	0x3c9c6f44	0.019096024
234	0x382fb497	4.189144e-05
235	0x37ebec1e	2.8124134e-05
236	0x3d0aef5a	0.03391967
237	0xbad49134	-0.001621759
238	0xba961640	-0.0011450723
239	0x3cee1536	0.029062849
240	0xb658132a	-3.2197663e-06
241	0x3c2d0f3b	0.010562713
242	0xb787892d	-1.6157132e-05
243	0xbb95243b	-0.004551438
244	0xb79c3eb3	-1.8625846e-05
245	0x3916072c	0.00014307786
246	0xb684652c	-3.9456845e-06
247	0xbcf258da	-0.029583383
248	0xb4f9341e	-4.6417784e-07
249	0xb71221be	-8.710134e-06
250	0xbce3e930	-0.027821153
251	0xbc3acd66	-0.01140151
252	0xb71a8f44	-9.212472e-06
253	0x3ceb4aa1	0.02872211
254	0x3941c527	0.0001847936
255	0xbd64c478	-0.05585143

layers.4.bias f4 [400]
0	0x3ce4b76a	0.02791949
1	0x3d1d2ef7	0.038374867
2	0x3b9f0317	0.0048526633
3	0x3a5e6787	0.00084840547
4	0x3d80970b	0.06278809
5	0xbcdac5f8	-0.026705727
6	0x3d1f97c3	0.03896309
7	0x38c0385c	9.165771e-05
8	0x3d391493	0.045185637
9	0x3ca142a2	0.019685093
10	0x3d010bea	0.031505503
11	0xbd262e3a	-0.04057143
12	0xbccc6fe5	-0.0249557
13	0xbba852d5	-0.0051368275
14	0x3d183133	0.037156295
15	0x3cdfef5e	0.027335819
16	0xbc6de2d6	-0.014519414
17	0x366cd653	3.5291494e-06
18	0x3991b60d	0.00027792194
19	0x3d363de3	0.044492614
20	0xb9a792b7	-0.00031962033
21	0x3cf31728	0.029674128
22	0xbc068394	-0.008210082
23	0x3d1f64c1	0.038914446
24	0xb8d57a35	-0.00010179394
25	0x3d835df0	0.064144015
26	0xbb0ddad0	-0.0021645315
27	0xb9f1e169	-0.00046135046
28	0x37003039	7.640622e-06
29	0xbc9353ce	-0.017984297
30	0xbd29060f	-0.041265544
31	0x3ce92d61	0.028464021
32	0xb7fc658b	-3.0088026e-05
33	0xbca7729e	-0.020440396
34	0xbaa2d180	-0.0012422055
35	0x3d6bb50e	0.057545714
36	0x3c5bbd91	0.013411895
37	0x3d7a6924	0.061135426
38	0x393b47da	0.00017860477
39	0x3b8e1934	0.0043365005
40	0xbd359300	-0.044329643
41	0xbce9c9eb	-0.028538665
42	0xbcf9ada5	-0.030478308
43	0xbc92fe26	-0.017943453
44	0x3c5f84e2	0.013642522
45	0xb93d44e9	-0.00018050116
46	0xbb9bb5ad	-0.004751882
47	0xbcc68ab6	-0.024236064
48	0x394d761b	0.00019594321
49	0x3c4d2d37	0.012522987
50	0xbd350330	-0.044192493
51	0x3acf72dc	0.0015827077
52	0xba2003cc	-0.00061040814
53	0x3b20f77f	0.0024561582
54	0xbcc94cbc	-0.024572723
55	0x382c37d7	4.106e-05
56	0xbd16fb39	-0.03686068
57	0x3baee8e2	0.0053378204
58	0x3bbbc198	0.0057298653
59	0x38d28efb	0.000100402125
60	0xbd1b2df0	-0.037885606
61	0xbb548392	-0.0032427055
62	0xbd0da0d2	-0.0345772
63	0x3d621eb2	0.055205055
64	0xbcad5c71	-0.021162244
65	0xbb75e5bb	-0.0037520963
66	0xbcbfe5a5	-0.023424933
67	0x3bdcbec4	0.006736608
68	0xb9ae045a	-0.00033191108
69	0xbbd105a6	-0.006378847
70	0xbc9d013b	-0.019165626
71	0x3d0b6b76	0.03403803
72	0x3ca8ab13	0.020589387
73	0xbc1402aa	-0.009033838
74	0xb88e0abf	-6.773089e-05
75	0x3d0c6c3d	0.03428291
76	0xb7bc73b4	-2.2465225e-05
77	0x3c813607	0.015772833
78	0x37d0830c	2.4856556e-05
79	0x3c81ed3d	0.015860194
80	0x3d73050e	0.059330992
81	0x3d7dd410	0.061969817
82	0xbc2ff1ff	-0.010738849
83	0x393a74af	0.0001778181
84	0xbd229e31	-0.039701644
85	0x3d675dd2	0.05648596
86	0xbcffa6cf	-0.03120747
87	0xbc85713a	-0.016289342
88	0x38a1ad22	7.709327e-05
89	0x3d17cf9b	0.037063222
90	0x3889f38b	6.5780325e-05
91	0x3d1aa70f	0.037756976
92	0x38ef5626	0.000114124545
93	0x3b11355f	0.0022157056
94	0x363fade6	2.856244e-06
95	0x3d11e90a	0.035622634
96	0x3d1b17ee	0.037864618
97	0xbd06d004	-0.032913223
98	0x3c5b2d45	0.013377492
99	0x3c3fdd97	0.011710546
100	0x3cf10043	0.02941907
101	0x3c837e63	0.016051477
102	0x3bd2eea8	0.0064371414
103	0x3b92fa4b	0.0044854037
104	0x3703c667	7.854403e-06
105	0x38eeff2f	0.00011396256
106	0xbadf9b3a	-0.0017059811
107	0x3d1e5381	0.038653854
108	0x3d3ae421	0.045627717
109	0x3bb57cfb	0.0055385805
110	0x3a922c27	0.0011152074
111	0x3d46ef5b	0.04856811
112	0x3d6e596f	0.05819076
113	0xbb185d6a	-0.0023249038
114	0xbd2a34d7	-0.0415543
115	0xba165039	-0.0005734
116	0x39eb2bf7	0.0004485545
117	0xbb35241b	-0.0027639929
118	0x3d277217	0.04088029
119	0xbc826b37	-0.015920265
120	0x398feb66	0.0002745047
121	0x3d5252de	0.05134856
122	0xbc6a0a6a	-0.0142847095
123	0xbd603dd9	-0.054746483
124	0x37e4f74a	2.7294871e-05
125	0x3c293c1e	0.010329274
126	0x3d439f5e	0.047759406
127	0x37f507f6	2.9209983e-05
128	0x3caa514a	0.020790715
129	0x38473f44	4.7504218e-05
130	0x3a28d914	0.00064410386
131	0x3c8f213c	0.017471902
132	0xbd48251f	-0.048863526
133	0xbb314980	-0.0027051866
134	0x3cdc6ddc	0.026907854
135	0x38b6ad6e	8.71074e-05
136	0x3b9be3cc	0.00475738
137	0x3c7ff89a	0.015623236
138	0x3d612e16	0.05497559
139	0x3ce74ed8	0.028235838
140	0x3d18a133	0.037263107
141	0x3ca40424	0.020021506
142	0xbbab82aa	-0.005234082
143	0x3c1a0585	0.00940073
144	0x3cd18b8c	0.025579236
145	0xbd49f2fd	-0.049303997
146	0x3d370bff	0.044689175
147	0x3d2e1e75	0.042509515
148	0x3d475a2b	0.048669975
149	0xb9d355c9	-0.0004030897
150	0x38a2685e	7.744202e-05
151	0xbc92819e	-0.017884072
152	0x3cc2d372	0.023782466
153	0xbd4720ca	-0.048615254
154	0xbb62c986	-0.003460498
155	0x3776db68	1.4713827e-05
156	0x3c0d4ea1	0.008624704
157	0x3cf8e815	0.030384103
158	0xbc041048	-0.008060522
159	0x3bc640a4	0.006050186
160	0xbcb1b9b5	-0.021694997
161	0x3a9368af	0.0011246408
162	0xbc93afdc	-0.018028192
163	0x3d12bf5e	0.035827033
164	0xbb940efe	-0.004518389
165	0x38c1e704	9.245987e-05
166	0x3852f96c	5.0300194e-05
167	0xbcb5492c	-0.022129618
168	0xbc1b8963	-0.009493205
169	0x38c2f227	9.295745e-05
170	0x3ccd44e6	0.025057267
171	0x3c908ec8	0.017646208
172	0xbb751756	-0.0037397943
173	0x3cfc14f3	0.030771708
174	0x3b41764d	0.0029519976
175	0x3ce1066b	0.02746888
176	0x3cb99283	0.02265287
177	0x3d18289c	0.037148103
178	0x3ca7dc89	0.020490902
179	0xbc9ab678	-0.018885836
180	0xbc35b890	-0.011091366
181	0x39b39bee	0.00034257717
182	0xbc5118bb	-0.012762244
183	0xbd532a98	-0.051554292
184	0x37afb542	2.094603e-05
185	0x3cfd3a65	0.030911634
186	0x3cac2bb4	0.021016933
187	0x3b580cee	0.003296669
188	0xbb629b8c	-0.0034577576
189	0x3bf77b34	0.0075525288
190	0x3c884bbc	0.016637675
191	0x3d2ab0e6	0.04167261
192	0xbd1cdf9a	-0.03829918
193	0x3c759042	0.014988007
194	0x3b942a04	0.00452161
195	0xbb34590a	-0.0027518892
196	0x3d3fec9e	0.046856515
197	0xb741dfca	-1.1555801e-05
198	0x3d25f21c	0.040514097
199	0x38b76789	8.745405e-05
200	0xbcd59bef	-0.026075331
201	0xbd33b23f	-0.04387116
202	0xbd01f846	-0.031730913
203	0xbcf6c1ef	-0.030121772
204	0x3d410d38	0.047131747
205	0x37682390	1.3836558e-05
206	0x3ca5fbe5	0.020261714
207	0xb919eaa6	-0.0001467863
208	0xbcdab567	-0.026697828
209	0xbc4928aa	-0.0122777615
210	0x3d31cba5	0.0434071
211	0x3d307f1d	0.043089975
212	0x3d701cc3	0.05862118
213	0x393a528a	0.0001776909
214	0x3857ffa2	5.149807e-05
215	0xbbb24ff2	-0.005441659
216	0xbc59bea3	-0.01329008
217	0x3d249d12	0.040188856
218	0x3c799954	0.01523431
219	0xb7665d8e	-1.3730851e-05
220	0xbb9dc782	-0.004815043
221	0x3d49fd5e	0.049313895
222	0x3d1e6f84	0.03868057
223	0x3c4723f9	0.012154573
224	0x3c0626df	0.0081879785
225	0x3ca8435e	0.020539936
226	0x3b8904cd	0.0041814805
227	0x3d076e1b	0.03306399
228	0x3a8a9570	0.00105731
229	0x3b972427	0.004612464
230	0xb690df8f	-4.31756e-06
231	0x3ce81c08	0.028333679
232	0x3c117500	0.008877993
233	0xbbcaf4cf	-0.0061937342
234	0x3cdb664b	0.026782176
235	0x3cd9627b	0.026536217
236	0x3cdbef23	0.026847428
237	0xbab28165	-0.0013618885
238	0xbc5dfaf0	-0.013548598
239	0xbd29d434	-0.04146214
240	0x3d0a5840	0.033775568
241	0x36423f38	2.894505e-06
242	0xb9ba2267	-0.00035502316
243	0x3918cf1a	0.00014573001
244	0x3c0356ab	0.008016269
245	0x3d0ea77c	0.034827694
246	0x3b073311	0.0020629803
247	0x3bb3ed87	0.005490962
248	0x3bd589f2	0.0065166885
249	0xbcc5de05	-0.024153719
250	0xbd3753eb	-0.044757765
251	0x3bf13727	0.007361311
252	0xbc6bbc19	-0.014388108
253	0xb8298999	-4.0420888e-05
254	0x3cbc6081	0.022995235
255	0x3bffa26c	0.0078013446

layers.6.weight f4 [1, 400]
0	0xbbe5d73a	-0.0070141824
1	0xbd09de20	-0.0336591
2	0xbac648d8	-0.001512791
3	0x3d5bd53a	0.053670146
4	0x3d1260da	0.035736896
5	0x3cde2af8	0.027120098
6	0xbab0ef8e	-0.0013499127
7	0x378767b0	1.6141537e-05
8	0x3d06e6e6	0.032935046
9	0x3bc8ce88	0.006128136
10	0x3d483888	0.048882037
11	0x3cea5f26	0.028609823
12	0xbb34a2a3	-0.002756276
13	0x3c829238	0.015938863
14	0x3b905772	0.0044049555
15	0xbcae3d18	-0.021269366
16	0x3a6530d4	0.00087429327
17	0x394dc98e	0.00019625408
18	0x3990fc71	0.00027653904
19	0xbd13a3bc	-0.03604482
20	0x3d3e97fe	0.04653167
21	0x3b073251	0.0020629356
22	0xbd12a280	-0.035799503
23	0x3d4fb677	0.05071112
24	0xb862d475	-5.4080465e-05
25	0x3d397277	0.045275178
26	0xbc3e10c2	-0.011600675
27	0x38706686	5.731594e-05
28	0xb91a0df8	-0.00014691788
29	0xbaa393ec	-0.0012479997
30	0xbb95657e	-0.004559218
31	0x3d2884b7	0.04114219
32	0xb91f411f	-0.00015187681
33	0x3d0e9db6	0.034818374
34	0xb96fe0bd	-0.00022876538
35	0x3ce26c13	0.027639424
36	0xbd63d49a	-0.055622675
37	0x3c72f7d7	0.014829597
38	0x38252c86	3.938053e-05
39	0x3ce8fc38	0.02844058
40	0x3d24ffc2	0.040282972
41	0xbca1b10e	-0.019737747
42	0xbc6b9105	-0.014377837
43	0x3b9c200f	0.004764564
44	0x3cfb1794	0.030650891
45	0x38571508	5.127958e-05
46	0x3d6137b9	0.054984782
47	0x3c44b7c1	0.012006701
48	0x39faa307	0.0004780518
49	0xbc90e011	-0.017684968
50	0xbcf9ee36	-0.030509096
51	0x3c5de447	0.013543195
52	0xbc4dab13	-0.012552994
53	0x3cb4ed28	0.022085741
54	0xbd26c892	-0.040718623
55	0xb99a1a42	-0.00029392733
56	0x3b5a67bf	0.0033325998
57	0xbd71161e	-0.058858983
58	0x3d0da5f0	0.03458208
59	0x39bcd458	0.00036016363
60	0xbcc61bae	-0.02418312
61	0x376f9c5f	1.4281918e-05
62	0x3d571a44	0.052515283
63	0x3d4ff4cf	0.050770577
64	0x3d18b20d	0.037279177
65	0x3d4293dd	0.047504295
66	0x3cab4ce9	0.020910697
67	0xbcaa9c88	-0.020826593
68	0x3b1c7d5a	0.0023878426
69	0xbba4d900	-0.005030751
70	0xbc52c566	-0.012864446
71	0x3d019f5f	0.03164613
72	0xbcf6b1b4	-0.030114032
73	0xbc1566ea	-0.009118775
74	0xba92f652	-0.0011212325
75	0x3d33d3fd	0.04390334
76	0x3803949c	3.1371237e-05
77	0xbc9c968b	-0.019114753
78	0xb918845c	-0.00014545157
79	0x3d5c333e	0.053759806
80	0x3d3539d0	0.044244587
81	0x3c9a863f	0.018862842
82	0x3d071b35	0.03298493
83	0xb9d14eec	-0.00039922388
84	0xb97463ef	-0.00023306881
85	0x3d04654a	0.03232316
86	0x3d2262a3	0.03964485
87	0x3d166a3c	0.036722407
88	0xb98e79df	-0.00027175152
89	0x3cc3f7a8	0.023921803
90	0x38052852	3.1747222e-05
91	0x3d13c5b1	0.036077205
92	0x39c4260d	0.00037412383
93	0x3d0075f3	0.031362485
94	0x392e65ef	0.00016631906
95	0xbd113994	-0.0354553
96	0xbdb14cdf	-0.0865724
97	0xbb927389	-0.0044693393
98	0xbd8d1e64	-0.06890562
99	0x3d1a4144	0.0376599
100	0x3ce193c5	0.027536282
101	0x3d570132	0.052491374
102	0x3c95998a	0.01826169
103	0x3d0a9780	0.033835888
104	0xb5ce57a8	-1.5373707e-06
105	0xb73b948a	-1.1180653e-05
106	0xbc95dc6a	-0.018293578
107	0x3d15525c	0.036455497
108	0x3d46af31	0.04850692
109	0x3d247e18	0.040159315
110	0xbb911775	-0.004427845
111	0x3d3e8dcf	0.046521958
112	0x3d085971	0.033288423
113	0xbad7b45c	-0.001645695
114	0x3b889b7f	0.004168927
115	0x3c6d48a3	0.01448265
116	0x3b66ae1f	0.0035199
117	0x3a453b64	0.00075238035
118	0x3cecfedc	0.02893012
119	0xbce1411f	-0.027496872
120	0x3b3eac79	0.00290945
121	0x3cc431ad	0.023949469
122	0x3cabd4eb	0.02097555
123	0xbd05f02a	-0.03269974
124	0xb96c98dc	-0.00022563658
125	0xbbc75fda	-0.0060844244
126	0x3d459ba2	0.048244126
127	0x39529b8e	0.0002008511
128	0x3c3a586e	0.011373622
129	0x398781b1	0.00025845834
130	0x3d2d4ac4	0.04230763
131	0xbb78dd11	-0.0037973563
132	0x3d141e43	0.036161672
133	0x3d3aac2e	0.04557436
134	0x3d1a32ab	0.037645977
135	0x3979ede3	0.0002383511
136	0x3d48b339	0.048999045
137	0xbb951ed5	-0.0045507946
138	0x3d639907	0.05556586
139	0x3cabbd01	0.020964148
140	0x3c332200	0.010933399
141	0x3c9f83df	0.01947206
142	0xbce94810	-0.028476745
143	0xbd6f6160	-0.058442473
144	0xbcf56e4c	-0.02995982
145	0x3d1167e5	0.035499472
146	0x3cf6d7e3	0.03013224
147	0xbcfac359	-0.030610727
148	0x3d244c2a	0.0401117
149	0xbc04ba4d	-0.008101058
150	0xb8e41c2f	-0.00010877137
151	0xbcda76ed	-0.026668036
152	0xbae58c4c	-0.0017513125
153	0xbad83f62	-0.0016498382
154	0x3a81ee94	0.0009913021
155	0x387bba15	6.0016366e-05
156	0x3cbc12e5	0.022958228
157	0x3bfc5f28	0.007701773
158	0xbcc4edc6	-0.02403916
159	0xbc5d1722	-0.013494285
160	0xbb6e1c5b	-0.003633282
161	0x3b0ac58b	0.0021174874
162	0xbc49392b	-0.012281696
163	0xbcfa9207	-0.03058721
164	0x3c255f5e	0.010093538
165	0x39e8a8bb	0.00044376202
166	0x3839e307	4.4318873e-05
167	0x3ce2503d	0.027626151
168	0xb77cc1a6	-1.5065458e-05
169	0xb8b1da95	-8.480732e-05
170	0x39bcbd10	0.00035999017
171	0x3c97e205	0.018540392
172	0xbc61b57c	-0.013776179
173	0xbd5e7b70	-0.054316938
174	0xbc431823	-0.01190761
175	0x3d07d3b1	0.03316087
176	0x3ce695a5	0.028147528
177	0x3ae9e094	0.0017843419
178	0xbd256bc1	-0.040385965
179	0x3c982adf	0.01857513
180	0x3c9146e7	0.017734004
181	0xbaa73e89	-0.0012759726
182	0x3d134b00	0.035960197
183	0xb9240f4b	-0.00015645956
184	0x399e1868	0.00030154292
185	0xbd0c09e1	-0.03418911
186	0x3ca8fd3e	0.020628568
187	0x3cf21c8e	0.029554632
188	0x36ad7e92	5.1705365e-06
189	0xbb194a97	-0.0023390406
190	0xbbc1d74b	-0.0059155575
191	0x3ca5f1f2	0.02025697
192	0x3b0f7be5	0.0021893915
193	0x3ca67e56	0.020323914
194	0x3ca109da	0.019658018
195	0xb7187177	-9.086324e-06
196	0x3c2e4b8b	0.010638128
197	0x388eade0	6.8034744e-05
198	0x3b64a25a	0.0034886808
199	0x3991bfaf	0.0002779937
200	0x3cf255b7	0.029581888
201	0x3b53be2d	0.0032309399
202	0x3b8f5aec	0.0043748524
203	0xbc9e269f	-0.019305525
204	0xbcaa28bf	-0.020771382
205	0x390846f9	0.0001299641
206	0x3d53f919	0.05175123
207	0xb8497a84	-4.8036236e-05
208	0xbb738e69	-0.003716374
209	0xbd12b6b4	-0.03581877
210	0xbc936039	-0.017990218
211	0x3d260654	0.04053338
212	0x3c3325df	0.010934322
213	0xb9b388b9	-0.00034243407
214	0x38542950	5.0583214e-05
215	0xbaf21764	-0.0018470106
216	0x3d4f17be	0.05055975
217	0x3a0200c9	0.00049592234
218	0x3d2c7c3d	0.04211067
219	0xb7862d56	-1.5995156e-05
220	0xbc0d55ed	-0.008626443
221	0x3bf238e0	0.007392034
222	0x3d017e5f	0.031614657
223	0xbd1df04a	-0.038559236
224	0x3ad646cf	0.0016348007
225	0x3cf7cf66	0.030250262
226	0xbd1698e5	-0.036766905
227	0xbc68fef5	-0.014220943
228	0xbb3d6beb	-0.0028903435
229	0x3c88d9b1	0.016705366
230	0x382642b4	3.9639606e-05
231	0xbc955b56	-0.018232029
232	0xbcc177a6	-0.023616623
233	0x3759c154	1.2979221e-05
234	0x3d403d41	0.046933416
235	0x3d19c508	0.03754142
236	0x3cf27315	0.029595891
237	0xb61b6470	-2.3155262e-06
238	0x3d01170e	0.031516127
239	0xbcb0f719	-0.0216022
240	0x3c98c171	0.018646928
241	0x3a45ce38	0.00075456826
242	0x3a31d283	0.0006783383
243	0xb9972eb2	-0.00028835755
244	0xbd077133	-0.03306694
245	0xbb4db3a2	-0.0031387587
246	0x3c94852b	0.018129906
247	0xbd4a9e7b	-0.049467545
248	0xbd604df5	-0.054761846
249	0x3bbc9c17	0.005755912
250	0xbce8d866	-0.0284235
251	0x3b00bb70	0.0019642971
252	0xbb88965e	-0.004168316
253	0x3848edc6	4.790516e-05
254	0x3d287ed3	0.041136574
255	0xbd5fe1d8	-0.05465874
