data/model_Red .pt (torch_old, 249035 bytes, 7 tensors)

layers.0.weight f4 [100, 12]
0	0x3da8259a	0.08210297
1	0xbe551701	-0.20809557
2	0x3b27101a	0.0025491775
3	0xbddd01c7	-0.107913546
4	0x3d987356	0.074438736
5	0xbe0322f0	-0.12806296
6	0x3da7b129	0.081880875
7	0x3e6e78fb	0.23288338
8	0x3e573c33	0.21019058
9	0xbe4f8bbb	-0.20268147
10	0xbc961755	-0.018321672
11	0x3c895765	0.016765306
12	0x3d1f739c	0.038928613
13	0xbe0589dd	-0.13040872
14	0x3de886c9	0.11353833
15	0x3c2525a1	0.010079772
16	0xbd7db714	-0.061942175
17	0x3ddf8b47	0.10915237
18	0x3e65bcce	0.22435305
19	0x3d0e0688	0.034674197
20	0x3e6b4616	0.22975954
21	0xbd9bff09	-0.076170035
22	0xbdefd3e1	-0.117103346
23	0xbdaf34ba	-0.08554979
24	0x3e58e512	0.21181133
25	0xbe34a729	-0.17641892
26	0x3e047fdd	0.12939401
27	0xbe260977	-0.16214548
28	0x3e350d80	0.17680931
29	0xbdfa01d3	-0.12207379
30	0x3dabd141	0.083895214
31	0x3d97fa71	0.07420815
32	0x3d8e2cb5	0.06942121
33	0x3c665d58	0.014060341
34	0x3bc555a6	0.006022173
35	0xbcbf3563	-0.023340886
36	0x3dd40979	0.10353369
37	0xbd864f65	-0.06558112
38	0xbdcd3699	-0.10020179
39	0xbe3b8a2e	-0.1831443
40	0x3e1c56c1	0.15267469
41	0x3e285269	0.16437687
42	0x3bc9df09	0.006160621
43	0x3cca5107	0.02469684
44	0xbe3908dd	-0.18069787
45	0xbe21adc1	-0.15788938
46	0x3e3d5422	0.18489125
47	0x3e13b157	0.14423119
48	0xbe01b77e	-0.12667653
49	0xbd9c0847	-0.07618766
50	0xb9eb5e37	-0.00044892888
51	0x3c1ca0db	0.009559835
52	0x3d16ac2c	0.03678529
53	0xbdc36ffb	-0.09542843
54	0x3d0bee64	0.034162894
55	0x39fbbf23	0.0004801686
56	0x3b31f84e	0.0027156058
57	0x3da89382	0.0823126
58	0xbdf529bc	-0.11970851
59	0x3dd5be92	0.10436739
60	0xbcad1574	-0.021128394
61	0xbe2ea671	-0.1705568
62	0x3e1e8d40	0.1548357
63	0xbe172772	-0.14761141
64	0xb9a15247	-0.00030769614
65	0x3cadc613	0.021212613
66	0x3e049b85	0.12949951
67	0xbd95253f	-0.07282495
68	0xb8077eb3	-3.2304506e-05
69	0xbe1fa4da	-0.1559023
70	0x3c94b312	0.018151794
71	0xbb63c44d	-0.0034754456
72	0x3dfa492d	0.122209884
73	0x3e010f8a	0.12603584
74	0xbe36d0b1	-0.17853047
75	0x3cd882e2	0.026429597
76	0x3da624da	0.08112498
77	0xbe2f10c0	-0.17096233
78	0x3e5f0d4c	0.21782416
79	0xbd3050cd	-0.043045808
80	0x3e6d9c37	0.23204122
81	0xbc930390	-0.017946035
82	0x3e58796b	0.21140067
83	0xbd470d25	-0.04859652
84	0x3b8f12ef	0.0043662707
85	0x3e2236da	0.15841237
86	0x3e53e8be	0.20694253
87	0x3e776a89	0.24161734
88	0x3e649707	0.22323237
89	0x3e825928	0.25458646
90	0xbdbd57b7	-0.09245246
91	0xbe7d2fbc	-0.2472524
92	0x3d392abd	0.045206774
93	0xbc896b8c	-0.016774915
94	0x3d9646d7	0.073377304
95	0xbd98c06c	-0.074585766
96	0xbdd54297	-0.10413092
97	0xbe28216a	-0.16418996
98	0x3d890c8b	0.066918455
99	0x3c240d72	0.010012971
100	0x3d95310b	0.07284745
101	0x3dac0ebc	0.08401248
102	0x3dce5ca5	0.10076264
103	0xbd6bacc1	-0.057537798
104	0xbe236228	-0.15955412
105	0x3cbcd8f0	0.023052663
106	0x3e34bcc0	0.17650127
107	0xbc27a23b	-0.01023155
108	0xbe0b91d9	-0.13629855
109	0xbbba3f10	-0.005683787
110	0xbd01e5b4	-0.031713203
111	0x3df7eb50	0.12105429
112	0xbd0e4db7	-0.034742083
113	0x3df7add5	0.12093703
114	0xbb860995	-0.0040904977
115	0xbc972993	-0.018452441
116	0xbb12f23b	-0.0022422213
117	0xbab17951	-0.0013540183
118	0x3e0402f0	0.12891746
119	0x3deadd12	0.11467947
120	0x38fb11e8	0.00011971948
121	0x3e1cd084	0.15313917
122	0xbdf7b7f5	-0.12095634
123	0x39913c62	0.00027701544
124	0x3db36083	0.087586425
125	0xbcdc6ce5	-0.026907394
126	0xbe2b18f7	-0.16708742
127	0xbcff37d4	-0.03115455
128	0x3ddfd7e7	0.10929852
129	0x389399ba	7.03814e-05
130	0xbe050680	-0.12990761
131	0xb8ec18ee	-0.000112580004
132	0x3e198b89	0.14994635
133	0xbdcec063	-0.100952886
134	0xbe1cf3c6	-0.15327367
135	0x3e3f2d14	0.1866954
136	0x3aa253a8	0.0012384551
137	0x3da91ae8	0.08257085
138	0x3db79633	0.08964195
139	0x3dad29f0	0.084552646
140	0x3e076597	0.13222347
141	0xbc23b34a	-0.009991476
142	0xbc120d28	-0.0089142695
143	0xbe15946f	-0.14607404
144	0x3de5e8b3	0.112260245
145	0xbdc244f1	-0.09485806
146	0x3e0a2707	0.1349145
147	0x3d3a8f12	0.0455466
148	0xbd94907a	-0.07254119
149	0x3ce05515	0.02738432
150	0xbdb6e8ad	-0.08931098
151	0xbd5ef934	-0.054436877
152	0xbdbb8519	-0.09156246
153	0x3e4727c8	0.19448769
154	0xbe0118c1	-0.12607099
155	0x3dc07a1c	0.093982905
156	0xbd560c30	-0.052257717
157	0xbd978d6d	-0.07400022
158	0xbc03858c	-0.0080274455
159	0xbdea8dfd	-0.11452863
160	0x3d4a9f48	0.04946831
161	0xbdf76807	-0.120803885
162	0x3dd43f97	0.10363691
163	0x3b49b023	0.0030775152
164	0xbc59a47f	-0.013283848
165	0x3e3a975b	0.182218
166	0xbd6aa811	-0.057289187
167	0x3d9733f1	0.07382954
168	0xbe39a0b2	-0.18127707
169	0xbd1cb82c	-0.038261577
170	0x3e06cf51	0.13165022
171	0x3cb37047	0.021904124
172	0xbddda8b3	-0.108231924
173	0x3db9a4b6	0.09064619
174	0x3dbe177d	0.09281824
175	0x3e20fb6c	0.1572091
176	0xbd4fcf7d	-0.050734986
177	0xbc85527c	-0.016274683
178	0xbd5aeb3b	-0.05344699
179	0x3cd5ff26	0.02612264
180	0x3e543ab3	0.20725517
181	0x3e4fcfde	0.20294139
182	0xbe4b89be	-0.19876763
183	0x3d9ab54c	0.07554111
184	0x3e300166	0.17188033
185	0xbdfd3b42	-0.12364818
186	0x3d946788	0.072463095
187	0xbe70dbae	-0.23521301
188	0x3d3f2c77	0.046673264
189	0x3dbe51de	0.09292959
190	0x3d4873fc	0.048938736
191	0xbdecb221	-0.11557413
192	0xbdf245e0	-0.11829734
193	0xbd9814f4	-0.074258715
194	0xbe22962a	-0.15877596
195	0xb8481b83	-4.7709338e-05
196	0x39f943a5	0.0004754338
197	0x3cc40ef5	0.023932913
198	0x38c916ec	9.5886964e-05
199	0xbe16bce5	-0.14720495
200	0x3c6e86e3	0.014558527
201	0xbe451b0e	-0.19248602
202	0x38e635ca	0.000109772736
203	0x3c0511cf	0.008121922
204	0xbd276c04	-0.040874496
205	0xbd9f9c2a	-0.07793458
206	0xbdd7c453	-0.10535493
207	0xbc7d10eb	-0.015445928
208	0xbd5f3a33	-0.054498862
209	0xbe22ebf0	-0.15910316
210	0x3e2a2053	0.16613893
211	0xbe0486c6	-0.12942037
212	0xb9e5c341	-0.0004382376
213	0xbd2d266b	-0.042272966
214	0xbe06cb84	-0.13163573
215	0x388ebd2e	6.806325e-05
216	0x3de5e9ea	0.11226256
217	0xbe023ace	-0.12717745
218	0x3dd9ca5d	0.10634301
219	0xbe1d8582	-0.1538296
220	0xbde186bb	-0.11012026
221	0xbd84e5da	-0.06489153
222	0x3d3aff35	0.04565354
223	0x3dfad837	0.12248271
224	0x3cac69af	0.021046488
225	0x3d3220e4	0.0434884
226	0x3e280e92	0.16411808
227	0x3d52ae25	0.05143561
228	0xbc32d9eb	-0.0109162135
229	0xbe14d627	-0.14534818
230	0xbd08cf18	-0.033400625
231	0x3d70c304	0.05877973
232	0x38a6c0fa	7.9514415e-05
233	0xb9e2a84c	-0.0004323147
234	0x382f72eb	4.1830277e-05
235	0xb9f972d3	-0.00047578532
236	0xbca358d5	-0.01993982
237	0x3e0b625f	0.13611744
238	0xbe35ba3e	-0.17746827
239	0xbde7d662	-0.11320187
240	0xbc237801	-0.009977342
241	0xbb9914b1	-0.004671656
242	0x3d90a3a5	0.07062463
243	0xbd6712a0	-0.056414247
244	0x3e409c3b	0.18809597
245	0xbc4138c9	-0.011793324
246	0x3ca534fe	0.02016687
247	0x3d5e5089	0.054276023
248	0xbc356ee3	-0.011073801
249	0xbe39f0ad	-0.18158217
250	0x3dde11f8	0.10843271
251	0x3e29bade	0.1657519
252	0xbb623955	-0.0034519036
253	0xbca78cc5	-0.020452866
254	0xbca9ce98	-0.020728394
255	0xbc4a5336	-0.012348941

layers.0.bias f4 [100]
0	0x3df65fd9	0.1203
1	0x3e189eaa	0.14904276
2	0x3e5a5aa2	0.21323636
3	0xbc7c06c9	-0.015382477
4	0xbde13ed6	-0.10998313
5	0xbe2d25d6	-0.16908965
6	0x3c54e90e	0.012995018
7	0xbe4871dd	-0.19574685
8	0x3d09f263	0.033678424
9	0xbe2e2ead	-0.17009993
10	0xbd275d52	-0.04086048
11	0xbdb6c5d5	-0.08924452
12	0xbd8759d6	-0.06608932
13	0xbae63852	-0.0017564392
14	0x3c876c68	0.016531184
15	0x3d7b22b9	0.06131241
16	0x36e9aa94	6.963799e-06
17	0xb6c902a0	-5.9905724e-06
18	0xbd831a6e	-0.064015254
19	0xbddb4aec	-0.107076496
20	0xbdd3c16b	-0.10339626
21	0xbd4668a5	-0.04843964
22	0x3cedf00e	0.029045131
23	0x3bd0b574	0.006369287
24	0xbdbbee17	-0.091762714
25	0xb9b4aced	-0.00034461115
26	0x3e36009a	0.17773667
27	0xb8d92845	-0.00010354867
28	0xbdfe7f86	-0.12426667
29	0xbe080027	-0.13281308
30	0xbde98272	-0.114018336
31	0xba2f456f	-0.00066860666
32	0xbe19835d	-0.14991517
33	0xbd424537	-0.04742929
34	0x3e084845	0.13308819
35	0xbdb03fdc	-0.0860593
36	0x3cea6f50	0.028617531
37	0xbc3c1f60	-0.01148209
38	0x3b2135d7	0.0024598741
39	0x3d5dae95	0.054121573
40	0x3e5e2efe	0.21697614
41	0xbb0d0410	-0.0021517314
42	0x3e836e83	0.2567025
43	0x3e1d600f	0.15368675
44	0x3e305525	0.1721998
45	0xbe3c6f52	-0.1840184
46	0x3db11a74	0.08647624
47	0xbe43358c	-0.19063395
48	0xbe580584	-0.21095854
49	0x3dc2c306	0.09509854
50	0x3e1bae93	0.15203314
51	0xbe16e7b8	-0.14736831
52	0xbbb78578	-0.0056006275
53	0xbdb79008	-0.08963019
54	0xbe40cf27	-0.18829022
55	0xbd190f00	-0.03736782
56	0x3e59686a	0.21231237
57	0xbdc868ef	-0.097856395
58	0xbc6de9cf	-0.014521076
59	0xbe2dd7a9	-0.16976799
60	0xbd11fd7d	-0.035642136
61	0xbd0528c5	-0.032509584
62	0x3c37884b	0.011201928
63	0x3d067afa	0.032832123
64	0xbda6e0da	-0.08148356
65	0xbe054715	-0.13015397
66	0xbe3d92fa	-0.18513098
67	0xbdaf7c36	-0.08568613
68	0xbe4fed29	-0.20305313
69	0xbd83bb1c	-0.06432173
70	0x3c28e788	0.010309108
71	0xbe3d9b72	-0.18516329
72	0x3d85de3c	0.065365285
73	0x3e125190	0.14288926
74	0x3e04231a	0.12904015
75	0xbd155bd1	-0.036464516
76	0xbe2d37d0	-0.16915822
77	0xba27a305	-0.0006394836
78	0x3b5f1add	0.0034043111
79	0x3e45fba0	0.19334269
80	0x3c8ee639	0.017443763
81	0xbdf22250	-0.11822951
82	0x3e264098	0.16235578
83	0xbc8cba71	-0.017178746
84	0x3dfb6274	0.12274638
85	0x3db1632e	0.08661495
86	0x3e1c26c9	0.1524917
87	0xbe46a68e	-0.19399473
88	0x3d3b212e	0.04568594
89	0xbd896efc	-0.06710622
90	0x3d1c1a49	0.038111005
91	0x3e3311fa	0.17487326
92	0xbe2d8632	-0.16945723
93	0xbd97bbb1	-0.07408846
94	0xbe113972	-0.1418207
95	0x39c54715	0.00037627728
96	0x3e023337	0.1271485
97	0x3869437a	5.561437e-05
98	0xbda0e221	-0.07855631
99	0xbe6df746	-0.23238859

layers.2.weight f4 [200, 100]
0	0xbcf3b764	-0.029750533
1	0xbc3d3b58	-0.011549793
2	0x3b41c108	0.0029564518
3	0xbc0b3b68	-0.00849805
4	0xb8cc4a7c	-9.741352e-05
5	0xb9319899	-0.00016936882
6	0x3cb76afb	0.02238988
7	0x3d0b201f	0.03396618
8	0xbc20ec94	-0.00982203
9	0x3b927f75	0.0044707605
10	0x3c5a0c03	0.013308528
11	0xbc609bdb	-0.013709034
12	0xbbcb768a	-0.0062091993
13	0x3aec6b58	0.0018037362
14	0xbcb8ee66	-0.022574615
15	0x3c140dc8	0.009036489
16	0x3779d7ca	1.4891799e-05
17	0x39a45097	0.00031340562
18	0xbcaa8ec6	-0.020820033
19	0xb931d019	-0.00016957558
20	0xbbf1da4c	-0.0073807593
21	0xb7aabe4f	-2.0354199e-05
22	0xbcb3d420	-0.021951735
23	0x3d0c07bf	0.034187075
24	0x3cee41e5	0.029084155
25	0x390d44d3	0.00013472447
26	0x3c0f07e7	0.008729911
27	0x3c043316	0.00806882
28	0xb9f380b4	-0.00046444463
29	0x399f88de	0.00030428817
30	0xbcbcd3bb	-0.02305018
31	0xb98d051b	-0.0002689742
32	0x3c27916b	0.010227541
33	0xbccfbcde	-0.025358614
34	0x3cafd99e	0.021466073
35	0xbd067e20	-0.032835126
36	0xbcdd3357	-0.02700202
37	0x3d0307fc	0.031990036
38	0x3c723b1f	0.014784603
39	0xbd226892	-0.039650507
40	0xbc56d365	-0.013111924
41	0x3ca9a92f	0.020710556
42	0x3cffefc2	0.031242255
43	0xbbd46b9a	-0.0064825537
44	0x3ccd2a3a	0.02504455
45	0x375fcd36	1.3339615e-05
46	0xbc9cdf33	-0.019149398
47	0x3c494d5a	0.012286508
48	0xbc745ec5	-0.014915173
49	0xbb7910e9	-0.0038004464
50	0x3949f7a0	0.00019261101
51	0xbc613f8c	-0.013748061
52	0x394aff15	0.00019359247
53	0x3c153af5	0.009108295
54	0xbc3c96e6	-0.011510586
55	0xbcadf7be	-0.021236297
56	0x3ce0d4a8	0.027445152
57	0xbbac1b02	-0.005252243
58	0x3bfd9479	0.0077386466
59	0xbd06d142	-0.032914408
60	0x3c554f61	0.013019414
61	0x3c9eb26b	0.019372186
62	0xbb7bc28b	-0.0038415517
63	0xbc402a7e	-0.011728881
64	0x39fa52c2	0.00047745375
65	0xbb25e405	-0.0025312912
66	0x3c31df8f	0.010856523
67	0xba05566e	-0.00050864264
68	0xbd2304e8	-0.0397996
69	0xb5f285b4	-1.8069318e-06
70	0x389982e8	7.319992e-05
71	0x38e449c7	0.00010885629
72	0x3bacf70a	0.005278473
73	0xbc02f865	-0.007993792
74	0xb8075f54	-3.227529e-05
75	0xbc64c54b	-0.013963054
76	0xb9f0f510	-0.00045958953
77	0xb8938959	-7.035089e-05
78	0xbb0d48dc	-0.002155832
79	0x3c8d1ea4	0.017226525
80	0x39da16dc	0.00041597232
81	0xbbfb8f86	-0.0076770214
82	0x3d01e339	0.031710837
83	0x3a0117d5	0.0004924511
84	0xbb14c054	-0.0022697644
85	0xb89a966d	-7.371311e-05
86	0x3b2310e9	0.0024881905
87	0x38c8b692	9.5707495e-05
88	0x38d36caa	0.00010081504
89	0x37d9c78d	2.5961339e-05
90	0x3bb5fc7b	0.0055537797
91	0x3ccfc02a	0.025360186
92	0x396b760e	0.00022455325
93	0xbce94024	-0.028472967
94	0x3c0b4fe1	0.008502931
95	0xbc9c8b18	-0.019109294
96	0x39c2d6b9	0.00037162544
97	0xbca18ef7	-0.019721491
98	0xbc451b06	-0.012030369
99	0xbcdd056f	-0.02698013
100	0xb9b84e92	-0.00035153754
101	0xbc047d45	-0.008086507
102	0xbbdebdf0	-0.0067975447
103	0x3c002d94	0.007823367
104	0x37b9e7b2	2.216161e-05
105	0xb73b7b28	-1.1174743e-05
106	0xb7e28dd5	-2.7007345e-05
107	0x3c311444	0.010808054
108	0xb8b19ad9	-8.46886e-05
109	0xbbc40d9d	-0.005983068
110	0xb9fbef46	-0.00048052723
111	0xbc26f671	-0.010190592
112	0x38739252	5.8071986e-05
113	0xbba50068	-0.005035449
114	0xb6f6952c	-7.348737e-06
115	0xbbd1c790	-0.0064019635
116	0xb8a2ec4f	-7.768778e-05
117	0xb94b9422	-0.00019414772
118	0x3c3e75ef	0.011624797
119	0xbbbadb72	-0.0057024295
120	0xba95286a	-0.0011379842
121	0x38a08a52	7.655159e-05
122	0xb7d2dd83	-2.51371e-05
123	0x3c6bd6ce	0.014394475
124	0x3ac56960	0.0015061311
125	0x375c5af7	1.3134201e-05
126	0xb9cefc57	-0.0003947939
127	0xb6cdee34	-6.1372066e-06
128	0x3722164e	9.661146e-06
129	0xb7bff21c	-2.2881715e-05
130	0xbba8ec2e	-0.005155108
131	0x3b588eab	0.003304402
132	0x392232d3	0.00015468457
133	0xbc8adc2d	-0.016950691
134	0xb9bec4c1	-0.00036386217
135	0xb823e2de	-3.9073515e-05
136	0x3b8c8fb7	0.004289593
137	0xb8e3a1a4	-0.000108543114
138	0xb9433e6e	-0.00018619906
139	0xb9e95e22	-0.00044511358
140	0xb7306c08	-1.05155705e-05
141	0xbc97b3d3	-0.018518364
142	0xb83639a6	-4.344587e-05
143	0x385350bd	5.0381514e-05
144	0xbac1ec38	-0.001479513
145	0xb7c539c7	-2.3511135e-05
146	0x3ca228c0	0.019794822
147	0x346ba990	2.1947767e-07
148	0x38a8c8d9	8.048275e-05
149	0xb6f39336	-7.259102e-06
150	0x38ed902f	0.00011327897
151	0xb8313dec	-4.2257758e-05
152	0x38a7fd49	8.0103586e-05
153	0xbb3e920a	-0.0029078745
154	0xb98205e3	-0.00024799918
155	0x38d19320	9.993301e-05
156	0xb96acd1e	-0.00022392391
157	0x3c93e18a	0.018051881
158	0xb94fcc76	-0.00019817226
159	0x3c60f464	0.013730142
160	0x3c3e4497	0.011613033
161	0xb8f7ac36	-0.000118099546
162	0xb8820dc2	-6.201446e-05
163	0xbc8b4a01	-0.017003061
164	0xbc1ade9d	-0.009452489
165	0xbba4ebfa	-0.0050330134
166	0x3a4ba00f	0.0007767686
167	0xb9b2d196	-0.0003410696
168	0xb8a80176	-8.0111364e-05
169	0xb9f9b628	-0.00047628698
170	0xb94e7a15	-0.0001969117
171	0xb9362121	-0.00017369214
172	0x38fd6b61	0.00012083981
173	0x38b22584	8.494689e-05
174	0xbc8d1aa3	-0.017224615
175	0xbc1a6550	-0.009423569
176	0x3bf081b0	0.0073396787
177	0x389bddcf	7.432291e-05
178	0x3c20e9ba	0.00982135
179	0xba0480fe	-0.0005054622
180	0x37dc7c27	2.6283857e-05
181	0x39d46418	0.00040510367
182	0xbb58f2bd	-0.0033103668
183	0x39f2febe	0.00046347635
184	0x393d2ef0	0.0001804193
185	0x39ec71d9	0.0004509825
186	0x3954bbf2	0.0002028791
187	0x39db8aa9	0.00041874245
188	0xb91e099a	-0.00015071631
189	0x380b644e	3.32336e-05
190	0x39d0286c	0.00039702968
191	0x39d174c3	0.0003995058
192	0x3c23d96e	0.01000057
193	0x3969c998	0.00022295711
194	0x3c1113ab	0.008854787
195	0xb8925bdc	-6.978933e-05
196	0x3b5ef8f8	0.0034022909
197	0xb9bffb97	-0.00036617808
198	0xbc17ac7b	-0.009257431
199	0x39b44511	0.00034383734
200	0xbbece584	-0.007229509
201	0x3cf893b1	0.030343862
202	0xbd73b9b0	-0.059503257
203	0x3c56807a	0.013092155
204	0x399b320c	0.00029601192
205	0xbb8bc02a	-0.004264851
206	0x3cdb5c72	0.02677748
207	0x3c0e01b6	0.0086674
208	0x3c23d492	0.009999411
209	0x3bc97a90	0.006148644
210	0xbb77a3da	-0.0037786872
211	0x39e1d431	0.0004307344
212	0x38155e52	3.561221e-05
213	0xb908c88b	-0.00013044679
214	0xb71bd2c2	-9.287791e-06
215	0xbd43fd5b	-0.04784904
216	0xbc96a3a2	-0.018388573
217	0x39fbf5e5	0.00048057656
218	0x383e8cb3	4.5430566e-05
219	0x3c5f4ab6	0.013628652
220	0xbc4c9a56	-0.012487968
221	0x368062f0	3.826215e-06
222	0xb823a2b3	-3.9013754e-05
223	0x3cb5e3e8	0.0222034
224	0x3c739fcf	0.014869644
225	0xbbd7507a	-0.006570873
226	0x3c0a76b1	0.00845115
227	0x3921311d	0.00015372453
228	0x3b07de83	0.0020731993
229	0x3d51dc44	0.051235452
230	0xbce75088	-0.028236642
231	0x3b8f37ab	0.00437065
232	0x39586a18	0.00020638888
233	0xbca512f1	-0.020150634
234	0xba380637	-0.0007019969
235	0x3d576d52	0.05259449
236	0x3d0d843a	0.03454993
237	0xbba305de	-0.0049750647
238	0xb8060f56	-3.1962372e-05
239	0x3c18a6bf	0.009317099
240	0xbd7fac8d	-0.062420417
241	0x3d1d6663	0.03842772
242	0x3c031188	0.007999785
243	0xbcbdb17e	-0.023155924
244	0xbcae6b94	-0.021291532
245	0xb7de95e3	-2.6534259e-05
246	0xbcc22ad9	-0.023702072
247	0x3bd267b0	0.006421052
248	0xbbc7de03	-0.006099464
249	0x3b24f531	0.002517056
250	0xbc08a1e2	-0.008339377
251	0x3caa3b9a	0.020780373
252	0x3834c0ea	4.309501e-05
253	0x3cc4e870	0.024036616
254	0x39fc66ec	0.00048141868
255	0x35e1c59c	1.6821318e-06

layers.2.bias f4 [200]
0	0x3d71d16c	0.05903761
1	0xba3a16c3	-0.00070987287
2	0xbd9995b8	-0.0749926
3	0x3bee91f8	0.0072805844
4	0xbd7953fa	-0.060871102
5	0x3cf90916	0.03039984
6	0x3bc5d51a	0.0060373666
7	0x3d33cfa3	0.04389919
8	0x3bc53173	0.0060178577
9	0x3c99687d	0.018726582
10	0x3d1ad5af	0.03780144
11	0x37957b36	1.7819559e-05
12	0xb93bc316	-0.00017906385
13	0xb8e5d22e	-0.0001095872
14	0xbd722a9d	-0.05912267
15	0xbd213955	-0.039361317
16	0x3bcdce2c	0.006280681
17	0x3ca76f05	0.02043868
18	0x3c8b4ca2	0.017004315
19	0x3ce9e9fc	0.028553955
20	0x3d90b53b	0.07065817
21	0x38fe233d	0.000121182275
22	0x3da95114	0.082674176
23	0x3ce842c6	0.028352153
24	0xb963d29f	-0.0002172687
25	0x3d1033b1	0.035205547
26	0xbc933a6e	-0.017972197
27	0xbd28f0b4	-0.041245177
28	0xbd9bea2d	-0.07613025
29	0xb876aaa4	-5.8809892e-05
30	0x3a500ee9	0.0007936792
31	0x3d925da7	0.07146769
32	0xbb93b702	-0.0045079
33	0xbc99eab2	-0.01878867
34	0xbcdae451	-0.026720198
35	0x3d8abf76	0.067747995
36	0x39ac9b3a	0.0003292205
37	0x3d9e210b	0.07721146
38	0x39a7f22e	0.0003203316
39	0xbd8cbf8d	-0.06872473
40	0x38dd9fba	0.000105678526
41	0x3d0804c3	0.033207666
42	0x3d3bf378	0.045886487
43	0x3992c45b	0.00027993586
44	0xb8e2ee8a	-0.00010820951
45	0x3d466715	0.04843815
46	0xb9ff5c6c	-0.0004870625
47	0x3d97ed61	0.07418323
48	0xb932162d	-0.00016983664
49	0xba8238f0	-0.0009935182
50	0xbd013693	-0.031546187
51	0x38aa5914	8.122824e-05
52	0xbd07f501	-0.03319264
53	0xb95faf1d	-0.00021332172
54	0xbb30ac24	-0.0026958073
55	0x3daf6025	0.0856326
56	0xb986ff2f	-0.00025748598
57	0xbbdbbf72	-0.0067061717
58	0xb83536fe	-4.320498e-05
59	0x3bfde537	0.007748272
60	0xbcc7290d	-0.024311567
61	0xbd181d32	-0.037137218
62	0x3d3da3c0	0.046298742
63	0x3ca39178	0.019966826
64	0x3d84bb8f	0.064810865
65	0xbd1252ba	-0.035723425
66	0xb8be9802	-9.08822e-05
67	0x3ca45e04	0.020064361
68	0xb636dcca	-2.724863e-06
69	0x39cece51	0.000394451
70	0xba1dd98e	-0.0006021493
71	0x3d4ee53d	0.050511587
72	0x3c1ea1e6	0.009682154
73	0xbac0add3	-0.0014700241
74	0x3d2576e8	0.0403966
75	0xbd77fbff	-0.060543057
76	0xbbd045fb	-0.0063559986
77	0x3d53eed6	0.051741444
78	0xbba24135	-0.004951621
79	0x39f692e4	0.00047030218
80	0x3d4f66ad	0.05063503
81	0xbcbab35c	-0.022790603
82	0x3c46a3ae	0.012123985
83	0x3b919d00	0.0044437647
84	0x3c190f76	0.009342065
85	0xb78a0c58	-1.645663e-05
86	0x3d80a1b7	0.06280845
87	0x3cae3ccc	0.021269225
88	0xbc093c42	-0.008376183
89	0x3db5a326	0.08869009
90	0xb8d94f49	-0.00010362134
91	0xbc6fa441	-0.0146265635
92	0x3d3301b8	0.04370281
93	0xbca38d76	-0.019964915
94	0x3dac46f8	0.08411974
95	0xbda0ee7f	-0.078579895
96	0x3d5cf23f	0.05394196
97	0xb85e34a0	-5.2977935e-05
98	0x3d3870f8	0.04502961
99	0x3cd6e48e	0.02623203
100	0x3d8886f0	0.06666362
101	0xbc5ba865	-0.013406848
102	0xbb973331	-0.004614257
103	0x3b205987	0.0024467425
104	0x3c189d98	0.009314917
105	0x381faaaf	3.8067516e-05
106	0x3d2aefec	0.041732714
107	0xbccabcc0	-0.024748206
108	0x3d9ad2ca	0.07559736
109	0xbaf75bc3	-0.0018871952
110	0xb8b2f85d	-8.533963e-05
111	0x3cff58e6	0.03117032
112	0xbd03975b	-0.032126766
113	0xb9c71b09	-0.0003797638
114	0x3be43570	0.006964378
115	0xbcf358d7	-0.029705448
116	0x3bb4c2e1	0.0055163954
117	0x3d26ca7a	0.04072044
118	0xbd8e94ca	-0.06961973
119	0xbc2a0eb4	-0.010379482
120	0xbd7ff0ad	-0.062485386
121	0xb897ca98	-7.237977e-05
122	0xbc1e4be8	-0.009661652
123	0xbbcbd40d	-0.006220347
124	0x3d3d17af	0.046165165
125	0xb9557630	-0.00020357291
126	0xbd68e191	-0.056855742
127	0x3da868e0	0.08223128
128	0xbc036df8	-0.008021824
129	0x3d57a26e	0.05264514
130	0x3d4121e6	0.04715147
131	0xbce181e4	-0.027527757
132	0x39fb8975	0.00047976864
133	0x3b5d27f3	0.0033745735
134	0xbcac24e1	-0.021013679
135	0xbc99e462	-0.01878566
136	0x3d25ec74	0.040508702
137	0x3ca9da50	0.020733982
138	0x3d64d686	0.055868648
139	0x3d940439	0.07227368
140	0xbc56e65d	-0.013116446
141	0xbb2afee0	-0.0026091859
142	0x3d8883d2	0.06665768
143	0x3d009030	0.031387508
144	0x3c48b5b2	0.012250351
145	0x3d4e3327	0.05034175
146	0x3a96cf72	0.0011505915
147	0x3b9e2b79	0.0048269597
148	0x38c9eb22	9.628224e-05
149	0x3ca78086	0.020447027
150	0x3d3487a4	0.04407467
151	0xbc264da6	-0.010150349
152	0x3d2becfb	0.04197405
153	0x3c0e6b05	0.008692508
154	0xbb9ed00d	-0.004846579
155	0xba8826b0	-0.0010387506
156	0xbd4c65ec	-0.049901888
157	0x3d85f3b8	0.06540626
158	0x3d4796db	0.04872785
159	0x383d4d82	4.5133296e-05
160	0x3d2d6e42	0.04234148
161	0xbaa55d05	-0.0012616223
162	0x3caadb3d	0.020856494
163	0x3d571548	0.05251053
164	0x3d0b15c8	0.03395632
165	0xba2860b8	-0.00064231036
166	0x3b687d74	0.0035475167
167	0x3d55c8a3	0.052193295
168	0x3d72660a	0.059179343
169	0x3d923a4a	0.07140024
170	0x38ed66a8	0.00011320162
171	0xba8e1ddd	-0.001084264
172	0xbd5d168f	-0.05397659
173	0xbab2d8e6	-0.0013644963
174	0x3cbae5b8	0.022814617
175	0xbc85d9bf	-0.016339181
176	0x3cb715d5	0.022349278
177	0x395b92e1	0.00020940184
178	0xb84e1aa0	-4.9139024e-05
179	0x3d90d694	0.070721775
180	0xbc0f06a5	-0.0087296115
181	0xb811a50c	-3.4724406e-05
182	0x3cd4ba64	0.025967784
183	0x3c8c167b	0.017100563
184	0x39e085e7	0.00042824374
185	0x3d408d6b	0.047009867
186	0xbc359d62	-0.011084886
187	0x3d124bb4	0.035716727
188	0xbd58d07e	-0.05293321
189	0xbd36db54	-0.04464276
190	0xbc7a3bd8	-0.015273057
191	0x39809993	0.00024528484
192	0xbb393d6d	-0.0028265372
193	0xbbd0c24e	-0.006370819
194	0x37726c0b	1.444948e-05
195	0xb94b6fe1	-0.00019401267
196	0xbcab6e8a	-0.020926733
197	0x3d865987	0.06560045
198	0x3c0db62b	0.008649389
199	0xbd5ca996	-0.053872667

layers.4.weight f4 [200, 200]
0	0x36f69094	7.3482024e-06
1	0xb87a05bc	-5.9609985e-05
2	0x38fdafe1	0.0001209674
3	0xb7939ec7	-1.7597702e-05
4	0xbb839210	-0.0040152147
5	0xb6a7f416	-5.005403e-06
6	0xb69fd0db	-4.7628832e-06
7	0x38d2678b	0.00010032867
8	0x39c04d30	0.00036678603
9	0x369d1159	4.680984e-06
10	0xb9871b63	-0.0002576961
11	0x3a9b8af3	0.0011866972
12	0x3a102085	0.000549801
13	0x390ed001	0.00013619663
14	0x3714de4e	8.873247e-06
15	0xb929bc3f	-0.00016187223
16	0xb99c3bef	-0.00029799293
17	0xbb0b426a	-0.0021249303
18	0xb7b97c48	-2.2111592e-05
19	0xb8fe508c	-0.00012126667
20	0xb9e403bf	-0.0004349034
21	0xb93a5398	-0.00017769483
22	0xb9dd32cf	-0.0004219026
23	0xb83e7439	-4.540777e-05
24	0xb8f92ed0	-0.00011881965
25	0xb59c0678	-1.1624788e-06
26	0xbb8c0f38	-0.004274275
27	0x394f6f45	0.0001978251
28	0x39505e7d	0.00019871625
29	0xb4a7ac00	-3.123132e-07
30	0x37751a95	1.4609327e-05
31	0xb5808988	-9.57677e-07
32	0x38f8bffd	0.00011861322
33	0xb83a2817	-4.4383192e-05
34	0x38fe43c7	0.00012124288
35	0x39bfcfa4	0.00036585063
36	0x38bfbc81	9.142701e-05
37	0x39550313	0.00020314408
38	0xb7109787	-8.618349e-06
39	0xb9e8298a	-0.00044281437
40	0xba276720	-0.0006385911
41	0xb9c27ee1	-0.00037097096
42	0x38f79968	0.00011806452
43	0xb728cd22	-1.00613415e-05
44	0xb7928e38	-1.7470782e-05
45	0x384459fc	4.6813846e-05
46	0x36eff870	7.151677e-06
47	0x39fb6ae8	0.00047954102
48	0x3a5bbee0	0.00083826296
49	0xb9885b42	-0.00026007934
50	0x37972abf	1.8020508e-05
51	0xb81f1cf5	-3.7935522e-05
52	0xb88039c6	-6.114277e-05
53	0x35c2fa56	1.4526984e-06
54	0xb9fb3c00	-0.00047919154
55	0x3844d1c9	4.692542e-05
56	0xba339422	-0.00068503816
57	0x3801d858	3.0957483e-05
58	0x39f81459	0.00047317406
59	0xb9549927	-0.00020274949
60	0xb72439b6	-9.788599e-06
61	0x392a6282	0.0001624916
62	0x370ac345	8.270906e-06
63	0xb8310ab3	-4.2210053e-05
64	0xbb8a5897	-0.0042219865
65	0x39cca201	0.00039030614
66	0x3ab3c2ce	0.0013714673
67	0x36bbd272	5.5975333e-06
68	0xbae5acd4	-0.001752282
69	0xb99783b4	-0.0002889909
70	0xba5052c4	-0.00079469034
71	0x38f6ffba	0.00011777827
72	0x38ea6704	0.00011177178
73	0xbb2711a8	-0.0025492702
74	0xb8fbd178	-0.00012007629
75	0xb81cbeb5	-3.7370908e-05
76	0xba2458dc	-0.00062693446
77	0x38d0b2c6	9.951512e-05
78	0xb9f64a36	-0.00046976068
79	0xbb6b643e	-0.0035917903
80	0xba7d3919	-0.00096596923
81	0x39fb8c32	0.00047978904
82	0xba9d2157	-0.0011988085
83	0x3962fcc4	0.00021647202
84	0xb9393005	-0.00017660864
85	0x37a97456	2.0200543e-05
86	0x39b3d6d8	0.00034301612
87	0x3942e807	0.00018587719
88	0xb90f8c52	-0.00013689816
89	0xb9fbfba1	-0.0004806193
90	0x39a38b87	0.0003119374
91	0xb8284ba2	-4.012476e-05
92	0x39f61395	0.00046935366
93	0x38534fa9	5.038051e-05
94	0xb8155d67	-3.5611356e-05
95	0x37ddf2f0	2.645838e-05
96	0xb9be06b8	-0.0003624463
97	0x3b26f9a0	0.0025478378
98	0x39f9616d	0.0004756557
99	0x38fe37b6	0.00012122041
100	0xb90bc282	-0.00013328533
101	0xb81d56b6	-3.7512473e-05
102	0x3796376f	1.7907207e-05
103	0xba36a70f	-0.00069676427
104	0x39f2571f	0.00046222747
105	0xb8f947de	-0.000118866315
106	0xbb42abfb	-0.002970456
107	0xb893a4c4	-7.040196e-05
108	0x39fbbf08	0.0004801678
109	0xb938c44c	-0.00017620734
110	0xbb060ff7	-0.0020456293
111	0xb9434b78	-0.00018624763
112	0xbb54b6ab	-0.0032457511
113	0xbb8456d3	-0.0040386706
114	0xb868d452	-5.551085e-05
115	0xb81d627b	-3.7523434e-05
116	0xb9f7441c	-0.00047162257
117	0xb8511a50	-4.985399e-05
118	0x38757558	5.8521837e-05
119	0xb7fd7773	-3.0215573e-05
120	0x367521e4	3.6527572e-06
121	0xbb939253	-0.004503527
122	0xb7342121	-1.07365495e-05
123	0xb953bc2c	-0.00020192628
124	0xb88f2304	-6.8252935e-05
125	0x37d530d4	2.5414316e-05
126	0x39ec966e	0.00045125507
127	0xb82dd074	-4.144055e-05
128	0xbaac688e	-0.0013153718
129	0xb9322297	-0.00016988289
130	0xb8e13e5c	-0.000107404514
131	0xb9aa9524	-0.00032536045
132	0xb7effbd2	-2.8608283e-05
133	0xb9b0b95e	-0.00033707445
134	0xb7aabade	-2.0352596e-05
135	0x3887daca	6.478054e-05
136	0xb9b9d1c0	-0.00035442226
137	0x3955478d	0.00020339918
138	0xbb1b1bc4	-0.0023667673
139	0x3748953a	1.19556735e-05
140	0x39ae24a5	0.00033215169
141	0xb8af4458	-8.35738e-05
142	0xb9092207	-0.00013078014
143	0x3b11863c	0.0022205254
144	0xbb3f2985	-0.0029169035
145	0xb992fad9	-0.00028034186
146	0xbb191e08	-0.0023363847
147	0xb8e947be	-0.00011123669
148	0xb8877262	-6.458607e-05
149	0x39fb43ce	0.0004792497
150	0xb67c91b8	-3.7635746e-06
151	0xb7cdadad	-2.4518778e-05
152	0xb837ae7b	-4.3793098e-05
153	0xb98521fa	-0.0002539305
154	0x388d66ec	6.7425746e-05
155	0xba28a0d7	-0.00064326584
156	0xb701de56	-7.740766e-06
157	0x391bb2b8	0.0001484853
158	0x393cc1d5	0.00018001285
159	0x3af73dc8	0.0018863017
160	0x3b28f122	0.0025778492
161	0x38ef332f	0.00011405942
162	0xba7314e8	-0.00092728296
163	0xb87760a6	-5.89794e-05
164	0xb6efe548	-7.149447e-06
165	0x39224534	0.00015475304
166	0x38d6960d	0.00010232264
167	0xb877558e	-5.8969068e-05
168	0x36a59fea	4.9359996e-06
169	0xb9fae53b	-0.00047854506
170	0x370086ed	7.660809e-06
171	0x381695d6	3.5902332e-05
172	0xb8aa31af	-8.115486e-05
173	0xb85ecff0	-5.312258e-05
174	0xb9b992ee	-0.0003539542
175	0xbb9acb83	-0.0047239675
176	0x36222fd0	2.4167712e-06
177	0x3a1d43d9	0.0005999185
178	0xb83049a8	-4.2030268e-05
179	0xb866f64f	-5.5065666e-05
180	0xb990febf	-0.0002765562
181	0x39edc3ce	0.00045350048
182	0x3802f674	3.1223943e-05
183	0xbb8bdabe	-0.0042680195
184	0x39828eb7	0.00024901863
185	0xb818147e	-3.625871e-05
186	0xbb094a89	-0.0020948967
187	0xbb77137c	-0.0037700823
188	0x3819fde8	3.671451e-05
189	0xb9e5a192	-0.00043798663
190	0xb8491820	-4.7944603e-05
191	0x37abbc62	2.0472511e-05
192	0x385e2f20	5.2972813e-05
193	0x373f2958	1.1394113e-05
194	0xb7e8894d	-2.772049e-05
195	0xb974f194	-0.00023359648
196	0xb8c93947	-9.5950956e-05
197	0xbb368d28	-0.0027855132
198	0x3894ca3d	7.09486e-05
199	0xbb1dd757	-0.0024084651
200	0xbbc366f4	-0.0059632007
201	0xb79c7b68	-1.8654115e-05
202	0x3bd04afc	0.006356595
203	0x39240d67	0.00015645252
204	0xbc868e36	-0.016425233
205	0x3996bba9	0.00028750047
206	0x3d0eaac6	0.03483083
207	0xbd2e6e44	-0.042585626
208	0x3cc4b65a	0.024012733
209	0x3b67159b	0.003526068
210	0xbd123edb	-0.035704475
211	0xba349f98	-0.00068902364
212	0x39144379	0.00014139515
213	0x37447151	1.1708894e-05
214	0xbd63e90d	-0.055642176
215	0xbc81ae7c	-0.015830271
216	0x39389000	0.00017601252
217	0x3b27d863	0.0025611154
218	0xbd7ba81b	-0.061439615
219	0x3c869dfc	0.016432755
220	0x3c2aa524	0.010415349
221	0x39da0f8e	0.0004159179
222	0x3b7333e3	0.0037109784
223	0x3bcbc1ad	0.0062181563
224	0x38229e9d	3.877153e-05
225	0x3bdf1c29	0.006808777
226	0x3c399131	0.01132612
227	0xbcdd7c57	-0.027036829
228	0x3d152358	0.03641066
229	0x3955fda2	0.00020407749
230	0xb939528b	-0.00017673725
231	0x3ad1e046	0.0016012273
232	0xbb492816	-0.003069406
233	0xb6e98b58	-6.960163e-06
234	0xbb72f19d	-0.0037070282
235	0xbc30a80e	-0.010782255
236	0x3811086c	3.4578537e-05
237	0x3d062cd0	0.03275758
238	0x397fc226	0.00024391021
239	0x3d068739	0.032843802
240	0xb734e9f7	-1.078331e-05
241	0xb802c3ad	-3.1176653e-05
242	0xbd89430d	-0.06702242
243	0xb7f09d04	-2.8683346e-05
244	0xb8ada689	-8.2803024e-05
245	0x3c5e70f7	0.013576738
246	0xb954a10d	-0.00020277892
247	0xb9b3291d	-0.00034172172
248	0xb94c6bdc	-0.00019495137
249	0xb8a915c4	-8.062602e-05
250	0xbc6c525e	-0.014423935
251	0x38897766	6.554909e-05
252	0x3d16d076	0.036819898
253	0xb9ea4b26	-0.00044687948
254	0x3ae436ef	0.0017411391
255	0x3c820798	0.015872762

layers.4.bias f4 [200]
0	0xbb8920b2	-0.004184806
1	0x3d3d5769	0.04622594
2	0xbba4ee3a	-0.0050332816
3	0x3caf7ef0	0.021422833
4	0x3d6f84e9	0.058476362
5	0x3c4eb12d	0.012615484
6	0xbc71b7e0	-0.014753312
7	0xbb18925f	-0.0023280603
8	0xb885f260	-6.38708e-05
9	0x3d5fefeb	0.054672163
10	0xbd635ac2	-0.055506475
11	0x3c9b197c	0.01893305
12	0xbd995061	-0.07486034
13	0x3cb0e2f1	0.02159259
14	0x3d75afcb	0.059982102
15	0xbb77bcc5	-0.0037801724
16	0xbc5bf609	-0.013425359
17	0x39f7c9db	0.00047261905
18	0xbd9078b0	-0.07054269
19	0x3c830db1	0.01599774
20	0x3d870419	0.065925784
21	0x39fb8dcb	0.00047980095
22	0x3bf29169	0.007402588
23	0x3d132aa1	0.035929326
24	0x3b96cda1	0.0046021496
25	0xb74edaa8	-1.2329467e-05
26	0x3d0f0a9f	0.03492224
27	0x3d545938	0.051842898
28	0x39bf9c4a	0.00036546803
29	0x39041520	0.0001259637
30	0xbc82674a	-0.015918393
31	0x3d88ca44	0.06679204
32	0xbc2cf033	-0.010555315
33	0x3c099298	0.008396767
34	0x3d54624a	0.05185155
35	0x39d6dfaf	0.00040983918
36	0x3cd9db55	0.026593843
37	0x3d6530f4	0.05595489
38	0xb928f680	-0.00016113557
39	0x3d218755	0.039435703
40	0x3aa13675	0.0012299555
41	0xb9fb7fa1	-0.00047969542
42	0xbd4c65c0	-0.049901724
43	0xb91cd567	-0.00014956818
44	0x3ced4374	0.028962828
45	0xbcd0cc20	-0.02548796
46	0x380d572a	3.3698198e-05
47	0x3c3ceaa8	0.011530556
48	0x3c813dd5	0.015776554
49	0x3797fef7	1.811933e-05
50	0xb9fd6ccd	-0.00048336983
51	0x3cee3abf	0.029080747
52	0xbb432364	-0.0029775733
53	0xba9f59d1	-0.0012157505
54	0xbd327aa4	-0.04357399
55	0x3d1b9b8e	0.037990145
56	0x3a8b44e5	0.001062539
57	0x38abad22	8.186164e-05
58	0x389fe313	7.624007e-05
59	0x3c24f8a4	0.010069046
60	0x39d5906f	0.00040734137
61	0x3cab0f94	0.020881452
62	0x3d323885	0.043510932
63	0x3af80a72	0.0018924011
64	0xbc9bafa9	-0.01900466
65	0xb9b904f1	-0.0003528963
66	0xb6b9a633	-5.532778e-06
67	0xbccbb670	-0.024867266
68	0xbcc622d7	-0.024186535
69	0x3d8facc1	0.07015372
70	0xb7b4b203	-2.1540565e-05
71	0x3d2600d9	0.040528152
72	0x3971269a	0.00022997931
73	0xbcd7c18a	-0.026337404
74	0xb6bd3300	-5.638576e-06
75	0x39f5e887	0.00046903288
76	0x3d618c68	0.055065542
77	0xb9f5e62c	-0.00046901533
78	0xb8944682	-7.070323e-05
79	0x3d25f0b0	0.04051274
80	0x3a6255d2	0.0008634004
81	0xbafeb857	-0.00194336
82	0x3c830457	0.01599328
83	0x3b9e013a	0.0048219236
84	0xbaecfce2	-0.0018080736
85	0xbb9a9658	-0.0047176294
86	0x3d856f5e	0.06515382
87	0x3c253383	0.010083082
88	0x389def9e	7.5309756e-05
89	0xbbafafbc	-0.0053615253
90	0x3c30e9e5	0.010797952
91	0x3d755b05	0.059901256
92	0x3cce33df	0.025171218
93	0x3d194fb5	0.03742953
94	0xbb4a99c0	-0.0030914396
95	0x3cad5500	0.021158695
96	0x39941da4	0.00028250844
97	0xbcb7905a	-0.0224077
98	0xb9936765	-0.0002811506
99	0x3d541b07	0.051783588
100	0xbbe7c01b	-0.0070724613
101	0xbcb5fdb5	-0.022215704
102	0xb90db119	-0.00013512782
103	0x3d8a3530	0.06748426
104	0x385bd3fd	5.24111e-05
105	0xbb9f53b6	-0.004862274
106	0xbb12c92b	-0.0022397737
107	0xb946ef40	-0.00018971879
108	0x3cea614c	0.028610848
109	0x3912ed79	0.0001401211
110	0x39f71dab	0.00047133616
111	0x3be4ad76	0.006978686
112	0xbb04014f	-0.0020142382
113	0x3cec1126	0.02881677
114	0xbb942398	-0.0045208447
115	0x3863f4b8	5.434893e-05
116	0x3c2b13a1	0.010441692
117	0xbd17bc0c	-0.03704457
118	0x3d3791fc	0.044816956
119	0xbc243931	-0.010023401
120	0xbc190534	-0.009339619
121	0xbbf9001f	-0.0075988914
122	0xb951fba0	-0.00020025531
123	0xbad3986f	-0.0016143451
124	0x3750c158	1.24427825e-05
125	0xba32f69f	-0.00068269105
126	0x3c00b957	0.007856688
127	0x3d8d9ada	0.06914301
128	0xbc24b935	-0.010053922
129	0xbd0e7e60	-0.03478849
130	0xbcee5e78	-0.02909778
131	0xbbeecb60	-0.007287428
132	0xbb5a4da0	-0.0033310428
133	0x3d8c558e	0.06852256
134	0xbd4d6789	-0.050147567
135	0xb943cd2e	-0.00018673085
136	0x3ced65a7	0.028979136
137	0xba5a3015	-0.0008323205
138	0xbcb545d5	-0.022128025
139	0x3d5b5b8d	0.053554107
140	0x3b8db284	0.0043242592
141	0x3a02357b	0.00049670757
142	0xbbbf2895	-0.005833695
143	0xbd62c40c	-0.055362746
144	0xbd4adfa3	-0.049529683
145	0x3ce6db1f	0.028180657
146	0x3b9bfe7c	0.0047605615
147	0xbcbc253c	-0.022966973
148	0xbd019a82	-0.03164149
149	0x38a81f2d	8.016671e-05
150	0x3d5378f8	0.051629037
151	0x3cbae180	0.022812605
152	0x3d3bec96	0.045879923
153	0x3d656614	0.056005552
154	0x3d30a584	0.043126598
155	0x3c02b2b7	0.007977179
156	0x3d8c5bc6	0.06853442
157	0x39eb06b5	0.0004482769
158	0xb9339398	-0.00017125753
159	0x3d7d7aee	0.061884813
160	0xba2d4459	-0.0006609611
161	0xbce4febc	-0.027953498
162	0x3a963537	0.0011459951
163	0x3d00dc30	0.031459987
164	0xbb91a25b	-0.004444403
165	0xbb8516d5	-0.0040615597
166	0x3d04158f	0.032247122
167	0x3c7efbc0	0.015562952
168	0xbc750782	-0.014955403
169	0x3adc4599	0.001680541
170	0x3c4898d6	0.01224347
171	0x3d85ec7a	0.06539245
172	0x381f49b0	3.797718e-05
173	0x3c76e8c3	0.015070143
174	0xbd8316a5	-0.064008035
175	0x3b504b8a	0.0031783306
176	0xbb765f0a	-0.0037593269
177	0x3d184ae1	0.037180785
178	0x3d90b467	0.07065659
179	0xbca83562	-0.020533267
180	0x3d10863b	0.035284262
181	0x38fc8fea	0.000120431025
182	0xb97dc5d6	-0.0002420166
183	0x3d4f294c	0.050576493
184	0x39503b53	0.00019858526
185	0xbd12057f	-0.035649773
186	0xb8dbe43a	-0.00010485244
187	0xbc6e556e	-0.014546735
188	0x3d7c246f	0.061558183
189	0x3880d54c	6.143245e-05
190	0x3d0c9dad	0.03433006
191	0x3d49c99b	0.04926453
192	0xbd2ce6f5	-0.042212445
193	0xbca4be63	-0.020110315
194	0xbc340130	-0.010986611
195	0x3c2336dc	0.00996181
196	0xbd3d98be	-0.046288244
197	0xbc9e9f82	-0.019363169
198	0xbd135ad8	-0.035975307
199	0x3a9769c6	0.0011551909

layers.6.weight f4 [1, 200]
0	0xb592e20a	-1.0943634e-06
1	0xbd50c443	-0.05096842
2	0xbbb1ea2e	-0.0054295277
3	0xbc1e3bc0	-0.0096578
4	0x3d9d700e	0.07687388
5	0xbcef0b71	-0.02918026
6	0x3d84b043	0.06478932
7	0x3d03a2dd	0.03213774
8	0x3afccb7d	0.0019286718
9	0x3c88a11f	0.016678391
10	0xbbb68529	-0.005570073
11	0xbce1f4e0	-0.027582586
12	0xbcaf53e0	-0.0214023
13	0xbc4321b3	-0.01190989
14	0x3d4e2f6f	0.050338205
15	0x39261aa2	0.00015840915
16	0x3be0f017	0.0068645584
17	0x3adc223b	0.001679487
18	0xbd27bae0	-0.040949702
19	0x3cce1264	0.025155254
20	0x3da29fa1	0.07940603
21	0xb91dc8b0	-0.00015047449
22	0x3d8d0720	0.068861246
23	0xbc89a8d1	-0.01680413
24	0x3bbaa3c5	0.0056957924
25	0xb9f36729	-0.00046425432
26	0x3d9c277a	0.07624717
27	0x3c55d0bd	0.013050255
28	0xb8d5bc22	-0.00010191674
29	0x36d70816	6.4084406e-06
30	0x3d004396	0.031314455
31	0x3d2d51cf	0.042314347
32	0x3d21d3ff	0.039508816
33	0xbac93ac6	-0.0015352599
34	0xbc7daa85	-0.01548255
35	0xb9f5a535	-0.0004685313
36	0xbbe33749	-0.0069340807
37	0x3d57f85d	0.052727092
38	0x3be3ccdc	0.0069519114
39	0xbc9b9fdc	-0.018997125
40	0xbc06fa94	-0.008238453
41	0x37b5201c	2.1591834e-05
42	0xbc9ce1da	-0.019150663
43	0x3943f50d	0.00018687938
44	0x3b880410	0.004150875
45	0x3d4c750a	0.049916305
46	0xb836e9b1	-4.3609823e-05
47	0xbce30ac0	-0.027715087
48	0x3d9dfee5	0.07714633
49	0x383b9c28	4.4729706e-05
50	0x39b024a9	0.0003359665
51	0xbbe63994	-0.007025907
52	0xbc89205f	-0.016739069
53	0x3d4f6f7c	0.05064343
54	0xbc69fc6c	-0.0142813735
55	0x3da59fe1	0.08087135
56	0xbb2b3205	-0.0026122343
57	0x3d6a9dee	0.05727952
58	0x39faffa8	0.00047874195
59	0x3d9c98ac	0.07646307
60	0xb94d0e6e	-0.00019555699
61	0xbd14f07b	-0.036362153
62	0x3d9096e4	0.0706003
63	0x38981925	7.252608e-05
64	0xbbbc98ce	-0.0057555204
65	0x37971ede	1.8014976e-05
66	0xb7b772f7	-2.1868835e-05
67	0x3c23ba38	0.0099931285
68	0x3d7b7d80	0.061398983
69	0x3d93212c	0.071840614
70	0xb697223c	-4.504136e-06
71	0x3ce452ed	0.027871573
72	0xb9c4ac62	-0.00037512468
73	0xbc2d6877	-0.010583988
74	0x380dad6d	3.3778535e-05
75	0x39f6e44b	0.00047090868
76	0xbd4a08c2	-0.04932476
77	0x398255ed	0.00024859552
78	0x37d7093a	2.5634294e-05
79	0x3d27d332	0.040972896
80	0x3c86eb25	0.016469548
81	0x3d5752ed	0.05256932
82	0x3c7e1b5c	0.015509453
83	0x3ce27117	0.027641816
84	0xb82d689b	-4.1343836e-05
85	0x3b1466fe	0.0022644396
86	0x3d933d53	0.07189431
87	0xbd661a88	-0.056177646
88	0x3b966726	0.004589933
89	0x399a9afd	0.00029488644
90	0xbc97a6b4	-0.018512107
91	0x3d44e8fb	0.04807375
92	0x3d041794	0.03224905
93	0x3d389e02	0.045072563
94	0x3b04d952	0.0020271135
95	0xbc1f0d1e	-0.009707717
96	0xb81954d4	-3.6557045e-05
97	0x3d0351ed	0.032060552
98	0xb80f8d83	-3.422565e-05
99	0xbd1ccd02	-0.03828145
100	0xb9a753d5	-0.00031915182
101	0xbb4b7565	-0.0031045314
102	0x3b143b81	0.0022618475
103	0x3d1a5531	0.0376789
104	0xb9d085ab	-0.00039772442
105	0x3d7f0381	0.0622592
106	0xb801db08	-3.0959985e-05
107	0xb93a0f1c	-0.00017743971
108	0xbd5037b8	-0.050834388
109	0xb9f473c9	-0.00046625573
110	0xb57e7e20	-9.480591e-07
111	0xbd69510f	-0.05696207
112	0x389faec6	7.614265e-05
113	0x3d1a2e73	0.037641954
114	0x39900fbd	0.00027477546
115	0xbb10739e	-0.002204157
116	0x3cd3bd5d	0.025847131
117	0x3d25964d	0.04042654
118	0xbd8df509	-0.06931502
119	0xbc533f40	-0.012893498
120	0x3c0c56ac	0.008565586
121	0x3bae60d6	0.0053216023
122	0x38eda7c9	0.00011332293
123	0xb75821b9	-1.2882455e-05
124	0xb909eb1c	-0.00013152923
125	0xba88d2f8	-0.001043885
126	0x3c24d76e	0.010061128
127	0x3d826811	0.06367505
128	0x3d722f80	0.05912733
129	0xbd53789f	-0.051628705
130	0xbaabf8f4	-0.0013120458
131	0x3c9be340	0.01902926
132	0xbae203fd	-0.001724362
133	0x3cc89f36	0.02448998
134	0x3d6c903c	0.05775474
135	0xb8865413	-6.405278e-05
136	0xbd28d113	-0.041215014
137	0xb4cebe80	-3.8509097e-07
138	0x3d87f0dd	0.06637738
139	0x3cc7b0ab	0.024376234
140	0x3d9a765e	0.07542108
141	0x3c82357b	0.015894642
142	0x3ac5237c	0.0015040482
143	0xbd50ff85	-0.051024932
144	0xbce45627	-0.027873112
145	0xbb49fbe0	-0.0030820295
146	0xbc5491f6	-0.012974253
147	0xbc4a18c2	-0.012335004
148	0xbd6776c5	-0.05650975
149	0xb9f44ab7	-0.00046594974
150	0xbd469610	-0.048482955
151	0xbbe27449	-0.006910835
152	0x3c09776e	0.008390291
153	0x3ce7f051	0.028312834
154	0xbd448332	-0.04797668
155	0x3cd047ba	0.025424827
156	0x3d27d680	0.040976048
157	0x39d879b4	0.00041289406
158	0x3907e684	0.00012960477
159	0x3d04b91f	0.032403108
160	0x392686ce	0.00015881212
161	0x3cd7550d	0.026285673
162	0x3b9b94c6	0.00474796
163	0xbc38adac	-0.011271875
164	0x3a1569d9	0.00056996715
165	0x3d71d78e	0.05904346
166	0xbd2b215f	-0.041779872
167	0x3d8d9874	0.06913844
168	0xba1a293f	-0.000588078
169	0xbd3ce13f	-0.04611325
170	0x3c7b5700	0.015340567
171	0x3cb1ae00	0.021689415
172	0x398317fa	0.0002500413
173	0xbcc50ceb	-0.024054011
174	0xbcfd62a0	-0.030930817
175	0xbc6105b7	-0.013734273
176	0xbd271104	-0.04078771
177	0xbcc60b61	-0.024175348
178	0x3d62f25f	0.055406924
179	0x3d8f95e2	0.0701101
180	0x3d32428f	0.043520506
181	0x3838d955	4.4071425e-05
182	0xb99c562d	-0.00029818845
183	0x3d902fd3	0.07040372
184	0x3a32fc17	0.00068277254
185	0xbd123c7b	-0.03570221
186	0x3b729a9a	0.003701842
187	0xbccb5f1c	-0.024825625
188	0x3d1dbcca	0.03851012
189	0xbacc8b06	-0.0015605397
190	0x3d1760f1	0.036957685
191	0x3d7df617	0.062002268
192	0x3c9d3e0c	0.019194625
193	0xbcfa4d60	-0.030554473
194	0x3c183ced	0.00929187
195	0x3cd9f63c	0.026606672
196	0x3ce4c82b	0.027927479
197	0xbba7d78c	-0.0051221307
198	0xbd558235	-0.05212613
199	0xba751308	-0.0009348844
