data/model_Rose .pt (torch_old, 611048 bytes, 7 tensors)

layers.0.weight f4 [100, 12]
000000 af 5a f5 bc b9 8d 25 be 18 19 d7 37 54 1c 64 b7
       -0.029950468 -0.16167344 2.5641682e-05 -1.3596455e-05
000010 be ef 88 bd d8 33 80 b9 dd 59 db 3d e9 43 47 bb
       -0.06686352 -0.0002445269 0.107104994 -0.0030405468
000020 92 77 98 b8 70 9b 9f 3b 71 d8 bf 36 98 5c 09 be
       -7.2701965e-05 0.0048708245 5.7174407e-06 -0.13414228
000030 05 8e 7e bd 58 31 aa bd 05 87 0f 3e bf 35 00 be
       -0.06214716 -0.08310193 0.1401635 -0.12520503
000040 d2 bf 31 be 1d 42 63 be a1 c8 3d 3e 16 48 ae bd
       -0.1735833 -0.22193189 0.18533565 -0.08509843
000050 48 76 23 be b0 62 ff 3d cc ac 37 bd e2 fe 86 3d
       -0.1596309 0.12469995 -0.044842526 0.06591584
000060 40 c6 b6 3d fe f1 32 be 38 a7 a1 3d f4 e8 1e be
       0.08924532 -0.17475125 0.078932226 -0.15518552
000070 ba b4 58 3e 58 d7 02 3e 19 ad 00 3e 12 3c 57 3d
       0.21162692 0.1277746 0.12566032 0.052547522
000080 19 4b 4c 3e 7d 07 3e 3e 6d f7 8c bd ef 4e 93 bd
       0.19950522 0.18557544 -0.0688313 -0.0719279
000090 0a 76 8f 3e 09 fa 8c 3d 49 b6 02 3d bc 87 0a 3e
       0.28019744 0.06883628 0.031912122 0.13528341
0000a0 c4 69 34 3e 8e dc 4a be ce 9d 37 3d eb bf dd 3d
       0.17618471 -0.19810697 0.04482823 0.10827621
0000b0 c5 c6 a6 3d 25 2d 18 be 33 32 6c 3e 1b 44 5d 3e
       0.08143381 -0.14860971 0.23066024 0.21608011
0000c0 3b a2 37 bc f4 1d d3 3d d7 e3 08 3e 32 9f 6e bd
       -0.011208112 0.103084475 0.13368164 -0.05825729
0000d0 2c db b9 bd da b7 54 be 89 7a 5e be a2 51 83 bc
       -0.09075007 -0.20773259 -0.21726431 -0.016030136
0000e0 3c 63 f8 bd 06 7e d2 3d c1 cc 4d bd 5c 14 ff 3d
       -0.121283025 0.10277943 -0.050244097 0.12455055
0000f0 2a 41 6c bd 80 9a e3 3d d3 50 d7 bd dd a9 4b be
       -0.057679333 0.11113453 -0.10513463 -0.19889016
000100 b1 32 5f 3e f5 78 44 bd 43 a4 64 3e d5 ea 1e be
       0.21796681 -0.047966916 0.22328286 -0.15519269
000110 97 fa 48 3e 1e fd 21 be 2f 80 77 3e 81 f4 7e be
       0.19626842 -0.15819213 0.24169992 -0.24897958
000120 f4 45 06 be a4 6b 29 3d e0 cc 17 3d bd 08 12 3e
       -0.13112622 0.04136242 0.03706062 0.14261146
000130 c7 0d ec 3d 38 ce 8a bd cb 55 09 be 4a 68 71 bd
       0.11526065 -0.06777614 -0.13411634 -0.05893735
000140 4d 16 1e be 6b dd d7 bd 8d 4b 24 36 f6 e2 97 bd
       -0.15438195 -0.10540279 2.448188e-06 -0.07416336
000150 b6 44 76 3e 5e 59 93 3e 80 3a e1 bd 3f d6 6f 3d
       0.24049649 0.2877912 -0.10997486 0.05855393
000160 53 3d 8a 3e 80 be ea ba f4 32 02 3e f5 d3 7c be
       0.26999912 -0.0017909557 0.1271475 -0.2469023
000170 f1 86 c6 3d 2a f6 88 bd 6e 83 a8 bd 9b e5 a0 3d
       0.09693707 -0.06687577 -0.08228193 0.07856294
000180 cd 7c ce 3d 6c 6d 25 3e ea b6 e6 bb 07 f6 83 bd
       0.100823976 0.16155022 -0.007040848 -0.0644341
000190 fb 7c 9e 3d 31 bc ed bd bc f6 06 3e b4 78 e7 3d
       0.07738682 -0.1160816 0.13180059 0.11302319
0001a0 15 14 5c 3d 6e ba 24 be 76 a9 7d 3e b6 8b 29 ba
       0.05373009 -0.16086742 0.24771675 -0.0006467657
0001b0 7d 79 23 3e a5 82 ba bd 86 d4 c0 bc 64 4a e6 3c
       0.15964313 -0.0910695 -0.02353884 0.028111644
0001c0 bf c6 9a bd e2 34 05 3e 4d 26 00 3e 75 d4 01 3d
       -0.07557439 0.13008454 0.1251461 0.031696755
0001d0 9d 34 68 be 76 9a 68 3e c4 7c 0b 3e 28 ec ca 3d
       -0.2267632 0.22715172 0.13621813 0.099083245
0001e0 4b 9f c3 3b 02 31 3e 3e c6 d5 a8 3c 5f 3e 4e 3e
       0.005969917 0.18573382 0.020609748 0.2014098
0001f0 f1 9d 0e 3e cb b2 a7 bc 9b 29 77 3e b7 87 8c be
       0.13927437 -0.020470997 0.24136965 -0.27447292
000200 9e 33 87 3e 1a 44 c3 3d f2 98 1c 3e e3 6a 84 be
       0.26406568 0.09534474 0.15292719 -0.25862798
000210 db 1d c0 bb a3 e0 7c bb ad f0 10 bd 3a b4 5b bc
       -0.005862934 -0.0038586042 -0.035385776 -0.013409669
000220 24 28 59 bd 44 46 72 39 a6 bd af bd 57 b6 a7 3a
       -0.053016797 0.00023105094 -0.085810944 0.001279543
000230 8a ac 6b 3b c5 55 5a 3d 85 4b c0 3c 92 5b 25 be
       0.0035960996 0.053304452 0.02347351 -0.16148213
000240 28 2d 16 be 31 83 a5 3d fc 94 cc bd 5b 3c cc bd
       -0.14665663 0.080816634 -0.09989354 -0.099724494
000250 e3 65 3c b8 3b af e0 b9 a2 6f 96 3d bd 67 ff bd
       -4.4917582e-05 -0.00042855166 0.07345511 -0.124709584
000260 fb a7 43 bd 14 b8 3b bd 90 aa 6d bd dc cb c6 3c
       -0.04776762 -0.045829847 -0.05802399 0.02426713
000270 c9 11 a0 3d 92 80 7f bd f7 f9 4f be 98 d5 cc bd
       0.07815892 -0.062378474 -0.20310198 -0.10001677
000280 39 22 b8 3d b8 46 0e 3e 98 51 8f 3d 7c 9d ea bd
       0.089909025 0.13894165 0.06997985 -0.11455819
000290 5b 82 6d bd 50 86 62 3e d4 09 4f 3e b5 9f 9b 3d
       -0.057985645 0.22121549 0.20218593 0.07598821
0002a0 63 64 83 3e 89 4b 5f be d9 0c 48 bd 09 91 76 3e
       0.25662526 -0.21806158 -0.048840377 0.24078764
0002b0 eb eb 61 3d 97 97 a7 3d 31 c9 58 3e bb 92 86 be
       0.05515663 0.0818321 0.21170498 -0.2628382
0002c0 96 45 3a be dc ae 75 be 52 f2 4c 3d cd 9c 4a 3e
       -0.18190607 -0.23992485 0.050035782 0.19786377
0002d0 e6 af e6 bc 2d 87 d1 3d d4 87 2f 3d 5a 17 3a 3e
       -0.028160047 0.10230861 0.042854145 0.1817297
0002e0 0e 90 4e be 36 c1 53 bb a6 df 55 3e 7d 24 63 be
       -0.2017214 -0.0032311208 0.20886096 -0.22181888
0002f0 7c 93 1a bc 92 e5 e5 bb 31 17 96 3c a3 d0 b5 bd
       -0.009434577 -0.0070158923 0.018321605 -0.08877685
000300 e4 e1 d0 b6 36 c2 bf 3d f0 b0 11 39 d9 76 1f be
       -6.22518e-06 0.09363215 0.00013894192 -0.1557268
000310 f5 0b ea 38 40 1a 42 38 34 63 04 b4 b6 12 6b bd
       0.00011160217 4.627765e-05 -1.2329548e-07 -0.05739089
000320 be d3 f7 3c 3c e0 0e be b1 15 a1 b5 42 42 a5 bd
       0.030252334 -0.13952726 -1.2001748e-06 -0.08069278
000330 3f 23 76 be 86 bc e2 3d fb d6 0e 3e 72 e3 b3 3b
       -0.24036883 0.11071114 0.13949196 0.00548976
000340 ad ef 5f 3e 35 cb 3b be 6d 01 cf 3d 8c 25 c7 bd
       0.21868773 -0.18339236 0.10107694 -0.097239584
000350 4e 19 89 3e c8 df 47 3e 02 f2 55 bd b5 e4 5e be
       0.26777118 0.1951896 -0.05223275 -0.21766932
000360 53 f0 00 be 24 f0 02 3d d0 20 6d 3d 39 59 c8 bd
       -0.12591676 0.031967297 0.05789262 -0.09782643
000370 85 99 df 3c 48 97 b8 bd 21 1d 0c bd 9e 37 f9 36
       0.027294884 -0.090132296 -0.034207467 7.427253e-06
000380 5f 66 1f be aa 0c 68 bc e2 60 e5 bc ea 42 9a b6
       -0.15566395 -0.014163176 -0.028000299 -4.5973475e-06
000390 6b 48 4c be fe 25 5f 3e 20 bd fb bd 8d 7f 2d 3e
       -0.199495 0.21791837 -0.12291932 0.16943188
0003a0 9e 57 8d 3d eb 20 20 3e b7 2a 90 bc 5c 08 81 3e
       0.06901477 0.15637557 -0.017598493 0.2520169
0003b0 7d e7 71 3e 48 b6 85 be 98 ed 81 be 64 d7 68 bd
       0.23623462 -0.26115632 -0.25376582 -0.056846038
0003c0 fe b8 22 3e 8d be b6 bd 9b 85 c4 3c 75 2e d5 3c
       0.15890881 -0.089230634 0.02398949 0.026023129
0003d0 7f 9a d0 bd 90 b1 81 bd cc 57 38 bc ba 94 22 3d
       -0.10185718 -0.063326955 -0.011251401 0.039692618
0003e0 10 7c 7c 3c 5b a7 25 be ef 5e a0 ba c7 5c 30 3c
       0.015410438 -0.16177122 -0.0012235324 0.010764307
0003f0 52 01 e2 bd 14 cf 8e 3c 62 0b d5 3b c9 25 e5 bd
       -0.11035408 0.017432727 0.006501601 -0.111888476

layers.0.bias f4 [100]
000000 00 1e b5 b7 8a f0 60 3e fd 7e 67 3e 99 d0 28 3c
       -2.1590851e-05 0.21966758 0.22607036 0.01030364
000010 b2 1f 05 3e 97 6c bb 3d d8 65 25 be 29 1c 5f be
       0.13000372 0.09151571 -0.16152132 -0.21788086
000020 2b c5 6f be 7e 83 62 be d7 e0 13 be 73 2c 09 3e
       -0.23415057 -0.22120473 -0.14441238 0.13395862
000030 95 45 bb bd 96 49 ef 3d 7d 77 6d 3e ef aa eb 3d
       -0.09144131 0.11683957 0.23190112 0.11507212
000040 ab 70 8b bd bb c2 71 bd 0d 5f 7e bd 6e 0c 94 3d
       -0.06808599 -0.0590236 -0.062102366 0.07228933
000050 12 8b 83 3d 66 64 a4 3d c0 ca 5f 3e 4d 62 5b be
       0.0642301 0.08026962 0.21854687 -0.21424218
000060 44 c9 43 bd df 93 0b be 91 23 00 3e 2a 38 96 bd
       -0.047799364 -0.13630627 0.12513568 -0.07334931
000070 db 23 d3 b7 15 8f d5 3c 90 6e 87 3d 6f 17 8c 3e
       -2.5169857e-05 0.026069203 0.06612885 0.27361628
000080 c4 4d 16 bd 6a fb 00 3d 8a 3e 5c 3e d9 3a 1a be
       -0.036695257 0.031489767 0.21508232 -0.15061511
000090 8e 03 f1 bd 94 f7 88 bd 71 fc 11 3e 50 00 09 bc
       -0.11768256 -0.06687847 0.14256455 -0.008361891
0000a0 88 9d 43 3e a6 f7 55 3e fe 8a 21 be a8 79 a4 bd
       0.19103062 0.20895252 -0.15775678 -0.080310166
0000b0 01 da 2e 3d bd 17 ba 3a 6c 69 81 3e ef 6a 9b 3d
       0.042688373 0.0014197748 0.25275743 0.07588755
0000c0 c6 4a e9 ba 5f 8a 0f be 04 7c 0a 3c ea 14 7b bb
       -0.0017798773 -0.14017628 0.008452419 -0.0038312026
0000d0 14 31 21 3e a2 46 57 bd 18 c5 43 bd 0e 86 7a 3e
       0.15741378 -0.052557595 -0.047795385 0.244652
0000e0 99 d0 23 3e 68 c2 04 bd c4 17 70 37 8c 3d 14 be
       0.15997542 -0.032411963 1.4310648e-05 -0.14476603
0000f0 db c1 5c 3e bf a1 30 bd 26 73 e4 3d 6c d8 9a bd
       0.21558325 -0.043123003 0.11154775 -0.075608104
000100 f0 54 b1 bd 23 88 2a 3e 90 4d d2 bc 0a d7 03 be
       -0.08658779 0.16653495 -0.02567175 -0.12875
000110 1c 54 b3 bd 58 5d e1 3b ac a4 df bc 0b 58 cf bc
       -0.08756277 0.0068775825 -0.027300201 -0.025310537
000120 db 81 0f 3c 2f 2d b4 bd e4 2d 19 3e 02 38 0d bc
       0.008758987 -0.087976806 0.14958912 -0.00861931
000130 fb 75 fe bd 59 2f ce 3d 03 44 9d 3c 3a 23 33 3e
       -0.12424847 0.100676246 0.01919747 0.17493907
000140 0d 54 06 39 32 ab 10 be a4 cb 4e be ca 27 13 3e
       0.00012810547 -0.14127806 -0.2019487 0.14370647
000150 34 8c f6 bd 78 d5 fc b9 34 4f 45 3c 4f 0d 52 3e
       -0.120384604 -0.00048224232 0.012042809 0.2051289
000160 08 e1 64 be a1 80 28 be 5f 67 0c 3e f0 e0 61 bd
       -0.22351468 -0.16455318 0.13711308 -0.055146158
000170 7e 39 18 be cd 11 95 bc 28 8d 88 3e a5 49 fc 3d
       -0.14865682 -0.018196965 0.26670194 0.12318734
000180 97 ff 2e bd 16 d8 21 3d 46 5a 98 bd 49 38 16 3e
       -0.04272422 0.039512716 -0.07439093 0.14669909

layers.2.weight f4 [300, 100]
000000 3b 8f fe 37 82 0e 2d b8 b2 f6 c3 b8 34 40 5c ba
       3.0345856e-05 -4.1259926e-05 -9.344275e-05 -0.0008401901
000010 21 f2 9b b7 bb af 4c b8 11 24 e8 37 66 ce 7f 35
       -1.859019e-05 -4.8801052e-05 2.767335e-05 9.529525e-07
000020 be d2 05 b7 92 3f 1a 37 1d 63 08 bc d6 c1 d5 bb
       -7.976485e-06 9.193916e-06 -0.008324412 -0.006523351
000030 12 2f 64 3a c3 91 4d b8 3e 55 fe 37 9e b5 a8 b7
       0.0008704524 -4.901156e-05 3.0318854e-05 -2.0111733e-05
000040 2d 35 2c 3b 8b a5 c3 38 00 8d 3a 37 b2 2e 2d bb
       0.0026276812 9.3291594e-05 1.1119293e-05 -0.0026425538
000050 9c 85 e9 38 0e fc 90 bb 4e a3 18 b7 d1 51 9e 3a
       0.000111351925 -0.0044245785 -9.097928e-06 0.0012078827
000060 b0 db c6 b8 2c 12 94 37 3c 5a aa bb 4d 8a 84 b7
       -9.482296e-05 1.7651437e-05 -0.005198745 -1.5800028e-05
000070 f4 f9 b9 b9 9a d2 2a b8 c5 90 c8 b7 bf f5 75 bb
       -0.0003547218 -4.0727296e-05 -2.3909271e-05 -0.003753051
000080 d7 64 cc 37 34 28 e3 bb 73 b0 75 ba 73 32 05 39
       2.4365652e-05 -0.006932283 -0.0009372301 0.00012702662
000090 59 bd c5 37 7b 80 cf b6 a4 39 ea 3b 1d e2 2c ba
       2.3572402e-05 -6.184038e-06 0.0071479846 -0.0006594973
0000a0 d7 62 f8 b7 a2 cd 97 37 8c bc 19 3b 90 b0 88 36
       -2.960993e-05 1.8096358e-05 0.002345833 4.0736704e-06
0000b0 8a 85 eb 36 6b 6f 9d bb b2 06 9c 39 a9 62 df 38
       7.0190918e-06 -0.004804542 0.00029759627 0.000106518455
0000c0 94 88 92 b5 44 0c 31 b7 12 a8 25 3b 91 0a 4b 38
       -1.0917597e-06 -1.0552878e-05 0.002527718 4.8408812e-05
0000d0 8a cc 52 3a 77 52 cb b4 64 35 c8 ba dd c4 bc 38
       0.0008041343 -3.7871698e-07 -0.0015274701 9.001207e-05
0000e0 9e ad c2 36 6d e2 dc 3b f5 e0 9c b7 bb 80 db 39
       5.8018622e-06 0.0067408592 -1.8701403e-05 0.00041866847
0000f0 c4 0f 7e bb 18 63 17 3b d1 ad 94 35 28 d8 b3 36
       -0.0038766721 0.0023099836 1.1077447e-06 5.3597796e-06
000100 dd 91 45 b8 60 e7 ac b9 c3 29 c8 37 71 f1 c2 ba
       -4.7104306e-05 -0.00032978784 2.3861305e-05 -0.001487298
000110 e4 26 c4 b6 e5 6e 51 36 43 20 29 3b bf 00 10 37
       -5.8457827e-06 3.1207976e-06 0.0025806583 8.583243e-06
000120 03 e2 21 b8 5c 6f e4 36 fa ea 98 3b 8c 78 d9 36
       -3.859588e-05 6.8078934e-06 0.0046666833 6.4811375e-06
000130 f8 6a 23 36 9f 49 e8 37 cb f7 4b b8 ff 37 f4 b5
       2.4351157e-06 2.7690838e-05 -4.8629747e-05 -1.8195714e-06
000140 14 fa e3 ba 2d 7e 12 39 45 d4 cc b8 dd 70 01 b6
       -0.0017393255 0.00013970649 -9.767016e-05 -1.9288193e-06
000150 9a 1b 90 38 e5 31 64 b6 e0 1d 05 38 c2 13 0d b9
       6.871596e-05 -3.400369e-06 3.1737494e-05 -0.00013454168
000160 13 8b bf b5 10 fa b6 b7 80 b8 d4 b7 38 12 bf b4
       -1.4271085e-06 -2.1812535e-05 -2.5358284e-05 -3.5589778e-07
000170 66 e0 07 36 a0 2c c0 bb 5a cc 71 3a f6 96 64 b7
       2.0247185e-06 -0.0058646947 0.0009223871 -1.3625007e-05
000180 41 25 ec bb 0d a2 ea 3b 34 49 31 37 6a 48 41 b6
       -0.0072065894 0.0071604312 1.0567066e-05 -2.8801392e-06
000190 c2 18 c8 3b ec 68 ad 3c fe dc 8b 3d 4d 2a 82 bc
       0.006106467 0.021168195 0.0682926 -0.015889311
0001a0 a0 4e b9 bc 61 0a 80 3d 9a 59 bf 3a 85 69 9b 3d
       -0.0226205 0.062519796 0.0014598847 0.07588486
0001b0 02 af 92 3c 5e bb fb 3c ee 08 e4 bc 66 6d 39 bb
       0.017905716 0.030728992 -0.02783629 -0.0028293966
0001c0 2e b3 3c 36 f5 10 b9 bb 54 6d 1d 3d d4 a6 36 3c
       2.811848e-06 -0.0056477734 0.03843434 0.011148173
0001d0 2e 19 bd 35 54 04 51 bd 0d a8 bd b8 5b c3 c4 bc
       1.4088926e-06 -0.05102952 -9.043524e-05 -0.024018934
0001e0 85 50 93 ba 30 c8 db 3c b2 0b af bc a7 cb ec 3c
       -0.0011239207 0.026828855 -0.021367881 0.028905703
0001f0 de 13 c8 39 b9 c2 06 39 74 64 36 3d b6 ee 2a bd
       0.00038161775 0.00012851776 0.044529393 -0.04173156
000200 31 e6 a7 3b 82 fe 6b 3a c2 39 9e bc 5c 47 28 3c
       0.0051238765 0.0009002463 -0.01931465 0.01027092
000210 48 26 8f bb 11 70 e8 3c 62 c7 48 bd cb e6 18 bb
       -0.004368577 0.02837375 -0.04901827 -0.0023330923
000220 47 b5 bb bb f8 e2 aa 3b 2e 0d 75 3d a5 16 1d ba
       -0.005728397 0.005215045 0.059827022 -0.0005992449
000230 a3 14 a4 3d 99 6d 56 bd 11 94 36 b6 27 fd 8f b4
       0.08011749 -0.052350614 -2.72063e-06 -2.6820018e-07
000240 c3 00 91 bd 59 74 d0 bb d5 ba 19 bc 5c 0f a3 3d
       -0.070802234 -0.006361526 -0.009382923 0.07961914
000250 86 55 e3 b7 66 68 a9 bc 3e b7 12 b5 f0 45 4b bb
       -2.7100334e-05 -0.020679664 -5.465589e-07 -0.0031017028
000260 97 e3 5a bb 61 34 44 bd 1d bf 0f bd ca ac aa bd
       -0.0033399814 -0.047901515 -0.03509437 -0.08333738
000270 93 70 ac bd 98 e8 8b 37 62 5d d5 3a fa 66 3c bd
       -0.08419909 1.6678401e-05 0.0016278441 -0.045996644
000280 a4 19 19 3d b3 ae a6 3a 08 2c 81 bb e7 44 90 ba
       0.03737797 0.0012716859 -0.0039420165 -0.0011006863
000290 ff b2 2d 3d 78 b2 07 bd d0 d6 3d 3d b9 98 3a 3c
       0.042407032 -0.033129185 0.04634744 0.011388951
0002a0 0f 99 fb 3b 15 18 1e bc 16 5a 04 3d e3 03 07 39
       0.007678158 -0.009649296 0.032312475 0.00012876051
0002b0 61 56 10 b9 1f c8 24 38 ab a0 8c 3a 1a 81 7d bc
       -0.00013765089 3.9287024e-05 0.0010729035 -0.015472675
0002c0 3c 5c c2 36 3e 7e a8 3c ee e8 bf bc 80 93 c6 bc
       5.792388e-06 0.02056801 -0.0234265 -0.024240255
0002d0 f0 41 03 bc 5d e1 5f bd 27 ee 5b bd 39 be 75 3c
       -0.008011326 -0.054658283 -0.053693917 0.014998966
0002e0 c8 db 32 37 36 3c 05 37 b9 23 87 bd 8f 8d e5 bc
       1.0660799e-05 7.941437e-06 -0.065986104 -0.028021602
0002f0 a3 da 01 bd 50 1e 8e 3c 1d 2e 11 3b a0 90 13 bb
       -0.03170265 0.017348439 0.002215273 -0.0022516623
000300 a4 1f da 38 d4 0d 4a 3a bd 87 9d 3d ec 5b 90 3d
       0.000104009436 0.0007707749 0.07691906 0.07048783
000310 73 11 91 37 d3 30 2d bd 76 98 53 b7 81 24 15 3d
       1.7293472e-05 -0.04228289 -1.2612078e-05 0.036411766
000320 75 d2 df b7 00 0b 4d bc 41 98 08 bc 2c dc ce 3c
       -2.6681673e-05 -0.01251483 -0.008337081 0.02525147
000330 32 87 20 bb 18 fa 88 bc 94 a9 04 bb 87 9c 0c bc
       -0.0024494645 -0.016720816 -0.0020242678 -0.008582241
000340 f3 f4 80 bb dd ce 9b bb ce be f9 bc 2b 9e b8 ba
       -0.00393545 -0.0047548846 -0.03048649 -0.0014085224
000350 68 79 0f 3c de 1d ea 3b 24 5c f1 3c b2 69 a4 bc
       0.008756973 0.0071446737 0.029462881 -0.02006993
000360 3c 41 b6 b7 07 46 9d bc d6 8f 2f bb 7a 6d 5c bc
       -2.1726468e-05 -0.01919843 -0.0026788614 -0.013453836
000370 86 49 b5 3c fa 49 06 b9 ca 0c ff 3c ae 78 a1 bc
       0.022129785 -0.00012806794 0.031134028 -0.019710865
000380 85 94 a4 39 9f 4d 5e 3b 9a 4c 84 bc 0e 67 e7 3a
       0.00031391173 0.0033920777 -0.016149808 0.0017654614
000390 d6 66 98 37 b1 87 85 3a 65 5e bd bc 27 7d ee 3b
       1.8167699e-05 0.0010187534 -0.0231163 0.007278103
0003a0 8c 6d a6 35 83 d2 c0 bc 74 4d 82 bb 3a 3e 78 39
       1.2399846e-06 -0.02353788 -0.0039765183 0.00023674304
0003b0 c8 f9 0a 3b 63 28 86 bb 97 a4 84 ba 78 da c6 39
       0.002120601 -0.00409417 -0.0010119852 0.00037928275
0003c0 7b e5 d0 bc e9 13 0b bd 2f c0 8b 38 16 33 cc 3b
       -0.02550005 -0.033954535 6.6638335e-05 0.006231676
0003d0 15 67 a0 3b f9 6f 9b 39 4f 6d e5 3c ca 45 35 ba
       0.004895101 0.0002964733 0.028006224 -0.00069150014
0003e0 24 2f 93 b8 f1 d7 dc 3c 00 f1 e2 36 bc 2e 27 3b
       -7.018287e-05 0.026958438 6.763381e-06 0.0025510034
0003f0 98 ba 1b 3a 69 b2 5f 3b dc af 14 bc ac 2a 8e bc
       0.00059405854 0.003413344 -0.009075131 -0.017354332

layers.2.bias f4 [300]
000000 ee 11 ad ba 8d ab 65 bc f3 e1 89 bb 63 9e f2 b8
       -0.0013204196 -0.014017952 -0.0042078434 -0.00011568961
000010 20 23 58 b3 e5 3a e2 bc 89 43 bd 3d 21 5f 25 bd
       -5.0323365e-08 -0.027615974 0.09241397 -0.040373925
000020 f3 7c 3a bd ad b3 76 bb da fd aa bd dd 6a c3 3c
       -0.045529317 -0.0037643716 -0.083491996 0.023854667
000030 66 35 7b 3d 24 c9 52 bd 1d 1d cd 3d 11 2e 77 3d
       0.06133022 -0.051461354 0.100153185 0.060346667
000040 85 76 89 3d 20 67 01 bd 74 a2 6b bc 78 68 a1 3d
       0.06712059 -0.03159249 -0.014381994 0.07881254
000050 f1 52 a3 3d e9 d5 ab 3d 18 ef a5 3d bf d4 7c 3c
       0.07974804 0.083904095 0.08102244 0.015431582
000060 92 d5 13 3d 99 29 69 3c b6 84 02 b7 18 f2 ba 3c
       0.03609235 0.014231109 -7.779503e-06 0.022820517
000070 83 ef ec bc 18 bf 6b bb b6 b2 69 3d a2 1a 93 bd
       -0.028922802 -0.0035972055 0.057055198 -0.07182814
000080 cf 13 95 bc 14 1b 70 37 46 01 7a 3b 96 ad f1 b9
       -0.018197922 1.4311419e-05 0.0038147732 -0.00046096434
000090 70 20 cd 3d 8d 29 be 3d 38 c1 66 3d 55 7f a1 bd
       0.100159526 0.09285269 0.05633661 -0.07885615
0000a0 a1 62 51 3d 37 36 3a 37 46 c4 68 b9 f3 36 54 bd
       0.05111945 1.1099087e-05 -0.00022198362 -0.051810216
0000b0 08 93 c8 36 1e b7 cd 3d 6f 64 55 bd ba 16 c6 3c
       5.977581e-06 0.100446925 -0.052097734 0.024180759
0000c0 16 0b 68 3d 35 af 94 bb e8 01 c9 3d f7 2f dc 36
       0.056651197 -0.004537488 0.09814817 6.5620948e-06
0000d0 07 63 9c 3d 8a e4 b8 3d 37 9c 2e bc 70 e6 1c bc
       0.076360755 0.09027965 -0.010657362 -0.009576425
0000e0 e4 63 19 3d d1 00 aa bb aa c6 36 ba 8b b1 94 3c
       0.03744878 -0.0051880856 -0.0006972352 0.018151065
0000f0 27 98 9e bc 09 db 83 3d d7 0e a7 3c 66 b7 6a bb
       -0.019359661 0.06438262 0.020392818 -0.003581488
000100 f3 c7 10 b9 86 54 bb bc f0 ea 37 bc 63 7e 1b 3d
       -0.00013807397 -0.022867452 -0.011225447 0.03796233
000110 1c ca b3 3c 0f d2 23 3d dc 06 82 3d 26 c8 4f 3d
       0.02194696 0.03999525 0.063489646 0.050727986
000120 67 97 99 3d 2a 62 88 bb 0f 92 09 39 8f a8 ba bd
       0.07499581 -0.0041620927 0.00013119749 -0.09114181
000130 18 0d 2a b9 98 95 86 bd bc f9 d0 3b 24 20 05 3c
       -0.00016217341 -0.065715015 0.006377427 0.008125339
000140 df 25 47 bd 83 c7 0b bc a9 23 6c 3c 9d d5 98 3d
       -0.0486201 -0.008531454 0.014412799 0.074626185
000150 0b 74 87 3c 21 17 03 3c 57 a9 c8 3c ff 2b 2c bc
       0.016534826 0.00800112 0.02449481 -0.010508536
000160 f4 bb 12 3d 9a 7b 77 3d 74 c2 0b 3d b3 71 f3 bb
       0.035823777 0.06042061 0.03412099 -0.0074293255
000170 f6 04 68 ba ec ad c8 b7 10 db c2 3c 98 01 3a bb
       -0.0008850837 -2.3922847e-05 0.023786098 -0.0028382298
000180 74 6a 86 3c 44 01 9e 3c 72 c3 9a 3d 44 73 94 bd
       0.016408183 0.019287713 0.075568095 -0.07248548
000190 6a f6 80 bd 4f 83 ef 3a 90 09 ba 3d 9e e0 ce bc
       -0.06297 0.0018273386 0.09083855 -0.02525359
0001a0 10 64 1a bd 53 07 4b bd c4 c0 c6 3d 01 b7 ca 3d
       -0.037693083 -0.04956753 0.09704736 0.098981865
0001b0 08 82 72 3d 3b d9 0f bc 23 00 0d bd 58 f2 05 3c
       0.05920604 -0.008779819 -0.03442396 0.008175455
0001c0 d9 33 34 3d 0a 5a 0f 39 86 d3 bf bd e7 d9 fb 3b
       0.04399476 0.00013671085 -0.09366517 0.007685888
0001d0 10 95 9e 3c 4a 02 b1 bd 9f 99 b5 bd 19 96 a3 b6
       0.019358188 -0.08643015 -0.088671915 -4.875252e-06
0001e0 72 3a f5 bc 5f 55 77 3d b6 45 22 b7 b3 3b f5 3b
       -0.029935095 0.06038415 -9.672183e-06 0.0074839233
0001f0 03 77 1d bd 68 d6 b9 3c 96 dc 95 3c 34 28 cc 3a
       -0.038443577 0.022685245 0.01829366 0.0015575946
000200 9f 91 b1 3d 90 63 03 bd 4e 82 37 3d 27 a6 80 bc
       0.08670353 -0.032077372 0.044802003 -0.015704228
000210 5c fe 87 bc d4 00 88 bb 56 fc 26 3d 88 ad 88 3c
       -0.01660078 -0.0041504893 0.04076799 0.016684309
000220 02 f8 df 38 bd d6 a2 bd a1 7f bc bb fe ad 04 bd
       0.00010679664 -0.07951114 -0.0057525192 -0.032392494
000230 7b d7 4e bd 2c 83 59 3c 3d 67 13 bd 57 db 5c 3d
       -0.050498467 0.013275903 -0.035987128 0.053920116
000240 73 6f 44 bd 4d a7 36 bb 30 1d 98 bb 2f b1 85 3d
       -0.04795785 -0.0027870715 -0.0046421513 0.06527936
000250 39 07 8b 3c 58 b3 ab bb 27 b4 20 3d 85 2e ab bb
       0.016971217 -0.0052398853 0.039234307 -0.0052240514
000260 f7 fb 1f 3d e3 53 ba 3c 1d da 07 3d 68 c6 13 3d
       0.03905865 0.022745078 0.033166993 0.036077887
000270 7f 0b ed 3a 40 5c 0e b5 26 85 e4 3b 41 3c c0 bb
       0.0018085091 -5.3033364e-07 0.0069738803 -0.005866558
000280 5b 2b 3a 3d 95 09 51 3d 49 b4 a7 bb 21 cf 6f bc
       0.045451503 0.05103453 -0.005117927 -0.014636786
000290 8d c3 d3 39 1b 24 ad 3d 99 79 75 3c 8e 87 9f bc
       0.00040390753 0.08454152 0.014982604 -0.019473817
0002a0 41 e5 93 bc 8f e3 91 bd 5d be 36 bd d8 2a 85 bc
       -0.018053653 -0.071234815 -0.04461514 -0.016255781
0002b0 f2 07 e3 3b a2 9d 8b 3d 66 36 54 bd 6c e8 cf bb
       0.0069284374 0.068171754 -0.05180969 -0.0063448455
0002c0 ae 7c 07 37 bc 86 41 3b 56 1b 6c 3d ab 4e a5 bc
       8.075656e-06 0.002952977 0.057643257 -0.020179113
0002d0 84 04 b0 3c 5a 4c 85 36 06 1e 17 bd 07 fe 54 3d
       0.021486528 3.9725974e-06 -0.036893867 0.05200007
0002e0 4d f2 43 b8 0f 92 8b 3d 9c f2 29 3a 4c bd 8b bb
       -4.6717283e-05 0.06814968 0.000648299 -0.0042645093
0002f0 8a c9 88 ba 77 41 36 3c c4 f9 bc 3d ce cd 67 bd
       -0.001043604 0.0111240065 0.092273265 -0.056592755
000300 cf 8e c1 bd 9c ce 14 bb f0 0c 6c 3b d8 b1 f6 36
       -0.09451067 -0.0022706157 0.0036018454 7.352075e-06
000310 9d 4d 04 39 d3 bf b1 bd 14 95 00 bc 61 2e b0 3c
       0.00012617414 -0.08679166 -0.007848043 0.02150649
000320 a1 fe 39 3d 46 22 31 3d 13 6f 9a 3d db fd a2 bd
       0.04540885 0.043245576 0.07540717 -0.07958575
000330 50 c4 d9 b7 4a 68 3e bd 07 a5 21 bc 38 63 93 bc
       -2.5959831e-05 -0.046486177 -0.009866006 -0.017991647
000340 51 f3 d7 bd 8e 67 74 bd 02 6e 4a 3d 5c 98 99 3b
       -0.10544456 -0.05966907 0.049421318 0.004687352
000350 2f 48 75 bc ed 46 18 3d d0 3a 02 36 e5 62 89 bc
       -0.014970823 0.037177015 1.9405743e-06 -0.01677079
000360 12 8d 65 37 90 34 87 3a a3 bd 05 bd 68 b3 04 bd
       1.3682309e-05 0.0010315347 -0.032651555 -0.032397658
000370 41 c3 e9 3c 01 dd 95 bd 65 90 97 3d df 9a 82 3d
       0.028535487 -0.07317544 0.07400588 0.063771956
000380 1a 4a b4 bb 4f be 04 bd 79 f2 10 bb ee 7f 51 bc
       -0.0055019977 -0.032408055 -0.0022117181 -0.0127868485
000390 b1 6e d8 3c 62 58 20 bb 1b 7f 9b 3c 1e ab 8a bb
       0.02641997 -0.0024466743 0.018981507 -0.0042318245
0003a0 48 3d f6 ba b9 6d 03 bc e1 e7 20 b9 e2 30 9c ba
       -0.0018786574 -0.008021765 -0.0001534517 -0.0011916424
0003b0 b0 a0 42 bd 2a 3d dd bc 1f 24 ad 37 7b b2 34 bd
       -0.047516525 -0.027006704 2.0640027e-05 -0.044115525
0003c0 0c 0b b1 3d 66 74 a7 bd 43 ce 61 b8 9d 3f 8d 3d
       0.08644685 -0.08176498 -5.3836276e-05 0.06896899
0003d0 c7 22 bd 3d d5 6c 14 bc 19 92 26 bb 9b a3 6e bd
       0.09235149 -0.009059151 -0.002541667 -0.058261495
0003e0 15 2a f5 bc c1 fa e8 3b 5e b9 60 bd 55 9d 73 3d
       -0.029927293 0.0071099703 -0.05486428 0.059476215
0003f0 13 8c 42 3d aa ec 13 bc 6a d3 eb 3c 51 0e ca 3d
       0.047496866 -0.009028593 0.028787334 0.09866012

layers.4.weight f4 [400, 300]
000000 f8 9f 23 b8 81 5f 1a b7 84 de c7 b6 88 4f 02 b8
       -3.901121e-05 -9.2013515e-06 -5.9565664e-06 -3.1068485e-05
000010 c4 24 25 b8 69 f6 23 37 74 e7 1d b7 d2 ac 5a b7
       -3.9373306e-05 9.772929e-06 -9.411819e-06 -1.303405e-05
000020 c1 b2 4b 38 cc df 30 37 1b fa 0b b9 a8 b4 01 b6
       4.856545e-05 1.0542524e-05 -0.00013349245 -1.9327654e-06
000030 e9 a8 1e 38 02 34 ea 38 3b c7 d2 b7 91 bc 4d 37
       3.7827445e-05 0.00011167677 -2.5126725e-05 1.2262856e-05
000040 7f 65 1d b7 18 d2 5d 34 1b 15 b5 36 1f de d1 37
       -9.381561e-06 2.065866e-07 5.3966774e-06 2.5018175e-05
000050 e8 fe 3d 37 2e 46 1d b6 dc 02 8d b8 1c a7 73 36
       1.1324628e-05 -2.3435673e-06 -6.7239365e-05 3.6307092e-06
000060 d4 a9 54 35 0f b8 c2 37 37 93 e8 35 e4 5b 30 37
       7.9223287e-07 2.3212311e-05 1.7328192e-06 1.0511812e-05
000070 e2 f2 57 37 a0 e4 e6 b6 bf 07 f9 b8 6c 3b 08 39
       1.2871549e-05 -6.8811496e-06 -0.00011874688 0.00012992107
000080 1f 05 a0 37 5e 76 0e 39 14 1a 09 b6 d5 10 79 36
       1.9075871e-05 0.0001358627 -2.042977e-06 3.711369e-06
000090 70 ea 00 b5 f0 c9 35 b7 8b ca 94 36 cc 55 31 b8
       -4.802487e-07 -1.0835458e-05 4.434323e-06 -4.2279993e-05
0000a0 32 11 57 b7 fc bb ab b6 94 18 be b8 5b cf 12 38
       -1.2819002e-05 -5.1180814e-06 -9.064484e-05 3.5002227e-05
0000b0 42 ba 0a 37 3d c0 6f 38 b6 de 3b 37 2a 43 c5 37
       8.2688075e-06 5.7161076e-05 1.11979225e-05 2.3515506e-05
0000c0 a2 7a 83 37 e7 a5 4c b7 7a 9a 19 b8 23 d4 e8 37
       1.5673522e-05 -1.2197975e-05 -3.662191e-05 2.7755339e-05
0000d0 1b fe 0e 39 cf 95 95 36 02 9c 6b 37 60 71 ed b6
       0.00013636837 4.457986e-06 1.4043415e-05 -7.076349e-06
0000e0 eb d6 2e b7 60 21 17 38 66 06 70 35 ff f4 9a b6
       -1.0421248e-05 3.603229e-05 8.941628e-07 -4.618079e-06
0000f0 14 19 0e b7 33 aa d3 37 a6 88 9d 36 04 79 99 37
       -8.4696985e-06 2.5232415e-05 4.6948726e-06 1.8295374e-05
000100 d6 14 d1 b6 18 c1 bc b7 15 98 8a 36 aa 68 86 b7
       -6.231111e-06 -2.2501263e-05 4.130425e-06 -1.6022783e-05
000110 b8 ce e7 38 c8 29 b1 38 95 90 32 b8 ac 59 33 b8
       0.00011053443 8.4478e-05 -4.257316e-05 -4.276044e-05
000120 56 2a 7a 38 f3 a2 12 37 f0 e3 ff 35 5e b2 b9 b7
       5.9644073e-05 8.740218e-06 1.9065319e-06 -2.2136777e-05
000130 0e a2 bd 37 29 12 8b 37 de 3f d1 b7 4c a7 b6 b6
       2.2606018e-05 1.6578548e-05 -2.4944482e-05 -5.4434986e-06
000140 70 83 af 37 67 2f e0 37 e3 15 df b7 1f af e7 b8
       2.0922831e-05 2.6724954e-05 -2.6593863e-05 -0.00011047557
000150 94 55 60 b7 39 89 fe b6 78 7c 56 38 57 56 65 37
       -1.3371366e-05 -7.5857647e-06 5.1137496e-05 1.3669566e-05
000160 5b 74 5e b6 08 c9 8f 35 96 86 85 b8 98 7e a7 b5
       -3.3148306e-06 1.0712838e-06 -6.367003e-05 -1.2479313e-06
000170 56 96 34 b8 6c c5 79 38 26 6e c1 38 be 93 91 38
       -4.3055355e-05 5.955009e-05 9.223474e-05 6.941658e-05
000180 9a b3 a5 b7 5f c3 9e 37 d6 07 ff 37 61 8e 7f 36
       -1.9753166e-05 1.8926045e-05 3.0402018e-05 3.8080836e-06
000190 6a 89 97 b7 ef ee 07 36 a5 ac 24 b6 3a 0d 29 b8
       -1.8064591e-05 2.0255645e-06 -2.4538397e-06 -4.0305058e-05
0001a0 2d 81 b9 36 8b 8a d8 b7 e3 7e 00 37 7e 43 7a 38
       5.5284677e-06 -2.581372e-05 7.658938e-06 5.96675e-05
0001b0 cb 84 c0 b7 1a 5e f2 b7 70 75 28 38 4f 10 90 38
       -2.295002e-05 -2.8892468e-05 4.0163693e-05 6.869493e-05
0001c0 17 a7 20 b8 f2 7f 64 37 41 46 7f 38 6a 42 fa b7
       -3.8302587e-05 1.3619649e-05 6.0862167e-05 -2.9833249e-05
0001d0 c0 97 fa 36 1b cc 9c 36 44 4f d7 b7 56 2c 0d 39
       7.4682466e-06 4.6729233e-06 -2.5666908e-05 0.00013463324
0001e0 70 6b 01 b5 b9 b7 e3 37 1a ea 04 b6 3e 11 1b 36
       -4.8212587e-07 2.7146061e-05 -1.9805798e-06 2.3106836e-06
0001f0 16 0f 03 b8 80 f2 e1 b7 88 99 a6 b7 7c 2f 8e b5
       -3.1246884e-05 -2.6935013e-05 -1.9860236e-05 -1.0593644e-06
000200 63 84 03 39 24 91 95 37 9e d9 2e b8 a8 5f 20 b8
       0.00012542451 1.782977e-05 -4.1687505e-05 -3.823606e-05
000210 04 d0 14 39 dd b9 55 b8 fa 8f e5 b6 f0 ff 55 b8
       0.00014191872 -5.0956256e-05 -6.841493e-06 -5.1021518e-05
000220 47 02 43 36 e5 ee a5 b7 e1 39 97 37 ab d3 5c 37
       2.905859e-06 -1.9780777e-05 1.8027555e-05 1.3162305e-05
000230 f6 4c e8 b8 56 c4 17 b8 c7 90 36 b6 e0 08 81 b6
       -0.00011076957 -3.6184058e-05 -2.7204385e-06 -3.845533e-06
000240 7b 13 cc 38 39 27 f3 38 1b 08 ac b6 42 8e 28 b7
       9.7311065e-05 0.00011594449 -5.126943e-06 -1.0046702e-05
000250 98 a6 bf 36 85 67 22 38 a0 a7 32 38 b2 89 48 37
       5.7116376e-06 3.872022e-05 4.259462e-05 1.1952989e-05
000260 c8 a6 92 b7 3c cf 22 b7 8e 1e ad b7 43 b6 65 36
       -1.748222e-05 -9.704203e-06 -2.0637435e-05 3.422975e-06
000270 6d 9f ab b7 49 a3 99 b7 25 be 23 b6 ea af 86 37
       -2.0459027e-05 -1.8315057e-05 -2.4399571e-06 1.6055961e-05
000280 ef 47 bc b7 ed 7e d1 b7 7a 4c 11 39 5e 5c d7 37
       -2.2444843e-05 -2.4973846e-05 0.00013856767 2.5673009e-05
000290 27 ad e6 37 7f b2 04 b8 8a 22 e3 b6 b0 98 b6 b7
       2.7498767e-05 -3.163749e-05 -6.769148e-06 -2.1767191e-05
0002a0 0c d5 58 38 ec fc 0e 38 41 78 ee b8 aa a8 63 b7
       5.169683e-05 3.409099e-05 -0.000113711234 -1.35695245e-05
0002b0 b4 b1 80 b7 06 30 0b b6 6f b6 0f 39 20 60 d2 b6
       -1.5341539e-05 -2.0740567e-06 0.00013705505 -6.269678e-06
0002c0 71 2f ea b7 16 1f e2 b6 a0 62 0c 34 39 92 53 37
       -2.7917065e-05 -6.7389437e-06 1.3074396e-07 1.2610625e-05
0002d0 9f 91 92 b8 83 52 49 37 4b 7f 8f b7 8b 71 76 b8
       -6.9889466e-05 1.1999745e-05 -1.7106204e-05 -5.8756716e-05
0002e0 4d 64 08 b8 47 e2 86 b6 ed 4c 26 37 0c 54 ad b4
       -3.251834e-05 -4.0198533e-06 9.912282e-06 -3.2284913e-07
0002f0 14 f8 04 b5 18 c8 eb b3 b2 90 b2 38 d7 e7 bf b7
       -4.9534833e-07 -1.0979437e-07 8.514653e-05 -2.2876933e-05
000300 8a 54 a3 36 5b 82 22 37 01 51 ba 36 b2 25 ea 37
       4.86762e-06 9.686303e-06 5.552662e-06 2.7912527e-05
000310 30 c7 bc b4 2f c2 20 b8 ef a5 67 36 bf 9c 2f b7
       -3.5162657e-07 -3.832782e-05 3.4518268e-06 -1.0467308e-05
000320 e3 ce ce 38 57 fd 49 b6 d2 ce 92 37 52 a9 34 b8
       9.861381e-05 -3.0098797e-06 1.7500864e-05 -4.3073036e-05
000330 19 23 a1 36 24 93 82 38 1e 45 8b 37 ce 2d 00 b5
       4.80226e-06 6.22629e-05 1.6602276e-05 -4.775037e-07
000340 35 bc bf b5 cb d4 45 b8 24 2b 03 b8 d6 9c 01 38
       -1.4285384e-06 -4.716664e-05 -3.127301e-05 3.090206e-05
000350 ec be bb b7 20 cb e7 38 51 2b 09 b8 48 84 bf 38
       -2.2381042e-05 0.00011052773 -3.2703687e-05 9.132229e-05
000360 3a 80 3b b8 92 f8 ea 37 9b 28 04 b8 af 62 92 b6
       -4.4703695e-05 2.8010723e-05 -3.150907e-05 -4.3626274e-06
000370 8c 32 c0 b7 6c 43 0d b7 84 f9 08 37 36 b1 f6 b5
       -2.2911721e-05 -8.419953e-06 8.164327e-06 -1.8380003e-06
000380 dc b2 87 b7 0e a3 d0 37 d3 b2 9c 37 51 db 4b 37
       -1.6176542e-05 2.487146e-05 1.867992e-05 1.21508065e-05
000390 4e 9a 10 39 60 6d 63 37 c8 ae 7d b6 d6 c3 ec b7
       0.00013790393 1.355572e-05 -3.7801674e-06 -2.8224586e-05
0003a0 60 fa d5 b7 84 bd 0b 35 3a 02 7a b7 8d f0 07 b7
       -2.5508169e-05 5.2057317e-07 -1.490168e-05 -8.102635e-06
0003b0 1a 43 25 b6 28 69 07 38 c2 6b 30 b7 cc 30 c0 b7
       -2.4625974e-06 3.2284443e-05 -1.0515507e-05 -2.2910906e-05
0003c0 cc 0b 0b b9 73 5c 29 38 36 09 8a b6 b8 d6 56 b8
       -0.00013260468 4.037884e-05 -4.113793e-06 -5.122155e-05
0003d0 a2 52 19 b6 3d 1f fe b8 21 12 d4 b6 3b ab 03 b8
       -2.2846875e-06 -0.000121174824 -6.320203e-06 -3.1392305e-05
0003e0 41 5e 2c b8 0e 61 8d b7 1d 73 bf 37 20 fe 9e 37
       -4.1095776e-05 -1.6853704e-05 2.2822578e-05 1.8953404e-05
0003f0 69 e6 06 b8 af 89 be 38 36 00 b1 b8 2c 3b 04 b9
       -3.2162676e-05 9.0855516e-05 -8.440057e-05 -0.00012610544

layers.4.bias f4 [400]
000000 c7 7b 92 ba d6 42 c9 b7 52 65 c0 3c 94 18 39 3a
       -0.0011175805 -2.399219e-05 0.023485813 0.00070608524
000010 7b 10 3e 3d 5c d7 a4 3a 04 f0 87 3b 0f 86 c6 3c
       0.046402436 0.0012576389 0.004148485 0.024233846
000020 3f fa d7 3c 41 12 b7 bb 94 9f 0c ba dd 76 1d 3b
       0.026364444 -0.005586893 -0.0005364355 0.0024027147
000030 14 e8 03 3b 58 ee 2b bc b7 42 15 bc 2d fb 55 3c
       0.0020127343 -0.010493837 -0.009110144 0.013060373
000040 a7 20 35 38 50 65 a3 35 48 ad c1 3c a2 fc 96 bc
       4.3184173e-05 1.2173932e-06 0.023642197 -0.018431012
000050 05 55 0d ba d2 09 a0 b7 d0 9b 04 39 7f 69 4b 3c
       -0.0005391392 -1.907806e-05 0.00012646546 0.012415289
000060 cb d6 2c 3d b7 21 3e 3d ab 6e 22 bd 91 c9 18 3d
       0.04219703 0.04641887 -0.039656322 0.037301604
000070 04 d6 f6 3c c1 d3 42 3d c4 1e 24 3c fc a6 07 bd
       0.030131347 0.047565226 0.010017101 -0.033118233
000080 5c a5 2d bd dd 8c 37 bb 07 14 df bc 51 42 20 3c
       -0.042394027 -0.0028007545 -0.02723123 0.009781436
000090 c5 ad 00 bc 73 2e 53 3d cd a7 f5 3c f8 39 e2 bb
       -0.00785393 0.05155797 0.02998724 -0.006903883
0000a0 d5 b9 a0 bb 94 6a 00 bc c6 1a 70 3d 07 23 cf bc
       -0.0049049654 -0.00783791 0.058619283 -0.025285257
0000b0 d7 8a 08 39 7c a7 74 3d c8 86 d9 b7 42 72 8f 3b
       0.00013021693 0.059730038 -2.5931178e-05 0.0043776343
0000c0 44 d2 41 3c 48 c2 00 3c 16 2f c6 3c 9b 29 ae 3c
       0.011829916 0.00785882 0.024192374 0.021260073
0000d0 9b 37 bd 3c 46 42 23 bd c9 ac 0a 3d 23 b5 8f bb
       0.023097804 -0.039858125 0.033856187 -0.004385607
0000e0 6a 45 69 3d 98 8a 38 3d d7 13 9b bc 13 6d 05 bd
       0.056950964 0.04505405 -0.018930359 -0.032574724
0000f0 58 34 58 bd 5e c6 ae 38 03 23 ba bc a5 ae ca 39
       -0.052784294 8.333915e-05 -0.022721773 0.00038658563
000100 95 a1 fa 3c c7 8d b4 3c 91 89 86 3d 37 c3 a9 bc
       0.030594626 0.022040261 0.065692075 -0.020722969
000110 f4 8f 3d 3d 0f bb fd 3c fa 61 79 3b d0 83 aa 3a
       0.046279863 0.030972986 0.0038052783 0.0013009254
000120 9f 57 83 3d 1c 5a 24 3c 00 66 f2 3b 6c fb 0c 3d
       0.06413197 0.010031249 0.0073974133 0.034419462
000130 2a 5e 81 bc b1 6e 7e 3a 8e 97 db 3c fe 15 0f 3c
       -0.015791971 0.00097058254 0.026805665 0.008733271
000140 87 8e 2b 38 1a 9b 1c 3d e7 a2 69 b9 82 9f 5f bb
       4.0902316e-05 0.038233854 -0.00022281297 -0.0034122174
000150 0f ac 1d 3a be 0b f6 bc a7 2e 5c 3c d1 24 6a bc
       0.00060147134 -0.030034896 0.013438857 -0.014291004
000160 d7 57 ca 36 ef 94 00 3d 86 6b 1a b8 24 53 1d bd
       6.030295e-06 0.031392034 -3.68166e-05 -0.038409367
000170 02 a3 19 b8 30 63 54 3b 6d 91 e2 39 e8 ba 16 3d
       -3.6629855e-05 0.0032407753 0.0004321443 0.03679934
000180 4d d9 90 3c a2 85 00 3d f7 b1 19 3d 8b be 44 3c
       0.017681742 0.031377442 0.037523236 0.01200832
000190 34 e4 0a 3d 2a a5 bd bc 0b 40 12 3c 0a 1b e5 3c
       0.033909038 -0.023150045 0.008926402 0.027966995
0001a0 87 db 26 bd 56 22 3e 3a d0 07 42 3d 14 3e a4 39
       -0.0407367 0.0007253041 0.04737073 0.0003132677
0001b0 bd be db 3c f7 05 e0 b8 f3 ae 51 bc 61 00 10 3d
       0.02682435 -0.000106822634 -0.012798059 0.03515661
0001c0 1f c3 7b bb f4 b0 0e bd 5e 96 a8 3c c2 2c 7e 38
       -0.0038415862 -0.034836724 0.020579513 6.0600003e-05
0001d0 8c c5 1c 3d e0 6c 50 34 33 ed 56 38 09 7e 83 bc
       0.038274333 1.9411118e-07 5.1242485e-05 -0.01605131
0001e0 e8 6f 42 3b dd 7e 64 bc 1e 2f b4 3c b9 5b 94 bb
       0.0029668752 -0.013946262 0.021995123 -0.0045275358
0001f0 cd 2c 43 bd 72 71 08 3c e6 c8 58 b8 59 9d 1c bd
       -0.047650147 0.008327829 -5.1685514e-05 -0.038235996
000200 ab a0 75 bc d3 bd af 3c f2 13 8c bc ba ba a8 3c
       -0.0149919195 0.02145282 -0.017099354 0.02059685
000210 21 8c bb 3b 26 c5 9c 3c 58 14 b8 3c 05 43 72 3d
       0.005723492 0.019136976 0.022470638 0.059145946
000220 ca bc 0a bc 0f ab 1e 3d 6f ff 5f bc 9a b7 1f 3d
       -0.008467862 0.038737353 -0.01367174 0.038993455
000230 55 0d f2 3c 20 f4 86 3c 4c 35 80 3d 8d 87 40 bd
       0.029547373 0.01647383 0.062601656 -0.04700427
000240 25 2d ed bc 90 a8 ed 3c b7 da b4 3b 8e a7 50 bc
       -0.02895219 0.02901104 0.005519237 -0.012735261
000250 21 d5 44 3b 07 8b 22 3d 33 55 17 3d 2b 1a 7a 3c
       0.0030034261 0.039683368 0.036946487 0.015265028
000260 d5 92 4f 3d da 5b 1e 39 5b 92 2b 3c 3d 79 b5 3c
       0.05067714 0.00015102272 0.010471906 0.022152537
000270 f5 d3 03 3d 1e 6b 38 39 d9 c2 35 3d 6a 16 03 3d
       0.03218456 0.00017587512 0.044375274 0.032003798
000280 70 38 52 bd b0 59 63 3d 60 ef d4 bb a2 80 8f 3c
       -0.051323354 0.055505455 -0.0064982623 0.017517392
000290 2f a3 0c 3d cf 08 8d 38 df 02 41 bd 6f d2 58 3d
       0.03433531 6.725045e-05 -0.04712188 0.05293506
0002a0 34 73 73 39 c8 02 dd 3c b1 26 a3 bc 02 5c cb bc
       0.00023217202 0.026978865 -0.01991591 -0.024824146
0002b0 14 8c 63 3c 2b 3e ee 3b 1b 12 b7 3b 99 4d 0c bd
       0.013888378 0.0072705946 0.005586875 -0.03425369
0002c0 96 a6 1d 3b 94 94 1e 3d 7a 8d 2d 3a 9b f6 9a bb
       0.0024055592 0.038715914 0.0006620508 -0.0047291047
0002d0 6f 54 5b 3c f0 7e 44 3d 7a 03 59 3c d8 3e a9 3c
       0.01338683 0.04797262 0.013245458 0.020659849
0002e0 1b e7 4f bd 47 85 c2 bb a2 81 57 3d ed 01 be bb
       -0.05075751 -0.005936298 0.05261386 -0.0057985694
0002f0 53 4e 47 3d 2f 2e 0e 3d 4f c6 52 3b eb b4 64 38
       0.04865868 0.034712013 0.0032161658 5.452793e-05
000300 82 56 24 3d b3 7f dd bc 49 be c5 3c 0b c0 71 3b
       0.040121563 -0.02703843 0.024138587 0.0036888148
000310 fe 2d 74 bc 16 4d b0 bb 93 98 29 bc b9 73 0c 38
       -0.0149035435 -0.005380283 -0.010351318 3.3486376e-05
000320 3c a4 2c b7 93 ae f2 3c 34 aa 9d bc b3 23 e5 bc
       -1.0290238e-05 0.02962426 -0.019246198 -0.027971124
000330 4b 9f a0 3c 99 60 52 bd e8 38 a0 3c c2 e8 12 3d
       0.019607207 -0.051361654 0.019558385 0.035866506
000340 a1 84 3b 38 42 f7 3f bc 7c 40 1a 3d d9 59 3b bd
       4.4707795e-05 -0.011716666 0.037659153 -0.045739982
000350 5e ce c0 ba b0 e7 f0 3b 8d 7b 0c 38 2e b8 f0 ba
       -0.001470994 0.007351838 3.3493667e-05 -0.0018365437
000360 2b fd 6a 3d f4 ed ce 3c 43 ef 19 bc 16 27 ab bc
       0.057370346 0.02525995 -0.009395423 -0.020892661
000370 74 52 b7 3c f6 df 0b bd 29 ea 07 b9 e4 3a 1b 3c
       0.022378184 -0.034149133 -0.00012961835 0.00947449
000380 1e c5 42 3c 3c d8 65 3c 9d ee eb ba 13 a6 2d bd
       0.011887817 0.014028605 -0.001800019 -0.04239471
000390 f6 17 4d 3d 3b a5 8c 3b d6 52 ac 3c f3 cf 74 38
       0.05007168 0.004292158 0.021035593 5.83678e-05
0003a0 1e a0 77 bb 60 ba 56 3d 6d 15 5f 39 0f 75 05 bc
       -0.0037784646 0.052423835 0.00021274919 -0.008145585
0003b0 b3 ce 5f 3c fd 77 d8 bb 23 4f 83 3b 21 00 42 bd
       0.013660121 -0.0066061006 0.0040072366 -0.047363404
0003c0 7b 99 26 3d 48 b7 9c 3c 7f cf 81 3d 6b de 0f 3c
       0.040673714 0.019130364 0.06338405 0.008781056
0003d0 7b 59 cb 3b 02 f1 c9 3b 07 fe 4b 3d 31 7c 71 3b
       0.0062057353 0.0061627636 0.049802806 0.0036847705
0003e0 09 4e db 37 63 35 27 bc ed d0 95 bb ca fd 9d 3c
       2.6143172e-05 -0.0102055995 -0.004572025 0.019286055
0003f0 4b 61 bb 3c 23 a1 10 bd d8 f6 9c 3b 1e 9e 04 bc
       0.022873541 -0.035309922 0.0047901683 -0.008094339

layers.6.weight f4 [1, 400]
000000 3e 25 e7 39 22 57 2f 39 50 8f 07 3d 87 c0 9f bb
       0.000440875 0.0001672176 0.033095658 -0.004875246
000010 a7 a4 1b 3d 5d af f4 3c c0 40 04 3d 37 22 c7 3c
       0.03799882 0.029868776 0.032288313 0.024308307
000020 ad 0d a5 bc 1f 34 c7 3c fb 50 8b 37 35 e5 e2 3c
       -0.020148123 0.024316845 1.66078e-05 0.027697185
000030 8c 27 de 3c e5 35 f1 b9 95 33 6e 3d 29 ad 5c 3d
       0.027118467 -0.00046007257 0.05815466 0.053876076
000040 6c e7 16 b9 37 11 ae 37 37 9c 92 3c e9 16 90 bc
       -0.00014391326 2.0750433e-05 0.017896755 -0.01758905
000050 7e be 83 b7 4f ef a6 b8 bc 45 bf b9 b2 0d df bc
       -1.5705122e-05 -7.9600715e-05 -0.00036482315 -0.02722821
000060 24 09 08 bd b5 90 0e 3d 7d 00 da bb 46 03 26 3d
       -0.033211842 0.034805972 -0.0066528902 0.040530466
000070 c3 c6 fa ba 0e 18 2a 3c 94 bf 98 bd 17 24 d8 bc
       -0.0019132722 0.010381712 -0.07458416 -0.026384396
000080 6b 92 0d 3c 8c 66 b5 39 87 a8 ce bc 46 e1 35 bd
       0.008640866 0.00034599414 -0.025226844 -0.04440429
000090 1a 00 c3 3c 58 3b 37 3c c9 fa f6 3c 1e de 42 3d
       0.02380376 0.011183582 0.03014888 0.04757511
0000a0 a5 4d 32 3d 4f ab 09 b9 42 09 f0 3c a3 06 e5 bc
       0.04353108 -0.00013129156 0.02930129 -0.027957266
0000b0 3e 98 ea b9 fa e2 e2 3c 40 94 62 38 62 de f6 3c
       -0.00044745387 0.027696121 5.4020667e-05 0.030135337
0000c0 c5 d5 0a bc 94 88 5d bd 92 2e ac bc 0c 93 83 3c
       -0.008473818 -0.05408533 -0.0210183 0.016061328
0000d0 ea 60 1a bd 27 be 08 bd ea ac bd 3b cc c1 cf bb
       -0.03769008 -0.03338447 0.005788435 -0.006340241
0000e0 54 ca 5e 3c 8c 7b 2a bc e8 c5 da 3c b5 f0 98 bc
       0.0135980435 -0.010405432 0.026705697 -0.018669466
0000f0 d8 7f 8d bc 46 3f fc b7 b9 c7 3e 3b c2 12 68 b8
       -0.017272875 -3.0070205e-05 0.0029110743 -5.533058e-05
000100 b0 e9 39 3d 5c e8 82 bc 7d 16 52 3d e7 8f 13 3c
       0.045388877 -0.015979938 0.051290978 0.009006477
000110 77 f3 ee 3c cd 25 45 bb 7f a3 3f 3d ff 84 f7 3b
       0.029168827 -0.0030082345 0.04678678 0.007553696
000120 34 d0 d9 3c 64 01 3e 3c 8f e3 1f bd bd 6c 67 bb
       0.026588537 0.011597011 -0.039035376 -0.0035312616
000130 a5 f7 bd 3c 82 a6 ff ba 95 3e 10 3d 29 2d 23 3d
       0.023189375 -0.0019504579 0.035215933 0.03983799
000140 a8 e0 0f b8 cd 7b 06 3d ea ef e5 ba 76 e0 d8 3c
       -3.4303084e-05 0.03283291 -0.0017542813 0.026474219
000150 0a 4f ec 3a 1b 66 b6 bc 58 34 65 bc ca 10 16 bd
       0.0018028927 -0.022265485 -0.0139895305 -0.036637105
000160 84 9f d3 36 b5 8a 75 3c a5 70 6e b7 59 22 41 3b
       6.30686e-06 0.014986684 -1.4212133e-05 0.0029469936
000170 e4 aa 2e 37 e7 d6 13 3d 73 3b 57 3b e8 1e d4 3c
       1.0410997e-05 0.03609362 0.003284183 0.025893643
000180 7b 77 02 3d 67 d3 b4 bc 8b a1 39 3d c3 f3 fd bc
       0.031852227 -0.02207346 0.045320075 -0.031000024
000190 ba af 0a bd 19 55 ef 3b 69 3c 67 bd 32 a0 cf bc
       -0.033858992 0.0073038456 -0.056454096 -0.025344942
0001a0 22 eb ff bb 34 06 91 3c d5 fe 58 3c 2f af 04 bb
       -0.0078100124 0.017703153 0.01324435 -0.002024602
0001b0 64 e4 15 3d 1b 3b e6 b7 50 1d 17 bd aa 73 39 3d
       0.036594763 -2.744566e-05 -0.03689319 0.04527632
0001c0 eb 8f a0 bb c8 cf 7a bc 34 62 f2 bc f0 18 63 b9
       -0.004899969 -0.015308328 -0.029587843 -0.00021657697
0001d0 de b2 e7 3c 43 33 63 b9 a9 52 85 38 2d b5 50 bc
       0.028283533 -0.00021667503 6.357331e-05 -0.012738508
0001e0 a0 e9 2d 3d c3 53 24 bc c6 35 0c 3b ea b7 13 3a
       0.04245913 -0.010029736 0.0021394356 0.00056350103
0001f0 41 04 d9 3b 13 27 96 bc 1e eb 3d 38 03 da 2d 3d
       0.0066228216 -0.018329179 4.528008e-05 0.04244424
000200 79 ea c6 b8 4b 09 01 bd 0e 02 17 bd 9a 71 26 3a
       -9.48505e-05 -0.031503003 -0.036867194 0.00063493254
000210 8e dd 17 bd 54 77 ec 3a 86 5c 95 bc da f5 5b 3d
       -0.037076525 0.0018040934 -0.018232595 0.05370126
000220 52 ae 71 bb 9c cd 4b 3d f9 24 08 bd 0c 6b 23 3c
       -0.0036877585 0.04975663 -0.033238385 0.009974252
000230 16 06 87 bb 40 66 e5 3c 16 7e 20 3d aa df 4b 3d
       -0.0041205985 0.028002858 0.039182745 0.04977385
000240 b7 06 48 3d 45 15 60 3d 3c 7b c0 bc 9b 21 e8 3c
       0.04883453 0.054707784 -0.023496263 0.028336337
000250 bf 59 62 bc ad 56 93 3b ed 0b 98 3c c5 8a 9b bd
       -0.013815342 0.0044964165 0.018560374 -0.075948276
000260 e4 16 4b 3d 57 6e d7 39 80 64 4d bb 32 d0 ec bc
       0.049582377 0.00041090205 -0.003134042 -0.028907869
000270 87 c4 b0 bd ba 00 21 ba 39 a0 a2 3c 43 03 d0 bc
       -0.086312346 -0.0006141771 0.01985179 -0.02539218
000280 96 d0 8a bb 1a cd 4a 3d 06 93 de 3b a8 97 0e 3b
       -0.004236291 0.049512006 0.006792429 0.0021757875
000290 86 76 8c 3b 46 c7 86 ba bb 39 b7 ba eb 8a fa 3c
       0.00428659 -0.0010282777 -0.0013978997 0.03058382
0002a0 3a 69 d9 3a 3f 10 44 3c 68 e1 b3 bb 13 9a 50 bc
       0.0016587146 0.011966764 -0.005489517 -0.012732047
0002b0 de 69 8a bc ad 98 00 bd 3f 67 23 bd 08 df 1b bc
       -0.016896185 -0.031395603 -0.039893385 -0.009513624
0002c0 5c 24 da 3c a0 0d 57 3d 32 66 23 39 ab e3 14 bc
       0.026628666 0.05250323 0.00015582962 -0.009087483
0002d0 a3 9d 90 3c 0e db a6 3c 27 ee 08 3d 12 30 1e 3d
       0.017653292 0.020368125 0.033430245 0.038620062
0002e0 36 ca 9f bc f4 47 b3 bb 1c 8e e1 3b aa 3a e3 bc
       -0.019505601 -0.005471224 0.006883396 -0.027737934
0002f0 9c df fb 3c 54 f6 09 3d 8a b9 29 3d b8 81 9b 38
       0.030746274 0.033682182 0.04143671 7.415138e-05
000300 fb 52 eb bc 81 40 52 3d 93 22 c5 3b 10 1f 39 3d
       -0.028726092 0.051331047 0.0060160845 0.04519564
000310 dd e5 8e b7 af d0 8e 3c b1 9c c8 b9 02 b4 26 b9
       -1.7034758e-05 0.017433492 -0.00038263717 -0.00015898052
000320 d6 5a 6d 37 7d 8c 75 bc fb 0a 81 bc 31 c2 60 3b
       1.414745e-05 -0.014987108 -0.015752306 0.0034295435
000330 ce 48 4a 3d 63 6f ea 3c 5e e5 3b 3d fb 6f e2 bb
       0.04938584 0.028617566 0.04587304 -0.006910322
000340 3a b1 5f 37 5c 3e 46 bc 43 ed 09 bc 87 dc 79 3c
       1.33331e-05 -0.012099829 -0.008418384 0.015250332
000350 4e a8 0a bc 91 5e 73 bd 4b 08 5a b8 9b b2 9e bc
       -0.0084629785 -0.059416357 -5.1982974e-05 -0.019372275
000360 87 78 31 3d 1a 36 94 3c 9b d8 a9 3a a1 3e 02 bb
       0.043327834 0.018092204 0.001295823 -0.0019873756
000370 ad 4f 1b 3c 5f 2c d8 bc 62 e4 93 36 5a de 75 bc
       0.009479445 -0.026388345 4.4075286e-06 -0.015006626
000380 7b 77 a1 bc 04 0d c7 bc a2 b5 45 bc 83 2a 33 3d
       -0.019710293 -0.024298199 -0.01206723 0.043741714
000390 3a 6e 39 3d 02 8d 2e 3d a0 f1 9d 3c 1c 56 1c 37
       0.045271136 0.042614944 0.019280255 9.3183735e-06
0003a0 d6 8b 83 ba 0a 55 82 3c 21 fb 02 3b 46 30 a7 37
       -0.0010036181 0.01590969 0.001998611 1.993043e-05
0003b0 29 ea 3c 3c f9 32 3b 3d 73 8b 19 bc 85 f9 47 3c
       0.0115304375 0.04570291 -0.009371626 0.012205486
0003c0 b9 76 aa 3c 17 39 d8 bc ab 41 21 3d e9 d1 35 3b
       0.020808564 -0.02639441 0.039369266 0.0027743524
0003d0 87 68 8f bd 64 ab 58 bd b1 80 44 3d 63 20 23 3d
       -0.07002359 -0.052897826 0.047974292 0.03982581
0003e0 3c 77 ae b7 92 12 54 bc fd 15 0f 3c 3f 99 14 bd
       -2.079794e-05 -0.012943881 0.00873327 -0.03627896
0003f0 28 5d 8d 3c 4b 80 51 bc 84 4c b8 3c b1 b0 8d 3b
       0.017256334 -0.012786935 0.022497423 0.004324042
