data/model_Rose .pt (torch_old, 249035 bytes, 7 tensors)

layers.0.weight f4 [100, 12]
-0.0026241392 0.01877095 -0.073162995 -0.09815507 0.028594863 3.2168682e-06 -6.8682334e-07 -4.4052074e-05
-6.126807e-07 -0.11556496 0.019399073 -2.6497082e-06 -0.1410594 -0.006989725 0.07604905 0.091039605
0.14569272 0.04903051 0.082063004 0.057957415 0.124465644 0.01528099 -0.05838293 -0.062276307
0.050076842 0.19310704 0.048403483 -0.18700816 0.09328537 0.20075084 -0.004583269 -0.10426332
0.10286086 -0.007520104 0.17028473 -0.084384106 0.009451177 0.0019167195 0.098317824 -0.01103908
-0.007830721 -0.008032642 -0.0030545974 -0.08463617 0.001929393 0.0004946467 -0.09198531 0.019577393
-1.1761788e-06 0.106967725 -0.06226501 -0.1127613 -0.015880749 0.08141409 -0.029210242 9.553329e-07
-0.07752897 3.1778862e-07 0.001284997 2.3723402e-07 0.06505963 0.13317844 0.1269086 0.14085847
-0.11529249 -0.08071089 0.17252773 0.07735653 -0.09642237 0.027344676 -0.02285226 0.011221846
-0.07746537 -0.091185056 -0.0047659827 0.053483184 -0.0488762 -0.08174275 6.467922e-05 0.15126407
-0.008134091 -0.0777915 0.04251962 0.079043046 -0.079431154 0.17886998 -0.0019745962 0.09721435
0.052290488 0.017063096 -0.014827893 -0.03970573 0.14578147 0.12719321 0.1575147 -0.033390965
-0.029750625 -0.07167976 0.009933772 0.0061075334 -3.6121555e-06 -0.042354483 -0.02048844 -0.0026806653
1.7589317e-08 -0.00041218018 3.6896253e-07 -5.900374e-06 0.009241643 0.007826695 -0.046754494 0.00042157012
-0.08156763 9.286245e-07 -1.8956124e-06 -0.091969654 5.0224753e-06 -1.421495e-07 -0.10004294 -0.00045467255
0.09270416 0.06589636 -0.08179812 0.0039232257 -0.048220314 0.005375416 -0.003518602 0.0030637728
-0.05385435 0.09172169 0.07579704 0.118902914 0.09944965 0.058385175 0.022366768 -0.14213069
0.043159034 -0.09760784 0.06538556 -0.1496106 0.07737353 0.13763803 0.14077725 0.015831914
0.026869476 0.003933206 -0.061581947 -0.1129458 -0.041573714 -4.444648e-05 -9.679102e-07 -3.0169105e-07
-9.0820475e-07 2.0697908e-05 -4.2264307e-07 0.03698764 -0.11623338 -0.06548079 -9.089457e-07 1.8695886e-06
0.0011658737 -0.000971521 -0.061020117 -1.6990927e-05 -2.7239732e-06 0.013790232 -0.00018047105 0.043058716
0.000100450095 0.0052972124 -0.101558544 -0.034609735 -0.045934938 0.0035889512 2.551671e-05 0.07200861
-0.06879245 0.06754403 9.1068345e-05 -0.002808162 -0.0020937012 0.0002160946 4.6749567e-05 0.06889878
-0.04787189 0.088068135 -0.032330032 0.09865331 -0.110017575 -0.0003882095 -0.07868723 -7.998182e-06
-0.037022267 0.12848622 0.121917866 0.004002738 -0.001208568 0.05951787 -0.055633612 -0.05206329
0.05207426 0.0069547947 0.06013066 -0.0650027 0.07407665 0.0068571856 0.01977085 1.3569577e-06
0.1123015 -0.06560765 0.100008234 -0.03325775 -0.013752827 -0.11237443 -0.07015722 0.0019666718
-0.07970714 -0.15244772 0.09050535 0.017793527 0.12600166 0.14069395 -0.15592727 -0.0053257025
0.10049632 0.062113848 -0.041718464 -0.10783733 0.021122372 0.09465808 0.1020767 -0.1273491
0.17096104 -0.070731565 -0.011632753 -0.18869817 0.18258299 0.012082843 0.025811251 -0.062452
-0.038337633 -0.07289276 -0.008150478 0.05568183 -0.034491617 -0.007727798 -0.10955435 0.10375585
0.1400978 0.014452534 0.017119935 0.12696987 -0.08406876 0.095501766 -0.10443126 -0.0012160168
00000000: c0f9 2bbb 89c5 993c 7bd6 95bd 8605 c9bd
00000010: c63f ea3c 60e1 5736 245e 38b5 8ec4 38b8
00000020: 1977 24b5 52ad ecbd ceea 9e3c a4d1 31b6
00000030: e071 10be 100a e5bb 9bbf 9b3d f972 ba3d
00000040: 7930 153e 37d4 483d a610 a83d c164 6d3d
00000050: d8e7 fe3d 1e5d 7a3c f022 6fbd 7115 7fbd
00000060: 601d 4d3d dabd 453e bb42 463d 117f 3fbe
00000070: 660c bf3d a191 4d3e 3f2f 96bb 0288 d5bd
00000080: b7a8 d23d 346b f6bb 1f5f 2e3e 93d1 acbd
00000090: 1cd9 1a3c 6f3a fb3a db5a c93d 42dd 34bc
000000a0: 6d4c 00bc 589b 03bc a42f 48bb ba55 adbd
000000b0: b0e3 fc3a 2eab 013a cb62 bcbd c560 a03c
000000c0: 32dd 9db5 e511 db3d 9809 7fbd 65ef e6bd
000000d0: 5818 82bc 6ebc a63d 514a efbc fd38 8035
000000e0: 82c7 9ebd 899c aa34 586d a83a 64ba 7e34
000000f0: fc3d 853d ee5f 083e 54f4 013e 343d 103e
00000100: 781e ecbd c04b a5bd 1cab 303e 1a6d 9e3d
00000110: 1779 c5bd f101 e03c aa34 bbbc d5db 373c
00000120: 2aa6 9ebd 3bbf babd f62b 9cbb 2f11 5b3d
00000130: 6932 48bd be68 a7bd 64a4 8738 f8e4 1a3e
00000140: da44 05bc 2651 9fbd 0e29 2e3d 52e1 a13d
00000150: cdac a2bd b129 373e 3a68 01bb 5118 c73d
00000160: 8d2e 563d e8c7 8b3c b1f0 72bc 7aa2 22bd
00000170: bd47 153e f03e 023e 894b 213e f7c4 08bd
00000180: 95b7 f3bc d7cc 92bd 42c1 223c b421 c83b
00000190: 5c68 72b6 e57b 2dbd 5fd7 a7bc 1aae 2fbb
000001a0: 5117 9732 e319 d8b9 d315 c634 d4fb c5b6
000001b0: 436a 173c 8a3b 003c a481 3fbd 2f06 dd39
000001c0: ee0c a7bd 9746 7935 bf6c feb5 965a bcbd
000001d0: bc86 a836 c2a1 18b4 50e3 ccbd 1e61 eeb9
000001e0: aedb bd3d acf4 863d c685 a7bd 678e 803b
000001f0: aa82 45bd 4224 b03b 5998 66bb 94c9 483b
00000200: 6196 5cbd 95d8 bb3d 7a3b 9b3d 5f83 f33d
00000210: 42ac cb3d 4b25 6f3d 833a b73c b58a 11be
00000220: 87c7 303d 9fe6 c7bd dde8 853d 8533 19be
00000230: 0376 9e3d fcf0 0c3e e927 103e eeb1 813c
00000240: 601d dc3c 20e2 803b 5a3d 7cbd 2150 e7bd
00000250: 3349 2abd 0b6c 3ab8 24e9 81b5 1af8 a1b4
00000260: 5bcb 73b5 6ba0 ad37 9fe7 e2b4 5a80 173d
00000270: c40b eebd cb1a 86bd 46fe 73b5 93ee fa35
00000280: 3bd0 983a acad 7eba 3bf0 79bd bd87 8eb7
00000290: 81cd 36b6 6df0 613c d43c 3db9 565e 303d
000002a0: bca8 d238 3d94 ad3b edfd cfbd f0c2 0dbd
000002b0: 4626 3cbd 9c34 6b3b b80c d637 4079 933d
000002c0: 0ee3 8cbd 8654 8a3d f2fb be38 2409 38bb
000002d0: 7a36 09bb 7497 6239 f714 4438 ce1a 8d3d
000002e0: 5115 44bd 115d b43d 7f6c 04bd bf0a ca3d
000002f0: e550 e1bd 9988 cbb9 c526 a1bd ee2f 06b7
00000300: a9a4 17bd e491 033e 13b0 f93d 6629 833b
00000310: d068 9eba 03c9 733d 12e0 63bd 5140 55bd
00000320: d24b 553d 0ce5 e33b 914b 763d 2320 85bd
00000330: 80b5 973d 3eb2 e03b 7af6 a13c b620 b635
00000340: 54fe e53d 4e5d 86bd 1ed1 cc3d 4739 08bd
00000350: 8a53 61bc 9124 e6bd 97ae 8fbd 47e3 003b
00000360: 7f3d a3bd 411b 1cbe de5a b93d bbc3 913c
00000370: 9406 013e 1312 103e 66ab 1fbe 3b83 aebb
00000380: 04d1 cd3d 176b 7e3d fbe0 2abd d1d9 dcbd
00000390: d308 ad3c 18dc c13d 970d d13d cd67 02be
000003a0: 6910 2f3e b6db 90bd 4d97 3ebc 183a 41be
000003b0: 09f7 3a3e 1ef7 453c 1e72 d33c abcd 7fbd
000003c0: ec07 1dbd cd48 95bd 9589 05bc a112 643d
000003d0: 1547 0dbd 7839 fdbb 085e e0bd f27d d43d
000003e0: cc75 0f3e 52ca 6c3c 1b3f 8c3c 6404 023e
000003f0: 3e2c acbd 6e96 c33d 0ee0 d5bd c162 9fba

layers.0.bias f4 [100]
0.0006007712 -0.056697074 -0.022730337 0.04595895 -0.051626686 0.16783217 0.11247156 0.089276694
-1.6348214e-07 0.04052615 -0.07675029 0.15480708 -0.08462491 -0.10737662 0.0047996496 -0.02376803
0.09140016 -0.11451543 0.09842556 0.23404367 0.12387341 -0.10861711 -0.0006947965 -0.00013130554
-0.06320216 0.016351016 0.00013257089 -9.677316e-05 0.084284894 -0.058718484 -0.10249182 0.050010666
-0.07784241 -0.013287593 -0.06586706 0.088440254 0.16837268 0.088576846 -0.059837375 0.096901774
0.08556202 -0.01872427 -5.010226e-07 0.0876461 0.006413651 -0.0008385031 -0.080970116 -0.03121427
-0.026179012 0.012863349 0.0004712733 0.0033049018 -0.015516479 0.041708324 0.1535165 0.019799618
0.19558394 -0.07909919 0.1364428 -0.07508683 0.088439405 -2.4044473e-06 0.033239145 -0.00715157
-1.0137318e-05 0.0054762024 0.14122039 -0.043668773 -0.0049027815 -0.0010245773 -0.05433585 -0.106567934
2.791388e-06 -3.781035e-07 -0.020303639 -0.0012359405 0.0073276255 0.17639033 -0.10845409 -0.05143546
0.03822048 -0.10968462 -0.0078025125 0.16538388 -0.16690567 0.034343205 -0.026712604 0.06454591
1.15937006e-07 -0.0983551 0.24012873 -7.413932e-08 -0.096328944 0.0067899874 0.012638131 -0.035869658
0.065431654 -0.10227815 0.018919557 -2.5564027e-06
00000000: 137d 1d3a 313b 68bd f934 babc 743f 3c3d
00000010: 8176 53bd 32dc 2b3e 7d57 e63d b3d6 b63d
00000020: a189 2fb4 c0fe 253d 422f 9dbd bf85 1e3e
00000030: d34f adbd 46e8 dbbd 6146 9d3b 2cb5 c2bc
00000040: 0230 bb3d 1187 eabd 5793 c93d 25a9 6f3e
00000050: 58b1 fd3d a672 debd 0123 36ba 10af 09b9
00000060: 2270 81bd 91f2 853c ba02 0b39 b2f2 cab8
00000070: 8f9d ac3d cb82 70bd 3be7 d1bd fcd7 4c3d
00000080: d76b 9fbd 34b4 59bc 4fe5 86bd 2a20 b53d
00000090: e369 2c3e c767 b53d 0918 75bd 7074 c63d
000000a0: 243b af3d a463 99bc 037e 06b5 cc7f b33d
000000b0: 9b29 d23b fece 5bba a9d3 a5bd 12b5 ffbc
000000c0: 5e75 d6bc ccc0 523c 3b15 f739 0d97 583b
000000d0: d438 7ebc 59d6 2a3d 6e33 1d3e cf32 a23c
000000e0: 2847 483e c2fe a1bd a9b7 0b3e 20c7 99bd
000000f0: b81f b53d 175c 21b6 c525 083d b857 eabb
00000100: 7313 2ab7 b771 b33b 149c 103e 07de 32bd
00000110: 83a7 a0bb 1c4b 86ba 458f 5ebd 4a40 dabd
00000120: ae53 3b36 26fe cab4 d153 a6bc 48ff a1ba
00000130: 941c f03b ab9f 343e 2e1d debd fdad 52bd
00000140: 148d 1c3d 54a2 e0bd 38ac ffbb 645a 293e
00000150: 52e9 2abe 76ab 0c3d 64d4 dabc a530 843d
00000160: 0bf9 f833 666e c9bd 4ee4 753e 8636 9fb3
00000170: 1c48 c5bd 8b7e de3b 2a10 4f3c 10ec 12bd
00000180: 0801 863d 3577 d1bd 30fd 9a3c aa8e 2bb6

layers.2.weight f4 [200, 100]
1.4462687e-07 0.013442398 0.023223078 0.0016964078 -0.00029378076 -0.00031136503 -0.0052263727 -0.003741292
1.3403463e-06 -1.2753801e-06 0.013797179 0.059103694 3.133378e-06 -3.637919e-07 0.0015736198 0.00072826556
0.02208167 -2.5966401e-06 -0.011566681 0.017563248 -0.0043838853 1.0437425e-07 -0.00023689767 -2.4285396e-06
-5.870056e-06 -0.016516693 2.7157466e-07 -7.000885e-05 0.028200869 -0.024306051 3.5404005e-06 0.027670488
2.7405945e-06 7.154773e-07 0.016787626 0.00027413698 -0.029550204 0.0028657978 1.6308753e-05 0.0001446504
-0.006134845 0.0017381648 5.588411e-06 -0.0053858715 0.008812781 -8.805565e-05 -7.657683e-08 -9.69287e-06
-3.5565714e-07 -1.4306269e-07 1.1259589e-06 0.0031258052 -4.204467e-05 0.019479793 0.03135446 -0.022278773
0.04137072 -0.00072549144 -0.033390738 4.1516165e-07 0.0600788 3.9798624e-06 0.034218136 -0.00010622625
-0.00013623595 0.00010561285 0.0040171896 2.7320605e-06 0.02768594 -0.025210949 -0.00015359896 -0.0026621628
5.6105478e-06 2.5804316e-06 -0.001877771 0.0009965992 0.00023230989 0.044275127 -0.02491923 0.001639026
0.02141357 0.0011482666 0.0005114596 0.048845634 -0.00830131 -0.00020823194 -0.00050706125 -0.026656913
3.0719252e-06 0.00027213816 0.027706595 -5.507665e-06 -2.575185e-05 -0.0016885916 0.004190768 -0.00022428481
0.048777696 -0.03364417 2.5180047e-06 2.6907437e-06 6.3417683e-06 0.0034625996 -0.007223398 -1.4666606e-06
0.000111581416 -0.026879452 -3.010954e-07 -0.02942271 -2.3121851e-07 -2.79066e-07 -0.0007539819 -0.010064667
-6.723092e-08 -2.0668573e-05 0.00040718055 6.583238e-07 0.0032925727 -1.4018225e-06 1.1760251e-05 -0.0071502896
-0.0099316025 6.85547e-06 1.8072602e-06 -2.3339162e-05 -0.00074218336 0.021423187 -1.1587824e-06 1.9050077e-06
0.01086139 -0.007814256 6.4574255e-07 -0.000886188 1.0791662e-06 -2.013007e-06 3.3018566e-06 7.3468115e-08
0.0010536652 0.025922267 -7.371527e-08 -0.00029540053 1.3706227e-06 -0.00048262748 -5.996128e-07 0.0055280095
-6.0349103e-06 -4.963087e-07 -1.5315752e-07 -1.3540712e-07 -0.0013925993 -3.7504098e-08 8.421901e-06 -0.003084242
-1.2807152e-06 4.688864e-06 -0.0005070168 -0.0007958355 0.0072707813 -5.6339974e-08 0.015244434 -9.280358e-06
-0.008057414 -6.2166885e-07 -0.000301082 -1.4940992e-05 -5.1683146e-05 -2.0177138e-05 1.444612e-06 3.439884e-06
0.023539862 -1.0017416e-05 -2.2732518e-05 0.006082764 0.0011633561 0.00081469433 0.0010747979 -1.7996273e-07
1.2099174e-06 0.001615858 0.0031517986 2.4259933e-05 -0.0006326119 2.23364e-06 -2.90366e-05 -0.00011007952
0.0055379113 -0.00080094737 -8.620001e-08 -0.0059160977 -1.914407e-05 -7.1558736e-07 -0.013133135 -9.515843e-06
1.9129204e-06 6.4764e-07 3.5117304e-07 1.7483502e-05 -0.00069914875 -0.00018677549 -2.6655027e-06 -4.044376e-07
-0.00083251105 -0.00075256435 -1.5660904e-06 4.867152e-06 -0.0006197594 -5.4381002e-05 3.8439362e-07 1.676901e-05
-4.339635e-06 -1.1517462e-06 5.8781134e-06 -0.00042755392 0.000291763 -2.7426806e-05 0.0007474427 -2.0617092e-06
4.494115e-05 2.7102287e-06 1.0719621e-06 -4.9830405e-06 -5.4887823e-07 -2.4490993e-07 -9.5115234e-07 -0.00057537435
1.0189979e-06 1.4466707e-07 1.40257125e-05 -8.449869e-06 -0.0012072945 6.2129024e-05 1.8520991e-07 0.0008507938
1.2918076e-07 -7.361012e-07 -5.986186e-05 -3.3209972e-06 2.390442e-05 -2.0063204e-07 2.1155289e-05 -1.6163261e-06
-1.6261321e-05 -0.00024067386 2.774007e-06 -6.1547433e-07 0.00087535765 5.1598745e-06 9.761577e-07 -2.3230985e-05
-2.7406852e-06 -2.742249e-06 1.7569113e-07 -2.677462e-06 -1.777734e-06 -1.6399202e-06 6.755951e-07 -2.8967534e-05
00000000: bb4a 1b34 813d 5c3c 533e be3c 005a de3a
00000010: 9606 9ab9 b53e a3b9 fe41 abbb 7730 75bb
00000020: f3e5 b335 ba2d abb5 900d 623c b716 723d
00000030: 0647 5236 2e4f c3b4 eb41 ce3a 13e9 3e3a
00000040: 9ee4 b43c f041 2eb6 2d82 3dbc cde0 8f3c
00000050: b2a6 8fbb 5a24 e033 bc67 78b9 fef9 22b6
00000060: 66f7 c4b6 044e 87bc f0cc 9134 b7d1 92b8
00000070: 8205 e73c 7c1d c7bc 9e97 6d36 38ad e23c
00000080: 0eeb 3736 3a0f 4035 3486 893c 0bba 8f39
00000090: 4513 f2bc 1cd0 3b3b c8ce 8837 4cad 1739
000000a0: cf06 c9bb 22d3 e33a 1684 bb36 f77b b0bb
000000b0: 7c63 103c 84aa b8b8 8f72 a4b3 8f9e 22b7
000000c0: 25f1 beb4 c69c 19b4 a71f 9735 4fda 4c3b
000000d0: 1f59 30b8 1694 9f3c 896d 003d f981 b6bc
000000e0: 5874 293d e82e 3eba bac4 08bd 62e3 de34
000000f0: 3015 763d c28a 8536 5128 0c3d c9c5 deb8
00000100: 8fda 0eb9 787c dd38 a1a2 833b 7158 3736
00000110: a0cd e23c 3187 cebc 680f 21b9 ae77 2ebb
00000120: 3d42 bc36 7a2b 2d36 8a1f f6ba 52a0 823a
00000130: 3698 7339 d659 353d 6a23 ccbc 96d4 d63a
00000140: 836b af3c 6f81 963a 7913 063a 5c12 483d
00000150: 3802 08bc d658 5ab9 4eec 04ba 995f dabc
00000160: 4627 4e36 c4ad 8e39 f1f8 e23c 7bce b8b6
00000170: ad05 d8b7 bb53 ddba b652 893b ff2d 6bb9
00000180: 1fcb 473d 78ce 09bd fefa 2836 a092 3436
00000190: 60cb d436 c8ec 623b 41b2 ecbb 13da c4b5
000001a0: d100 ea38 4c32 dcbc 3da6 a1b4 e507 f1bc
000001b0: dc44 78b4 8ad2 95b4 dea6 45ba 46e6 24bc
000001c0: 9760 90b3 6c61 adb7 d97a d539 abb7 3035
000001d0: 34c8 573b 4126 bcb5 e54d 4537 fa4c eabb
000001e0: 29b8 22bc 0a08 e636 fd90 f235 78c8 c3b7
000001f0: 158f 42ba ae7f af3c 7687 9bb5 91af ff35
00000200: f9f3 313c 5d07 00bc 1757 2d35 124f 68ba
00000210: ded7 9035 3217 07b6 7795 5d36 86c5 9d33
00000220: 231b 8a3a ef5a d43c 664d 9eb3 fddf 9ab9
00000230: 3df6 b735 2a09 fdb9 14f5 20b5 4e24 b53b
00000240: 7c7f cab6 133a 05b5 9e73 24b4 6d64 11b4
00000250: e187 b6ba 3114 21b3 ca4b 0d37 ff20 4abb
00000260: 0ae5 abb5 0955 9d36 52e9 04ba 9e9f 50ba
00000270: bc3f ee3b 75fa 71b3 cac3 793c d6b2 1bb7
00000280: 3e03 04bc c2e0 26b5 8bda 9db9 12ab 7ab7
00000290: 5bc6 58b8 1342 a9b7 7ee4 c135 c2d8 6636
000002a0: abd6 c03c 7910 28b7 b6b1 beb7 ec51 c73b
000002b0: c17b 983a 3691 553a 3ce0 8c3a c73b 41b4
000002c0: 7264 a235 33cb d33a 688e 4e3b cf81 cb37
000002d0: ded5 25ba a5e5 1536 a093 f3b7 7eda e6b8
000002e0: 5e77 b53b abf6 51ba f51c b9b3 d3db c1bb
000002f0: 9497 a0b7 ca16 40b5 5c2c 57bc 3ca6 1fb7
00000300: b95f 0036 7bd9 2d35 db88 bc34 89a9 9237
00000310: 1447 37ba 2ad9 43b9 fde0 32b6 7b21 d9b4
00000320: df3c 5aba bd47 45ba 7532 d2b5 8450 a336
00000330: 5977 22ba 2817 64b8 a85e ce34 2dab 8c37
00000340: 2e9d 91b6 b395 9ab5 9c3c c536 5129 e0b9
00000350: c4f7 9839 9e12 e6b7 08f0 433a e55b 0ab6
00000360: 317f 3c38 60e1 3536 56e0 8f35 fe33 a7b6
00000370: a056 13b5 2a7c 83b4 b152 7fb5 b8d4 16ba
00000380: 80c4 8835 c855 1b34 fa4f 6b37 e9c3 0db7
00000390: 153e 9eba 444b 8238 1dde 4634 ce07 5f3a
000003a0: f0b4 0a34 7d98 45b5 2f14 7bb8 4cde 5eb6
000003b0: 5a86 c837 516d 57b4 a376 b137 8bf0 d8b5
000003c0: ec68 88b7 665d 7cb9 1429 3a36 1337 25b5
000003d0: 4278 653a fc22 ad36 8604 8335 29e0 c2b7
000003e0: 9dec 37b6 7b07 38b6 9ca5 3c34 72ae 33b6
000003f0: 7a9a eeb5 3b1b dcb5 8b5a 3535 4eff f2b7

layers.2.bias f4 [200]
0.084525995 0.010151992 -0.0008389706 0.008124046 8.956408e-07 0.034151305 0.069420345 0.012885258
0.000463594 -4.913079e-06 0.007839285 0.0020446947 0.07291443 0.0006887447 0.04196096 0.016255936
1.31054385e-05 0.000361099 0.030299133 0.029956415 0.025404409 -0.00019850441 1.7838784e-07 0.05424513
3.3351049e-07 0.0890735 0.006355571 -0.0039883284 0.017680919 -0.010234687 -0.0074476893 -0.038685028
-0.00048198286 -7.0054716e-07 -6.428963e-06 0.0033350051 -0.00036628539 -0.017797586 -0.00042239198 3.1612004e-08
0.03375729 0.011423717 1.431242e-06 -5.1753163e-06 0.06195543 0.00075315445 -8.209944e-05 0.0793662
-7.42516e-07 7.480538e-07 0.05331214 0.07365282 0.019700108 8.1402794e-07 0.06145781 -0.0010142955
0.00028428988 -0.031234704 2.3540382e-05 1.0173782e-08 0.00020178434 4.258602e-07 0.08261184 0.039394468
0.033723354 0.00086901366 0.015758919 0.03316882 0.0010791373 -4.3695665e-05 0.0019460795 0.006782208
-0.0011910736 0.063220516 0.023392446 -0.0012302101 0.075769424 0.06697957 0.049996883 0.031730432
0.0502498 -0.049080234 -0.058194656 0.032195836 0.0022153351 -0.04665821 0.042683706 0.06933637
0.038248125 2.356483e-05 0.02807565 -0.0013949211 -2.4291953e-07 0.04071637 -0.002320047 0.025839202
0.042930212 0.0001254491 0.07939258 -0.020378739 -0.003826004 -0.031808104 -0.013641659 -0.014307449
-4.6714308e-07 -5.8026053e-06 -0.0028790336 0.027666995 -0.0009429428 0.023741798 0.0001333575 -0.0039749513
-0.020083262 0.046424475 0.008016185 0.060963403 0.001259889 -0.0025769635 0.056845453 1.9059478e-05
0.006977319 2.7294655e-07 0.022058295 -0.041376147 0.0021261678 0.020751478 0.023061493 -1.1037515e-05
-0.0028096884 -0.021503992 -1.1743917e-06 3.9215884e-06 0.02840018 -0.052524596 -0.0015379883 0.036918703
0.0041911453 0.03232332 5.981704e-08 0.00015424013 0.00017140801 0.043587815 -6.592494e-08 -6.201589e-05
-0.0035732999 0.06331657 0.02358805 -1.316414e-06 -0.033634573 0.017157212 1.1016275e-05 -0.03312276
-0.014374331 2.8671892e-09 0.016499624 0.022764908 0.00066525413 -4.314813e-05 0.0013350208 0.03684289
0.0017495955 2.1152297e-05 0.01672072 -2.5452812e-06 -1.8164351e-07 0.057590824 -8.948361e-08 -0.016578536
1.4525006e-07 0.06738641 0.017527664 -0.00053214066 -0.00074161694 0.025363138 4.6885623e-05 -0.019436415
0.02378079 0.03555864 1.1295504e-05 -0.0014482625 0.008080672 0.0091987485 0.018989827 0.00023582304
0.035472363 0.047227986 -0.00667959 -0.014338681 0.0056617926 -0.004125108 3.0328638e-07 0.016045418
0.020559559 0.016406013 0.0012696463 0.0006164422 1.745211e-05 8.221462e-05 -0.014124868 -0.020706812
00000000: f71b ad3d 8a54 263c 5dee 5bba b81a 053c
00000010: f86b 7035 3de2 0b3d 412c 8e3d b01c 533c
00000020: 890e f339 07db a4b6 5870 003c 4900 063b
00000030: 2954 953d e08c 343a 41df 2b3d 2b2b 853c
00000040: 6edf 5b37 e351 bd39 e335 f83c 2867 f53c
00000050: e81c d03c 9f25 50b9 e08a 3f34 2430 5e3d
00000060: 550d b334 2b6c b63d 6542 d03b 86b0 82bb
00000070: 93d7 903c 63af 27bc bf0b f4bb 3174 1ebd
00000080: a5b2 fcb9 3c0d 3cb5 5fb8 d7b6 1a90 5a3b
00000090: fe09 c0b9 3ecc 91bc 7e74 ddb9 c4c5 0733
000000a0: 1645 0a3d 8b2a 3b3c 1a19 c035 a1a7 adb6
000000b0: fac4 7d3d 576f 453a cd2c acb8 bf8a a23d
000000c0: 5051 47b5 decd 4835 d55d 5a3d 4ad7 963d
000000d0: 1f62 a13c 9383 5a35 2fbb 7b3d 1cf2 84ba
000000e0: be0c 9539 ecdf ffbc 9678 c537 c4c8 2e32
000000f0: 1296 5339 c8a1 e434 6530 a93d 185c 213d
00000100: 8021 0a3d 85ce 633a d918 813c 07dc 073d
00000110: d771 8d3a dd45 37b8 9813 ff3a 493d de3b
00000120: cc1d 9cba c279 813d 84a1 bf3c 003f a1ba
00000130: 002d 9b3d 962c 893d 88c9 4c3d c5f7 013d
00000140: bcd2 4d3d 5b08 49bd 855d 6ebd c8df 033d
00000150: 282f 113b ae1c 3fbd 1cd5 2e3d 3a00 8e3d
00000160: 11aa 1c3d 16ad c537 e8fe e53c c9d5 b6ba
00000170: 9b6a 82b4 35c6 263d ee0b 18bb bcac d33c
00000180: 97d7 2f3d fd8a 0339 9498 a23d 50f1 a6bc
00000190: b2bd 7abb 3749 02bd 4481 5fbc ca69 6abc
000001a0: a8cb fab4 00b4 c2b6 2bae 3cbb e5a5 e23c
000001b0: d22f 77ba 297e c23c e2d5 0b39 4f40 82bb
000001c0: a785 a4bc 9727 3e3d 5156 033c c3b4 793d
000001d0: dc22 a53a 46e2 28bb c7d6 683d ebe1 9f37
000001e0: fea1 e43b 7d89 9234 99b3 b43c 097a 29bd
000001f0: 2d57 0b3b 01ff a93c 75eb bc3c c42d 39b7
00000200: c022 38bb 2429 b0bc cb9f 9db5 3096 8336
00000210: 7fa7 e83c 0824 57bd 5396 c9ba 1138 173d
00000220: e055 893b 7565 043d c474 8033 85bb 2139
00000230: fdbb 3339 2389 323d 9e92 8db3 870e 82b8
00000240: 062e 6abb 1eac 813d ba3b c13c a4af b0b5
00000250: 68c4 09bd 488d 8c3c 8ad2 3837 bbab 07bd
00000260: 5082 6bbc 2008 4531 382a 873c 797d ba3c
00000270: 7364 2e3a f4f9 34b8 ddfb ae3a 92e8 163d
00000280: af52 e53a 3670 b137 e4f9 883c 99cf 2ab6
00000290: ca09 43b4 5be4 6b3d 232a c0b3 b6cf 87bc
000002a0: 08f6 1b34 e301 8a3d 2d96 8f3c 5b7f 0bba
000002b0: 1269 42ba 5bc6 cf3c 0ea7 4438 1e39 9fbc
000002c0: eecf c23c f0a5 113d d281 3d37 a0d3 bdba
000002d0: cb64 043c 59b6 163c 8e90 9b3c 4447 7739
000002e0: 784b 113d 2272 413d 76e0 dabb c9ec 6abc
000002f0: 8f86 b93b ea2b 87bb 5dd3 a234 ae71 833c
00000300: 856c a83c e765 863c 436a a63a bc98 213a
00000310: 1f66 9237 a36a ac38 fe6b 67bc 55a1 a9bc

layers.4.weight f4 [200, 200]
-0.0017626619 -2.7870842e-06 6.2688247e-07 -0.00012019883 -2.260118e-06 -0.0017367976 -0.004124916 0.0017220861
-5.132608e-05 -2.1616836e-07 -0.0026524626 9.881148e-05 -0.0029735942 -8.235705e-05 -0.017062638 -0.00042751734
1.4625571e-06 0.00012689196 -0.010000496 0.00042110545 -0.0048538456 -1.3609925e-06 1.5082189e-06 -0.0129412385
-2.2040372e-06 0.0010356087 0.00018515854 -3.912486e-07 -0.0024340632 -4.808047e-07 -0.000284458 -0.0028229628
3.0240358e-06 1.4435707e-06 -9.0830745e-06 5.604813e-05 3.000687e-07 0.006374445 -1.5671154e-05 -5.103195e-06
-0.0023364949 0.004750077 -2.0029574e-07 2.0065673e-07 -0.0074163578 -0.00014663831 -6.9481684e-05 -4.3764707e-05
6.4231454e-06 -8.046417e-09 0.0010434531 -0.0018190815 -0.00030340243 2.2423974e-06 0.0013839916 4.4703256e-07
-5.4906137e-05 -0.00097542885 -1.2852024e-05 -8.720254e-07 6.252113e-05 -1.4993297e-07 -0.0051924908 0.00018956828
0.0013054252 0.00018451181 -0.004750727 0.00047905074 0.00020188614 3.0944858e-07 -0.00018260627 -0.0011815324
-5.9032577e-06 -0.0033295045 -0.0045863 5.824241e-06 -0.001753574 -0.0013511616 -0.0020608914 -0.0005528433
-0.0016150674 -0.0013485481 4.4527813e-05 1.4119536e-07 -0.0003677215 6.5392435e-08 -0.007066256 -0.0025111558
-0.004628864 2.1358263e-05 -0.002157212 -0.00067387027 2.4428923e-07 -0.0003594702 -0.00051175855 0.0029698694
-0.0004488934 -2.2784812e-05 -0.0042138174 -0.0025710098 -0.0015125978 1.7961089e-05 0.000120214885 0.0002938517
8.1044413e-07 4.611865e-06 0.0008043135 2.6077425e-05 1.7974612e-06 -0.011408229 -2.887434e-05 -0.004984751
-0.0011533644 -0.002236556 0.006049567 -0.0017923639 -0.0027982926 -0.00051029876 -0.009569808 4.7072494e-06
-0.0023478149 -2.3688942e-06 0.00015900854 -0.001113948 -0.00019366395 0.0013226859 -0.0024728733 2.310929e-06
-0.000515895 7.912282e-06 -1.572894e-05 -4.2733637e-07 -9.305005e-05 -0.0043170345 6.4869226e-07 -0.0036133756
0.00025618597 -0.0052612247 5.308613e-06 3.7979407e-05 -3.1103635e-05 -0.003881742 -2.6031696e-06 6.847213e-06
-0.0016652716 0.001189302 -0.00069954444 -1.2109443e-06 -0.00028087402 -0.00013839512 -1.5705605e-06 -0.0013340143
-0.0005970548 3.6379592e-07 -0.0011489242 -0.0022403772 2.7216061e-05 -2.1547166e-07 0.00022894684 6.715641e-05
-0.00026745434 -4.592522e-10 0.0063500674 -1.1532841e-06 2.2900615e-09 -0.023142688 -5.0905296e-06 -2.2144925e-05
-5.238475e-08 -0.0025810522 -0.00053397135 2.1628516e-06 2.4261067e-07 -0.002113067 -1.1228239e-05 -1.5197429e-05
0.008843807 -0.002222314 8.522619e-07 1.6672274e-06 0.000118706506 -0.001399108 -0.0007493914 -2.672927e-05
-0.002052826 0.009182322 -1.4323143e-05 -0.00063874427 -0.0018322805 -0.00037129942 -4.3555946e-07 -0.005507403
0.0007108336 -0.0005726199 0.0006342672 5.8121444e-05 7.0524015e-06 -6.2351096e-06 -9.783947e-07 0.0017118553
-0.020344265 -2.4243122e-05 4.6055247e-06 0.00044270474 -1.4553769e-05 0.03415833 0.0027582077 0.02478133
0.00024968295 -3.313192e-08 0.011545963 -0.00045586182 -0.0023546347 0.00036691935 -0.03018152 -0.005924051
-1.11382676e-07 -0.00047190805 -0.02045524 -0.0019010333 0.04317769 -6.191993e-06 -9.4613944e-07 0.024515959
-6.001462e-06 0.02555648 -0.0009771613 8.014906e-06 0.029644033 5.660201e-06 -0.0068966304 0.015327834
-3.0925077e-07 6.0976834e-07 -1.5628413e-05 -0.00024052992 1.0493551e-08 0.055410635 5.867922e-07 -5.0382727e-08
0.0112855 0.03487596 -3.3783817e-07 -1.3037062e-06 0.034155127 0.0005531957 0.00026344776 0.012629245
4.6939483e-08 2.0154491e-06 -0.00082967477 -0.00013078205 -0.034811895 -5.4074054e-08 0.0005781224 -3.6138808e-06
00000000: 1e09 e7ba be09 3bb6 0947 2835 4113 fcb8
00000010: 88ac 17b6 42a5 e3ba 4e2a 87bb 9fb7 e13a
00000020: f546 57b8 e81b 68b4 f0d4 2dbb 0239 cf38
00000030: a2e0 42bb 1bb7 acb8 f2c6 8bbc 6824 e0b9
00000040: 144d c435 4d0e 0539 1fd9 23bc d1c7 dc39
00000050: 020d 9fbb 59ab b6b5 026e ca35 7d07 54bc
00000060: 12e9 13b6 43bd 873a 1e27 4239 cc0c d2b4
00000070: ce84 1fbb a610 01b5 4e23 95b9 7501 39bb
00000080: 8af0 4a36 b6c0 c135 8263 18b7 3915 6b38
00000090: 2119 a134 b8e0 d03b 8c75 83b7 1c3c abb6
000000a0: e11f 19bb 89a6 9b3b e010 57b4 1a74 5734
000000b0: eb04 f3bb ecc2 19b9 b2b6 91b8 ff8f 37b8
000000c0: 6686 d736 843c 0ab2 7ac4 883a 3f6e eeba
000000d0: fc11 9fb9 187c 1636 0d67 b53a b0ff ef34
000000e0: 044b 66b8 ecb3 7fba 069f 57b7 2115 6ab5
000000f0: c71d 8338 43fd 20b4 c525 aabb d9c6 4639
00000100: cd1a ab3a 8379 4139 fdab 9bbb 1a29 fb39
00000110: 66b1 5339 4a22 a634 ff79 3fb9 a6dd 9aba
00000120: 9914 c6b6 d133 5abb ac48 96bb d96d c336
00000130: 2ed8 e5ba 7619 b1ba 0510 07bb b0ec 10ba
00000140: abb0 d3ba c4c1 b0ba 60c3 3a38 7c9b 1734
00000150: bfca c0b9 df6d 8c33 0d8c e7bb 3492 24bb
00000160: baad 97bb 852a b337 0360 0dbb aba6 30ba
00000170: db26 8334 4677 bcb9 8927 06ba 24a2 423b
00000180: 7459 ebb9 0322 bfb7 1014 8abb 637e 28bb
00000190: 5c42 c6ba 25ab 9637 e01b fc38 1c10 9a39
000001a0: 4c8d 5935 9ebf 9a36 91d8 523a d8c0 da37
000001b0: 4c40 f135 95e9 3abc 2c37 f2b7 1f57 a3bb
000001c0: 7d2c 97ba 2f93 12bb 723b c63b c1ed eaba
000001d0: 8f63 37bb 92c5 05ba afca 1cbc f7f2 9d36
000001e0: ccdd 19bb 4bf9 1eb6 88bb 2639 e401 92ba
000001f0: 4512 4bb9 f95d ad3a ee0f 22bb 7515 1b36
00000200: 213d 07ba febe 0437 a4f1 83b7 aa6c e5b4
00000210: dd23 c3b8 e975 8dbb cb21 2e35 62ce 6cbb
00000220: b350 8639 5a66 acbb a320 b236 144c 1f38
00000230: 4675 02b8 d364 7ebb 1db2 2eb6 1dc1 e536
00000240: 3e45 daba 5ae2 9b3a a261 37ba bb87 a2b5
00000250: 4642 93b9 281e 11b9 0ccc d2b5 18da aeba
00000260: ab83 1cba bb4f c334 8097 96ba 4bd3 12bb
00000270: 0c4e e437 665c 67b4 7311 7039 53d6 8c38
00000280: 1d39 8cb9 007a fcaf 3a14 d03b 8aca 9ab5
00000290: 305f 1d31 bc95 bdbc 51cf aab6 ddc3 b9b7
000002a0: a4fd 60b3 df26 29bb 36fa 0bba 8225 1136
000002b0: 2840 8234 627b 0abb eb60 3cb7 76f8 7eb7
000002c0: 9de5 103c 3ea4 11bb fec6 6435 7fc5 df35
000002d0: 12f2 f838 4662 b7ba ce72 44ba ac38 e0b7
000002e0: b588 06bb 7371 163c 6e4d 70b7 6771 27ba
000002f0: 2229 f0ba f7aa c2b9 d6d6 e9b4 7277 b4bb
00000300: 3c57 3a3a df1b 16ba f444 263a 6dc7 7338
00000310: aba3 ec36 2f37 d1b6 6351 83b5 5560 e03a
00000320: 04a9 a6bc b55d cbb7 2889 9a36 d31a e839
00000330: f62b 74b7 9be9 0b3d 0cc3 343b 3702 cb3c
00000340: e1e7 8239 ee4c 0eb3 472b 3d3c bd00 efb9
00000350: 3750 1abb 155f c039 3c3f f7bc 8b1e c2bb
00000360: 4631 efb3 6d6a f7b9 bf91 a7bc 182c f9ba
00000370: 17db 303d d1c4 cfb6 35fa 7db5 b1d5 c83c
00000380: 2b60 c9b6 d35b d13c 1814 80ba c277 0637
00000390: 0bd8 f23c c2ec bd36 21fd e1bb 9821 7b3c
000003a0: 1a07 a6b4 f6ae 2335 c319 83b7 c236 7cb9
000003b0: 2047 3432 43f6 623d 0e84 1d35 6564 58b3
000003c0: d1e6 383c 18da 0e3d 2060 b5b4 01fb aeb5
000003d0: 3fe6 0b3d 5604 113a 5c1f 8a39 e5ea 4e3c
000003e0: 829a 4933 2741 0736 887e 59ba 8a22 09b9
000003f0: eb96 0ebd 0d3f 68b3 238d 173a 0086 72b6

layers.4.bias f4 [200]
0.023238556 0.023830315 0.054224942 0.062233344 -1.5672891e-05 8.57911e-05 1.5408954e-05 -0.017740691
0.03456837 -1.1578493e-05 -0.03891218 0.007967996 -5.164567e-07 0.055044018 0.020437445 0.048801526
1.0939758e-06 0.0033407228 0.033346746 0.038661204 0.041406177 0.014547041 2.852974e-05 0.025407648
-0.020290991 0.043838687 -3.0251502e-05 0.0022168406 0.014499054 1.3973402e-06 0.0065815155 -0.051547613
-0.041877136 -0.014621228 0.038258675 -0.024562996 0.00031415006 0.0051575103 0.004404798 0.012138202
-0.010768002 0.0079975715 2.43612e-05 -0.025719902 8.3015744e-05 0.049998455 1.8215173e-05 0.034321364
-3.3832757e-07 0.03578092 1.8253609e-06 0.02608301 0.030395947 -0.004886051 0.00061351026 2.6340882e-05
0.030315202 -0.020346072 0.041980363 0.052594382 -0.03638953 0.06479491 7.840806e-05 9.975289e-06
0.039584454 2.1909418e-05 0.026389588 0.009467756 0.036373943 3.8864742e-05 -0.009331038 0.02976808
6.1494495e-05 1.8575685e-05 0.0027127725 0.0058962735 -0.036217384 -0.0135536175 0.03942891 -0.021828573
0.0021032987 0.00016370806 0.014589289 -0.0022532984 -0.04038452 -0.00029396475 0.058813654 0.00316069
0.00013736168 0.035413023 -7.1173254e-06 -0.027478155 0.0061665718 -0.016290648 0.02375262 -0.002637233
4.083114e-05 0.0022989563 0.011412699 0.048962045 0.0045344494 5.208616e-06 0.0077108205 0.021548359
-2.0700153e-07 1.2197188e-05 0.01792024 0.033965804 2.0071087e-05 0.009581422 0.050841324 3.6414254e-05
1.7041744e-05 0.00024358236 0.061901633 0.01629659 1.1847009e-06 0.03199582 0.024865422 0.0028667324
0.0020381787 0.02741288 -2.3440336e-06 -0.006364044 0.049104095 0.0013352644 0.01374359 -0.01861736
-0.0074594696 0.07293279 1.18516145e-05 0.052977245 6.620407e-05 -0.008368179 0.03042556 1.7846838e-05
0.0472811 0.043507718 0.0040748697 1.0738327e-05 -0.011169521 0.07278342 0.021564608 0.005799274
2.958067e-05 3.071798e-05 2.0879888e-06 0.0035293258 0.050550405 -0.034511764 0.0038073426 0.018228153
0.06339873 0.0068016583 -5.7444664e-05 0.0074826824 0.038375277 0.002656671 0.023014184 0.046992477
0.00042655296 -0.0016093502 1.9659055e-06 0.023053305 0.020332862 0.031800173 0.021517033 6.1323135e-06
-0.019712698 0.012954803 0.000957349 2.1135353e-05 0.0075597893 5.9105176e-05 0.022663193 -0.0006438475
0.008884352 0.036664594 0.0007536028 0.0494465 -0.016408246 -0.014942273 0.043633923 0.0018511649
0.0016328003 8.7182125e-05 -0.01681687 -0.012084396 4.640651e-05 -0.022750365 0.03614988 -0.04057255
-0.038300216 -0.01560168 0.022226244 -1.4541861e-06 -0.028602729 0.030174248 1.9395666e-05 2.1930406e-05
00000000: c95e be3c cb37 c33c f91a 5e3d 64e8 7e3d
00000010: 4779 83b7 bfea b338 7a42 8137 ed54 91bc
00000020: 9097 0d3d 4041 42b7 6162 1fbd 338c 023c
00000030: a2a2 0ab5 d675 613d 6e6c a73c 1ce4 473d
00000040: b9d4 9235 07f0 5a3b 9996 083d 365b 1e3d
00000050: 8699 293d b656 6e3c 2653 ef37 b323 d03c
00000060: 4b39 a6bc 3290 333d 9bc4 fdb7 6a48 113b
00000070: 718d 6d3c 3e8c bb35 c1a9 d73b 9723 53bd
00000080: 5c87 2bbd e08d 6fbc 21b5 1c3d 5638 c9bc
00000090: 82b4 a439 5500 a93b 2056 903b 4fdf 463c
000000a0: 466c 30bc 3f08 033c 475b cc37 8bb2 d2bc
000000b0: bd18 ae38 2ecb 4c3d c9cc 9837 8f94 0c3d
000000c0: 63a3 b5b4 048f 123d ecfe f435 09ac d53c
000000d0: ec00 f93c 2b1b a0bb fad3 203a 9df6 dc37
000000e0: 9657 f83c ceac a6bc 9af3 2b3d 356d 573d
000000f0: 300d 15bd 32b3 843d 026f a438 8a5b 2737
00000100: 4f23 223d 1eca b737 fa2e d83c a61e 1b3c
00000110: d8fc 143d b302 2338 36e1 18bc 30dc f33c
00000120: 9bf6 8038 fbd2 9b37 c5c8 313b 8735 c13b
00000130: ae58 14bd fe0f 5ebc 3580 213d d6d1 b2bc
00000140: 7fd7 093b 0ca9 2b39 ea07 6f3c 13ac 13bb
00000150: 3d6a 25bd 481f 9ab9 96e6 703d 9423 4f3b
00000160: bf08 1039 3f0d 113d 5cd1 eeb6 de19 e1bc
00000170: f410 ca3b f773 85bc db94 c23c 6dd5 2cbb
00000180: 1a42 2b38 16aa 163b 54fc 3a3c 6d8c 483d
00000190: b895 943b acc5 ae36 0dab fc3b 2f86 b03c
000001a0: 2644 5eb4 86a2 4c37 78cd 923c ba1f 0b3d
000001b0: 555e a837 66fb 1c3c fe3e 503d 82bb 1838
000001c0: def4 8e37 246a 7f39 918c 7d3d 6d80 853c
000001d0: 0302 9f35 0d0e 033d 92b2 cb3c cadf 3b3b
000001e0: f792 053b fa90 e03c 314e 1db6 7889 d0bb
000001f0: 6021 493d 0a04 af3a cb2c 613c 6f83 98bc
00000200: 916e f4bb c95d 953d 4cd6 4637 abfe 583d
00000210: 0ad7 8a38 b01a 09bc 063f f93c cbb5 9537
00000220: d4a9 413d 2635 323d 7c86 853b c328 3437
00000230: 5e00 37bc 790f 953d 43a8 b03c d607 be3b
00000240: 0124 f837 2ed7 0038 601f 0c36 434c 673b
00000250: f10d 4f3d 355c 0dbd 9c84 793b 3553 953c
00000260: 31d7 813d 72e0 de3b bdf0 70b8 4a31 f53b
00000270: 652f 1d3d 8b1b 2e3b 3e88 bc3c 2f7b 403d
00000280: f8a2 df39 d5f0 d2ba 00ee 0336 49da bc3c
00000290: 1a91 a63c e640 023d 7d44 b03c 2cc4 cd36
000002a0: 867c a1bc 6240 543c 9bf6 7a3a d34b b137
000002b0: 1cb8 f73b b3e7 7738 29a8 b93c e0c7 28ba
000002c0: ac8f 113c 9d2d 163d 6e8d 453a 6a88 4a3d
000002d0: 966a 86bc 6fd0 74bc 7cb9 323d c9a2 f23a
000002e0: b003 d63a 8cd5 b638 88c3 89bc a1fd 45bc
000002f0: 9ca4 4238 f95e babc e611 143d 672f 26bd
00000300: b0e0 1cbd 309e 7fbc d013 b63c 742d c3b5
00000310: 4550 eabc fc2f f73c e0b3 a237 30f7 b737

layers.6.weight f4 [1, 200]
-0.016255273 0.0766328 0.07313985 0.038499635 1.2425953e-05 0.00030654753 5.0095852e-05 0.008264998
0.12884563 1.300715e-05 -0.006613706 0.010078954 -3.2054868e-07 0.045740634 -0.010636827 -0.034002867
6.2822284e-07 0.01082701 -0.014483918 0.058210794 -0.029727418 0.054481518 9.0711495e-05 -0.03681635
0.035001446 0.035322197 -1.7803194e-06 0.009196629 -0.015342538 -1.0630986e-06 0.049119037 -0.039014366
0.08146065 0.023253564 0.02814712 -0.024076464 0.0010239673 0.025588302 -0.0041501694 0.006374966
0.04718783 -0.018009689 8.6059445e-06 0.0401196 0.00036518162 0.07837384 7.26252e-05 0.04532012
3.579746e-06 -0.037641842 8.851378e-06 -0.002675939 -0.008974249 -0.00017265226 -0.0007269778 9.6077354e-05
-0.034731366 -0.0060084825 0.026180325 0.19586638 -0.04423202 0.08221983 0.00027052299 4.44108e-05
-0.036777034 5.7773586e-06 0.05726414 -0.00633635 -0.035094492 0.00012538533 -0.014174065 -0.01604123
0.0002199221 1.3051579e-05 -0.0019073507 0.021835076 -0.0051359045 0.020807283 0.07713401 0.009383124
-0.030631376 0.00080412574 -0.046824645 0.0732302 -0.017969828 -0.015261035 0.036411863 0.0018226061
0.00059464644 -0.03190565 -4.734366e-06 -0.03381717 0.02142413 0.08512281 0.07203239 -0.00061631406
0.00013736234 -0.03765503 0.012230662 0.049235296 0.01752523 -5.8941814e-06 0.028195754 -0.02182164
1.7369479e-05 4.7133974e-05 0.084636666 0.058310654 6.604726e-05 -0.035482496 0.18760176 -3.7771722e-05
6.153163e-05 0.0009362921 0.068231404 0.07353916 5.4566253e-06 0.12649645 -0.03997203 0.007727045
0.009689333 0.0703493 7.885035e-06 3.6220306e-06 0.07291032 -0.00203248 0.041553862 -0.024250615
1.1998676e-05 0.08182914 4.1410618e-05 0.055868167 0.00029706975 -2.8072216e-06 0.10901951 9.524415e-05
-0.03403775 0.083530284 0.017841417 2.5449579e-05 -0.025047088 0.058465686 -0.011482019 -0.029851984
8.6181506e-05 0.00013891804 -5.7348234e-06 -0.009283164 0.024520066 -0.031478487 0.013745942 0.06891303
0.0729236 0.029065786 5.4698834e-05 -0.013698443 -0.01763454 -0.0043632225 -0.04538387 0.072642885
0.0015033607 -0.003418161 -3.5216522e-06 -0.0102237845 0.0714527 0.04908406 0.08300469 2.4938314e-05
-9.3200986e-05 0.019454516 -0.00025664875 -6.377409e-06 0.02752942 0.00028837202 0.045471873 0.06340071
0.0038974101 0.07095115 0.002602243 -0.049792115 -0.0406678 -0.00016039949 0.019495314 0.005110198
0.007893407 0.00045292717 -0.007837115 0.0009322046 0.00015460016 -0.0003346047 0.055690564 0.07506593
0.061124075 -0.0030598093 0.07802216 -3.9978386e-07 -0.033570178 0.10899356 8.1269594e-05 9.615649e-06
00000000: c729 85bc a8f1 9c3d 58ca 953d cbb1 1d3d
00000010: 1079 5037 1db8 a039 031e 5238 ea69 073c
00000020: 1cf0 033e 4939 5a37 c9b7 d8bb 3222 253c
00000030: e017 acb4 885a 3b3d 1646 2ebc 9746 0bbd
00000040: 25a3 2835 c563 313c f54d 6dbc 716e 6e3d
00000050: ea86 f3bc 0328 5f3d 5d3c be38 becc 16bd
00000060: ad5d 0f3d 02ae 103d 4ff3 eeb5 75ad 163c
00000070: 455f 7bbc caaf 8eb5 0b31 493d 87cd 1fbd
00000080: d7d4 a63d 427e be3c ca94 e63c 013c c5bc
00000090: a436 863a 8f9e d13c 25fe 87bb 17e5 d03b
000000a0: 0748 413d 0e89 93bc 4062 1037 7354 243d
000000b0: d975 bf39 7782 a03d 5b4e 9838 97a1 393d
000000c0: 913b 7036 552e 1abd 6180 1437 ce5e 2fbb
000000d0: ba08 13bc fd09 35b9 a892 3eba 237d c938
000000e0: 7a42 0ebd cee2 c4bb 1f78 d63c 3291 483e
000000f0: a22c 35bd df62 a83d fbd4 8d39 bc45 3a38
00000100: 84a3 16bd 22db c136 ce8d 6a3d 28a1 cfbb
00000110: 3ebf 0fbd de79 0339 563a 68bc e668 83bc
00000120: e49a 6639 1bf8 5a37 1200 faba 79df b23c
00000130: 174b a8bb 0974 aa3c 70f8 9d3d adbb 193c
00000140: a7ee fabc f7cb 523a 33cb 3fbd b7f9 953d
00000150: 7635 93bc 6c09 7abc 9b24 153d 83e4 ee3a
00000160: 0ce2 1b3a 80af 02bd e5db 9eb6 df83 0abd
00000170: a881 af3c de54 ae3d b885 933d 2390 21ba
00000180: ec08 1039 293c 1abd 1d63 483c f3aa 493d
00000190: 1291 8f3c a2c6 c5b6 c8fa e63c 4cc3 b2bc
000001a0: acb4 9137 b8b1 4538 fd55 ad3d 27d7 6e3d
000001b0: da82 8a38 1856 11bd ad1a 403e 146d 1eb8
000001c0: 8b0a 8138 8071 753a e8bc 8b3d b39b 963d
000001d0: 0e18 b736 4988 013e b6b9 23bd 2733 fd3b
000001e0: 02c0 1e3c 4b13 903d f849 0437 0312 7336
000001f0: 0152 953d 5b33 05bb 6234 2a3d 3aa9 c6bc
00000200: ec4d 4937 0996 a73d 50b0 2d38 05d6 643d
00000210: 07c0 9b39 b363 3cb6 9f45 df3d d0bd c738
00000220: 2b6b 0bbd ed11 ab3d 2a28 923c 8e7c d537
00000230: 8d2f cdbc b779 6f3d 141f 3cbc 268c f4bc
00000240: 58bc b438 87aa 1139 c26d c0b6 6918 18bc
00000250: 4ede c83c 96ef 00bd a936 613c 4622 8d3d
00000260: f858 953d 5f1b ee3c 6d6c 6538 6f6f 60bc
00000270: 5076 90bc 5df9 8ebb 70e4 39bd cbc5 943d
00000280: 6a0c c53a 3a03 60bb 8655 6cb6 a981 27bc
00000290: cb55 923d 5e0c 493d 5dfe a93d 9f32 d137
000002a0: e674 c3b8 145f 9f3c d08e 86b9 87fd d5b6
000002b0: 6185 e13c a330 9739 b740 3a3d 3bd8 813d
000002c0: b16b 7f3b d64e 913d 658a 2a3b d1f2 4bbd
000002d0: 4793 26bd e930 28b9 a3b4 9f3c 7373 a73b
000002e0: 5953 013c db76 ed39 3e67 00bc 315f 743a
000002f0: 2a1c 2239 e26d afb9 ca1b 643d 2bbc 993d
00000300: 3d5d 7a3d 1587 48bb 15ca 9f3d e0a1 d6b4
00000310: e280 09bd 0438 df3d 486f aa38 e652 2137
