data/model_Sweet white.pt (torch_old, 611048 bytes, 7 tensors)

layers.0.weight f4 [100, 12]
0	0xbd4e0658	-0.05029902
1	0xbdbd1bc9	-0.09233815
2	0x3da6db58	0.08147305
3	0xba817b32	-0.0009878634
4	0x3df552e0	0.11978698
5	0x3e09ee12	0.13469723
6	0xbdea6400	-0.11444855
7	0xbd52ce08	-0.051466018
8	0xbe06f9f5	-0.13181289
9	0xbe1df5e1	-0.15425827
10	0x3c07132e	0.008244319
11	0xbaf52367	-0.0018702567
12	0x3e1bf83f	0.15231417
13	0xbcfb50d5	-0.030678192
14	0xbc90e3c6	-0.017686736
15	0xbda715c8	-0.08158451
16	0x3db25bc1	0.08708907
17	0x3d4f2ff2	0.050582834
18	0xbd421951	-0.047387425
19	0xbc74c7bb	-0.014940198
20	0x3d0811fe	0.033220284
21	0xbd6816a2	-0.05666221
22	0xbd104206	-0.035219215
23	0xbdb4ca83	-0.088276885
24	0xbb8592a9	-0.004076321
25	0xbd88909b	-0.06668206
26	0xbdc67c21	-0.096916445
27	0xbdc3719d	-0.095431544
28	0x3d85ee9b	0.06539651
29	0xbe244409	-0.16041578
30	0xbdddaf2f	-0.10824429
31	0x3e2884e3	0.16456942
32	0x3e440698	0.1914314
33	0xbd03b1bd	-0.032151926
34	0x3e29b3ac	0.16572446
35	0x3e0f4a83	0.13993268
36	0x3e0d112e	0.13776085
37	0xb9d04e81	-0.00039731342
38	0xbcc96195	-0.024582664
39	0x3837ed98	4.3851876e-05
40	0x3db2581c	0.08708212
41	0xb9c0ba14	-0.00036759733
42	0xbd9975a7	-0.074931435
43	0xbba0494d	-0.0048915506
44	0xbd62d299	-0.055376623
45	0x3dbc5ab3	0.09196987
46	0xbc2fe4d0	-0.0107357055
47	0xbddfe83d	-0.10932968
48	0x3e6ce11d	0.23132749
49	0x3dc1ee10	0.09469235
50	0xbe19a972	-0.15006045
51	0x3e486ff7	0.19573961
52	0x3c857469	0.01629086
53	0xbd07b8af	-0.033135112
54	0xbe1a49ee	-0.15067264
55	0x3e13b3f5	0.14424117
56	0xbd49d325	-0.04927363
57	0xbe1c2a4c	-0.1525051
58	0xbe342222	-0.17591146
59	0xbb8b00f6	-0.004242058
60	0x3cc25d79	0.023726212
61	0x3d356842	0.04428888
62	0x3e6f5eaa	0.23375955
63	0x3df868da	0.12129374
64	0x3e804ed0	0.2506013
65	0xbe579478	-0.2105273
66	0x3e0de5d5	0.13857205
67	0x3dc3e41f	0.09564995
68	0x3e193b3a	0.14964
69	0x3e8d6433	0.27615508
70	0xbb9fc857	-0.0048761773
71	0xbe222069	-0.15832676
72	0xbd6780bc	-0.056519255
73	0xbe1e116c	-0.15436333
74	0x3d93ada3	0.07210853
75	0x3e52f5db	0.20601599
76	0x3b93a30e	0.0045055216
77	0xbc293266	-0.010326957
78	0xbe6472b6	-0.22309384
79	0xbda89a7b	-0.0823259
80	0x3ca85f2a	0.02055319
81	0x3e6c9be6	0.23106346
82	0x3d968ab3	0.073506735
83	0x3e556571	0.20839478
84	0x3e35230d	0.17689152
85	0xbb98aa0c	-0.004658943
86	0xbd1d7621	-0.038442735
87	0x3e1247af	0.14285158
88	0x3ccd3838	0.025051221
89	0x3e205b4c	0.15659827
90	0x3e8a75ae	0.27042907
91	0xbdb9987f	-0.090622894
92	0xbe412fe1	-0.1886592
93	0xbc467b99	-0.012114429
94	0x3e1d9f25	0.1539274
95	0x3e0252f1	0.12726952
96	0xbe635763	-0.22201304
97	0x3e0897b9	0.13339128
98	0x3ddc7248	0.10763985
99	0xbe09b04f	-0.13446163
100	0xbe2a9a26	-0.16660365
101	0xbd854e24	-0.06509045
102	0x3e80bdb8	0.25144744
103	0x3d642814	0.055702284
104	0xbdbe922d	-0.093052246
105	0x3e28179e	0.16415259
106	0x3d9b51c7	0.07583957
107	0x3de55bfe	0.11199187
108	0x366ad326	3.4991622e-06
109	0xba833c00	-0.0010012388
110	0x343ac074	1.7392614e-07
111	0x38316868	4.2297324e-05
112	0xbd2dd12b	-0.042435806
113	0x37bbf69e	2.2406977e-05
114	0xbad0e50f	-0.0015937405
115	0xbe1f6105	-0.15564354
116	0x3d065e2a	0.032804646
117	0xbe07e1ee	-0.13269779
118	0x3c554183	0.0130161075
119	0x3d4a0e67	0.04933014
120	0xbe4e59a5	-0.20151384
121	0x3e17ef6c	0.14837426
122	0xbe810be9	-0.252044
123	0x3e5d9d31	0.21641995
124	0x3b9f51fc	0.004862068
125	0xbd258ea5	-0.04041924
126	0xbd0b8f6b	-0.03407232
127	0xbdfac766	-0.122450635
128	0xbdd35bee	-0.103202686
129	0x3e7cd455	0.24690373
130	0x3e1653e1	0.14680435
131	0x3d561f1f	0.052275773
132	0x3da4a461	0.08039165
133	0xbd129854	-0.035789803
134	0xbcbc81c8	-0.023011103
135	0xbc9c20e9	-0.019058662
136	0xb805411b	-3.1770305e-05
137	0x3dc61f5f	0.09673952
138	0xbdac206e	-0.08404623
139	0x3614efb6	2.2193249e-06
140	0xb79bfec2	-1.859607e-05
141	0x3c92125d	0.017831022
142	0xb73855bc	-1.0987216e-05
143	0x3759c9a5	1.2981157e-05
144	0xbd82a644	-0.06379369
145	0x3e409b66	0.1880928
146	0x3e12b2af	0.14325975
147	0xbb9340c1	-0.0044938033
148	0xbe75ce8b	-0.24004571
149	0x3e1570d3	0.1459382
150	0x3e86c674	0.26323283
151	0x3dad7978	0.08470434
152	0xbe86ea90	-0.26350832
153	0xbccea46f	-0.025224892
154	0x3c9ecedb	0.019385746
155	0x3d969723	0.07353046
156	0x3ce59cea	0.028028924
157	0xbe8704b1	-0.26370767
158	0xbcd0e913	-0.025501763
159	0xbe306c15	-0.1722873
160	0x3dd80c1e	0.10549186
161	0xbd849e48	-0.06475502
162	0xbcfcb662	-0.030848686
163	0x3e3eb870	0.18625045
164	0x3c9f4116	0.019440215
165	0x3e8d6258	0.27614093
166	0x3e61f90f	0.22067665
167	0xbcdc9bd2	-0.02692977
168	0x3e85eeb8	0.2615869
169	0x3e8a8bc8	0.2705977
170	0xbe6bc0e9	-0.23022808
171	0xbe4c0d5c	-0.19926971
172	0x3e3f3ae6	0.18674812
173	0xbb5e0f4c	-0.003388363
174	0xbe80566c	-0.25065935
175	0xbe8008c9	-0.25006703
176	0x3e8f5184	0.2799188
177	0x3da96501	0.08271218
178	0x3e04c1fa	0.12964621
179	0x3e7922c2	0.24329665
180	0xbe82c55d	-0.255412
181	0xbd8306d3	-0.06397786
182	0x3dce539e	0.100745425
183	0x3ddbeffe	0.10739134
184	0xbe7030e8	-0.23456156
185	0x3e5b6b93	0.21427755
186	0xbbe5bab4	-0.007010782
187	0xbc65f27b	-0.014034863
188	0x3e0b6bfc	0.13615412
189	0x3e511048	0.20416367
190	0x3cbdaaef	0.023152797
191	0x3e2f6036	0.17126545
192	0xbcc7d0b0	-0.024391502
193	0xbb5cc9f4	-0.003368971
194	0xbdc3b311	-0.095556386
195	0x3d84af2c	0.06478724
196	0x3d94cc86	0.07265572
197	0xbd7351cb	-0.059404176
198	0x3cdab3f7	0.026697142
199	0x3ab8fa90	0.0014112759
200	0xbd2952a5	-0.04133858
201	0xbd9773e4	-0.07395151
202	0x3c316cca	0.01082916
203	0x3e20b4e9	0.15694012
204	0x3d422d10	0.047406256
205	0x3e30780d	0.17233296
206	0x3cd4a64e	0.025958207
207	0xbe03124f	-0.12799953
208	0x3de25054	0.110504776
209	0x3cc578a0	0.02410537
210	0xbcda7ae8	-0.026669934
211	0xbcf53732	-0.029933546
212	0xbdbc760b	-0.092022024
213	0xbe2c530a	-0.16828552
214	0x3d70c4ea	0.058781542
215	0x3b54a3d7	0.003244629
216	0x3e448935	0.19192965
217	0xbde35e9c	-0.1110203
218	0xbdc4c6e0	-0.09608245
219	0xbda88cad	-0.08229957
220	0x3e40a818	0.18814123
221	0x3e47b191	0.1950133
222	0x3e61151d	0.2198071
223	0xbcbdff66	-0.023193073
224	0x3d472cfe	0.048626892
225	0xbde3ec4e	-0.11129056
226	0x3e841dc8	0.2580397
227	0x3e8b3e26	0.27195853
228	0x3defb34a	0.117041185
229	0xbdfdaf1a	-0.123869136
230	0x3e12f5a9	0.14351524
231	0xbe2960e1	-0.16540863
232	0x3e3cc2d2	0.18433693
233	0xbe030319	-0.1279415
234	0xbc0995dd	-0.008397547
235	0xbe33fe36	-0.17577443
236	0xbe3b1374	-0.1826914
237	0x3e441174	0.19147283
238	0xbe1c4d01	-0.1526375
239	0x3dc2a04f	0.09503233
240	0x3da3dc9f	0.080010645
241	0x3e840a3a	0.25789052
242	0xbe6c70e7	-0.23089944
243	0x3e72a1f9	0.236946
244	0xbe429764	-0.19003063
245	0xbe26df56	-0.16296133
246	0x3dd30976	0.10304539
247	0x3e06af8d	0.13152905
248	0xbdebcc02	-0.11513521
249	0xbe6c8a01	-0.2309952
250	0x3d561fd3	0.052276444
251	0x3e6a38a0	0.22873163
252	0x3e81ef55	0.25377908
253	0xbe156974	-0.14591008
254	0x3a31b63f	0.0006779171
255	0x3e82dcaf	0.25558993

layers.0.bias f4 [100]
0	0x3e0e33ac	0.13886899
1	0x3d6fdeca	0.058562078
2	0xbc691c2f	-0.014227911
3	0xbdda6d1b	-0.106653415
4	0x3c337e06	0.010955339
5	0x3e41ec46	0.18937787
6	0x3e133de1	0.14379074
7	0x3e4830fe	0.19549939
8	0x3e4aac94	0.19792396
9	0x38ecfb30	0.00011300144
10	0x3d1f89f2	0.038949914
11	0xbe20e00d	-0.15710469
12	0xbda04e2d	-0.07827411
13	0x3df00fb4	0.11721745
14	0xbde10aec	-0.10988411
15	0x3da7759f	0.08176731
16	0xbd7ad67f	-0.061239716
17	0xbcc30ec5	-0.023810754
18	0xbe874c84	-0.26425564
19	0x3d3e71a8	0.04649511
20	0xbdab86da	-0.0837533
21	0x3dc86543	0.09784939
22	0x3e550f8a	0.20806709
23	0x3d8e9db9	0.06963677
24	0xbe8b0117	-0.2714927
25	0xbd6a6336	-0.05722352
26	0xbcfd3e4a	-0.03091349
27	0xbc47c4f5	-0.012192954
28	0xbe555d09	-0.20836271
29	0xbe19c2bb	-0.1501569
30	0xbcadc597	-0.021212382
31	0xbdd552ef	-0.10416209
32	0xbd6e8a5e	-0.058237426
33	0xbe24aca3	-0.1608148
34	0xbe3761cf	-0.17908405
35	0xbc1fc3d6	-0.009751281
36	0x3da92a89	0.08260066
37	0x3e176d63	0.14787821
38	0x3dbaf0d9	0.09127969
39	0xbae71fed	-0.0017633416
40	0x3d8b18b0	0.06791818
41	0xbe0079d6	-0.12546477
42	0x379bf899	1.8593202e-05
43	0x3d60411e	0.0547496
44	0x3df61839	0.12016339
45	0x3e3607ad	0.17776366
46	0x3e2fd3ac	0.1717059
47	0x3e7dfc8f	0.24803375
48	0x3e28ae07	0.16472636
49	0xbb9ef028	-0.004850406
50	0x3e775d72	0.2415674
51	0xbdd5df2f	-0.104429595
52	0xbb6270be	-0.0034552063
53	0x3e3ac67d	0.1823978
54	0x3e0c52fd	0.13703533
55	0xbc1655a8	-0.0091756955
56	0xbcf7b7ab	-0.030238947
57	0x3e5af02d	0.21380682
58	0x3cd78d5d	0.026312524
59	0x3bd17f5c	0.0063933562
60	0x3e6e143d	0.23249908
61	0x3e5124e6	0.20424232
62	0xbd0ca68a	-0.03433851
63	0xb61776ab	-2.2569827e-06
64	0x3e79acfc	0.24382395
65	0x3e2392d2	0.15973976
66	0xbe0f59b5	-0.13999064
67	0x3da0a746	0.07844405
68	0x3dc307a9	0.095229454
69	0x3e54541a	0.20735207
70	0x3e098af2	0.1343191
71	0xbdc2bdad	-0.09508834
72	0x3e34aaf5	0.1764334
73	0x3e05c1a6	0.13062152
74	0xbe8240fb	-0.254402
75	0x3e8779e2	0.26460177
76	0xbcfa8bf9	-0.030584322
77	0x3d8d81f1	0.0690955
78	0xbe0ce872	-0.13760546
79	0xbc526893	-0.012842315
80	0xbd9214ab	-0.07132848
81	0x3e542df7	0.20720659
82	0xbe7be79e	-0.24600074
83	0x3e33705f	0.17523335
84	0x3e743f47	0.23852263
85	0x3e35a683	0.177393
86	0xb901625e	-0.00012339043
87	0x3d369d18	0.04458341
88	0xbe82ce29	-0.25547913
89	0x3e86ea1d	0.2635049
90	0x3daf4c1e	0.0855944
91	0xbda4b4a7	-0.08042269
92	0xbdf6892f	-0.120378844
93	0xbe01c2b0	-0.12671924
94	0xbdc6e8f8	-0.09712404
95	0x3e0dcad2	0.13846901
96	0xbd8a8850	-0.06764281
97	0x3d934993	0.071917675
98	0x3e2bdd06	0.16783533
99	0xbd70c83e	-0.058784716

layers.2.weight f4 [300, 100]
0	0x3b09a503	0.0021002896
1	0xba98aa92	-0.0011647514
2	0xbbf6d88a	-0.0075331377
3	0x39228e95	0.0001550264
4	0x3aa5b590	0.0012642611
5	0x3b05a2fd	0.0020391338
6	0xbb10009a	-0.0021973015
7	0x3a340fea	0.00068688265
8	0x3b269d00	0.002542317
9	0xb5fdec23	-1.8918694e-06
10	0x3b936f32	0.0044993395
11	0xb8f79e90	-0.000118074124
12	0x3b99337f	0.0046753283
13	0xbc7218b9	-0.014776402
14	0x3b6ca7c6	0.0036110743
15	0xba821b3e	-0.0009926332
16	0x3aa3f2aa	0.0012508233
17	0xbbf78d63	-0.0075546964
18	0xbc21e120	-0.009880334
19	0xbb1465a5	-0.0022643593
20	0x3ad21127	0.001602684
21	0xbba4f026	-0.0050335107
22	0xb9ef1864	-0.00045603805
23	0x3c0d5fb9	0.008628779
24	0x3b792269	0.0038014895
25	0xbc179d4a	-0.009253809
26	0xb9d87d4a	-0.00041292078
27	0xb73a5e1a	-1.1108374e-05
28	0x3a4d037c	0.00078206486
29	0x3bdd749d	0.006758286
30	0x38f8eaee	0.000118693206
31	0xbbbbd1f6	-0.0057318164
32	0x3c07b329	0.008282461
33	0x3aded4b9	0.0017000652
34	0x3ab2c31f	0.0013638473
35	0xbb8b4108	-0.0042496957
36	0x38859ce4	6.371157e-05
37	0x3b9c74c7	0.004774663
38	0x3c1b40d1	0.009475903
39	0xb7ca497e	-2.4114499e-05
40	0xbc2f4a78	-0.010698907
41	0x3afd49bf	0.0019324346
42	0xb658ab38	-3.228617e-06
43	0xbbb295f8	-0.0054500066
44	0x3b5893ba	0.0033047036
45	0xbc80f44e	-0.015741494
46	0xba0d1dae	-0.0005383146
47	0xbae8f1bd	-0.0017772239
48	0x3c0abeb6	0.008468321
49	0xb939356c	-0.00017662876
50	0xbc5ca33b	-0.013466652
51	0xbc85a5be	-0.016314384
52	0xbc13ca70	-0.009020433
53	0x3b8fc761	0.0043877815
54	0x3bd92b66	0.006627488
55	0xbc430168	-0.011902191
56	0x3bb186f2	0.005417698
57	0x3bce221f	0.0062906886
58	0x38810750	6.1525614e-05
59	0xbad2d2e8	-0.0016084583
60	0x3add4e11	0.0016884228
61	0x3afb7e6e	0.0019187459
62	0x3a9ea595	0.0012103791
63	0xbbb66ad2	-0.005566933
64	0xbb963d85	-0.0045849704
65	0x3b4cd4ef	0.0031254848
66	0xbc2d2077	-0.010566822
67	0xbaba9286	-0.0014234341
68	0xbbf84646	-0.0075767366
69	0xbaea484a	-0.0017874327
70	0x3c1282c4	0.00894231
71	0x379eb4f2	1.8919327e-05
72	0x3bc6be35	0.006065155
73	0xbc027f9c	-0.007964995
74	0xbbd9cb5c	-0.006646557
75	0xbab1ba69	-0.0013559583
76	0xbc09c991	-0.008409874
77	0x3b2b6e3b	0.0026158232
78	0xbbbef82f	-0.0058279256
79	0x3a30dcdb	0.0006746777
80	0x3bc02c0d	0.0058646263
81	0x3be224e7	0.0069013718
82	0xb942df0a	-0.0001858437
83	0x3c81976a	0.01581927
84	0x3b12f92e	0.0022426355
85	0x3b53ae3e	0.0032299901
86	0x3709ae09	8.206357e-06
87	0x3a8a99d0	0.0010574404
88	0xbb198382	-0.0023424332
89	0x3c6c9848	0.014440604
90	0xbb1c647b	-0.0023863602
91	0xbbb0bc4e	-0.0053935414
92	0xb7f5f0db	-2.9318433e-05
93	0xbab81cf9	-0.001404672
94	0x3718beaf	9.104303e-06
95	0x3c078401	0.008271218
96	0x35600b10	8.34626e-07
97	0xbbbb4941	-0.0057155197
98	0xbbd4eb53	-0.0064977794
99	0x384e6719	4.9210244e-05
100	0x3c88344a	0.016626496
101	0x39ab7382	0.00032701722
102	0x3b4823eb	0.0030538987
103	0xb90422e6	-0.00012601502
104	0xba1a4ae4	-0.00058857934
105	0x3cdabf47	0.026702536
106	0x3c839b46	0.016065251
107	0xbd1c9ccc	-0.03823547
108	0x3d3082c0	0.043093443
109	0x3b3346cf	0.0027355438
110	0xbcc5a879	-0.024128186
111	0xb912755f	-0.00013967369
112	0xbbfef961	-0.007781193
113	0x3c6c2a99	0.014414453
114	0xbd9f369b	-0.07774087
115	0x3d3ef209	0.04661754
116	0xba0873f7	-0.00052052684
117	0x3cb6a03c	0.022293203
118	0xbcc7f37e	-0.024408098
119	0xb8f6df26	-0.00011771759
120	0xbb180898	-0.0023198482
121	0x3cd138d5	0.025539795
122	0x3c86ac96	0.016439717
123	0x3cb2e8f9	0.021839606
124	0xbd4e483d	-0.05036186
125	0x3be0d63b	0.0068614758
126	0x3a7dd3e2	0.0009682757
127	0xbbc896af	-0.0061214785
128	0x3c129c4f	0.0089484
129	0x3a35c2d8	0.0006933636
130	0xba891af4	-0.0010460303
131	0x37702c1a	1.4315383e-05
132	0x3b0d890e	0.0021596584
133	0x3d007833	0.03136463
134	0x3d17383c	0.036918864
135	0x396c7dec	0.00022553623
136	0x373551e0	1.0807504e-05
137	0xbcd4bc37	-0.025968654
138	0xbbc98e20	-0.006150976
139	0xb911b110	-0.00013894239
140	0x3cb3a46f	0.021928994
141	0xbcd0f398	-0.02550678
142	0x37f095a8	2.8679919e-05
143	0xbc3bc575	-0.011460652
144	0xbb575fec	-0.003286357
145	0x3c14ae36	0.009074738
146	0x3bbb7ec7	0.0057219
147	0xbc65611a	-0.014000202
148	0x3cca3372	0.024682734
149	0x391ea1e5	0.00015128365
150	0x3cca761e	0.024714526
151	0x3b8c2538	0.0042768978
152	0x3847bf8b	4.7623686e-05
153	0xbb1a914b	-0.0023585137
154	0x3ce738ba	0.028225292
155	0x3d13a5e3	0.036046874
156	0xb8bf0587	-9.108619e-05
157	0x3c566506	0.013085609
158	0x38b0a188	8.4224215e-05
159	0x392ef751	0.00016686066
160	0x3d9eb2fa	0.07748981
161	0xbd684c35	-0.0567133
162	0xbceffb16	-0.029294532
163	0x3bd2045b	0.0064092106
164	0xbd99b39b	-0.0750496
165	0xbc60b120	-0.013714105
166	0x3ba834b6	0.0051332368
167	0x3cacf8ec	0.021114789
168	0xbd886e5e	-0.06661676
169	0xbcf7aa99	-0.030232714
170	0xbad3110c	-0.0016103103
171	0x3688c342	4.075847e-06
172	0xbc49fae4	-0.012327883
173	0xbaa78627	-0.0012781069
174	0xbd236129	-0.03988758
175	0xbcf1781a	-0.029476214
176	0x3b4cb702	0.003123701
177	0xba814300	-0.0009861887
178	0xbc3cdd37	-0.011527351
179	0x3cb2cbff	0.021825789
180	0x3c4c9932	0.0124876965
181	0xbbdeb1a5	-0.006796079
182	0xbc84ddca	-0.016219039
183	0xbd4022db	-0.04690824
184	0x3d8163b3	0.06317844
185	0x3dbdf408	0.09275061
186	0xb71fe8bf	-9.531329e-06
187	0xbc593ef5	-0.013259639
188	0xbd7cf1af	-0.061753925
189	0xbda02d9d	-0.078212
190	0x3d2f295a	0.042764045
191	0x3b362cb2	0.0027797637
192	0xba342dc8	-0.0006873277
193	0x3b0c121f	0.0021373106
194	0xb52290e0	-6.0560524e-07
195	0x3d9cd8dc	0.0765855
196	0xbbba99b9	-0.0056945947
197	0xbbce2ef6	-0.0062922193
198	0x3d57e6db	0.052710395
199	0x37d5f61e	2.5506186e-05
200	0x3bf58e23	0.0074937507
201	0x3a785698	0.00094733527
202	0x3b62a828	0.0034585092
203	0xb848453f	-4.7748206e-05
204	0xbb40bd7e	-0.002940982
205	0x3d88702f	0.06662022
206	0xbd8bc808	-0.06825262
207	0xbce83bd1	-0.028348835
208	0xbd445342	-0.047930963
209	0xb41b3bc4	-1.4457243e-07
210	0xbd535fb6	-0.05160495
211	0x37e3beef	2.714942e-05
212	0x3cf01f86	0.029311907
213	0xbc8c37f2	-0.01711652
214	0x3cdbbbcf	0.026822953
215	0xbb8ff923	-0.004393713
216	0xba4e2475	-0.0007863709
217	0x3d1b8686	0.03797009
218	0xbd1a94ce	-0.037739567
219	0x3be6c025	0.0070419484
220	0xba18a4ae	-0.0005822879
221	0x3d893fb0	0.067016006
222	0x3dc311c2	0.095248714
223	0xbd0f92e9	-0.035052214
224	0x3cc64fa5	0.0242079
225	0x3bd259a0	0.0064193755
226	0x38e2cb08	0.00010814337
227	0xbb8a5220	-0.004221216
228	0xbcad5229	-0.021157341
229	0x3911524d	0.00013858937
230	0xb8c15bd9	-9.220065e-05
231	0x39741d2e	0.00023280524
232	0xb69b4d87	-4.6283853e-06
233	0xbd31fe55	-0.04345544
234	0x3ccd61bc	0.025071017
235	0xba21dce4	-0.0006174578
236	0x32102d00	8.392135e-09
237	0xbdb1185e	-0.08647226
238	0xbc1136ab	-0.0088631315
239	0xb964805d	-0.00021791593
240	0x3d8bce1c	0.068264216
241	0x3cbe4c99	0.023229884
242	0x37ea29ff	2.791453e-05
243	0x3caca4e5	0.021074722
244	0x3ad9ce1b	0.001661721
245	0x3dab668d	0.083691694
246	0xbb9f9f72	-0.0048713023
247	0xbd58f863	-0.052971255
248	0x3d9da1fa	0.0769691
249	0x38b8f6e0	8.819788e-05
250	0xbd5061e3	-0.050874602
251	0xbd1a4dfd	-0.03767203
252	0xb4204658	-1.4926752e-07
253	0xbb40e6e8	-0.0029434506
254	0x3d54e812	0.051979132
255	0x3c6c70d8	0.014431201

layers.2.bias f4 [300]
0	0x3b9573dc	0.0045609307
1	0x3c432c2a	0.011912385
2	0xbd651b69	-0.055934343
3	0x3d8b9d32	0.06817092
4	0x3da5784e	0.08079587
5	0xbcaacd23	-0.02084977
6	0x3cc6700c	0.02422335
7	0xbab9b281	-0.0014167578
8	0xb800f2a9	-3.0743573e-05
9	0x3c5a4c7b	0.013323898
10	0xbb7a58cd	-0.0038199902
11	0x3b348607	0.0027545707
12	0x3d854f09	0.065092154
13	0xbba6b334	-0.0050872806
14	0x3da12409	0.07868201
15	0x3c5d922f	0.013523622
16	0xbd404e1c	-0.04694949
17	0x35f406dc	1.8181413e-06
18	0x3db4f7cf	0.08836328
19	0x3d9e9b71	0.07744492
20	0xb5f645f0	-1.8348783e-06
21	0x3da09729	0.078413315
22	0x3bc0f9b0	0.00588914
23	0x3d63123c	0.05543731
24	0xb945a5d2	-0.00018849157
25	0x3c981662	0.01856536
26	0x3cfcccae	0.030859318
27	0x3b6a3a4e	0.0035740319
28	0x3d065fa1	0.032806043
29	0x3d47d6c5	0.048788805
30	0xbc150763	-0.009095999
31	0xbc391009	-0.011295327
32	0x3da990ad	0.08279548
33	0xb9bf5646	-0.00036494638
34	0xbb646d0a	-0.0034855031
35	0xbc1b9345	-0.009495561
36	0x3cd6d58f	0.02622488
37	0x393406de	0.00017168696
38	0xb8addfdf	-8.290982e-05
39	0xbb999345	-0.0046867453
40	0x387c951a	6.0220344e-05
41	0x3c03c566	0.008042669
42	0xbbcbc5ea	-0.0062186616
43	0xbbeba9c0	-0.0071918666
44	0x3d575e85	0.052580375
45	0x3d5b15eb	0.0534877
46	0xbca28131	-0.019836994
47	0x3d957a58	0.07298726
48	0xbb27db4c	-0.002561289
49	0x3d5501c4	0.052003637
50	0xb7588685	-1.29059235e-05
51	0xbdb19766	-0.08671455
52	0xb9129f7b	-0.00013983056
53	0xbbcf00b4	-0.0063172225
54	0xb99087e3	-0.00027567064
55	0x3d3433ce	0.043994717
56	0xbd523925	-0.05132403
57	0xbcb39189	-0.021919983
58	0x3cfebc7a	0.031095732
59	0xbd22ddf5	-0.039762456
60	0x3da288e8	0.07936269
61	0xbd698030	-0.057007015
62	0x3706c384	8.032544e-06
63	0xbc54fa68	-0.012999155
64	0xbd8bbae9	-0.0682276
65	0x3d16351a	0.036671735
66	0x3d44c01b	0.04803477
67	0x3c9a0f84	0.018806227
68	0x3be115a6	0.006869036
69	0xb52447b0	-6.119908e-07
70	0x3d9d2f4b	0.07675036
71	0xbd5f6e6a	-0.05454866
72	0xb4e6e6cc	-4.3008765e-07
73	0xbad1c681	-0.0016004593
74	0x3b1ef31a	0.0024253787
75	0x3d78192d	0.060570884
76	0xbd0bcd46	-0.03413131
77	0xbd318de6	-0.043348216
78	0x3d90370d	0.0704175
79	0xbd10247b	-0.03519104
80	0xbc185d48	-0.009299584
81	0x3ce19b4d	0.027539873
82	0xbd37cc5d	-0.04487263
83	0x3d848317	0.06470316
84	0xbd8a0cf7	-0.06740754
85	0xb5af0c2c	-1.3042059e-06
86	0xbc9d1a33	-0.019177532
87	0x37969f94	1.7955703e-05
88	0x3dbdea6d	0.09273229
89	0xbd914a43	-0.070942424
90	0x3da12da4	0.078700334
91	0x3d405607	0.046957042
92	0x3d268fcb	0.040664475
93	0xb755545a	-1.2715429e-05
94	0x3dcb398b	0.09923085
95	0xbc36556c	-0.011128765
96	0xbb2d4a4d	-0.0026441992
97	0x3d8e0811	0.06935132
98	0x3bbb00e4	0.0057068933
99	0xbd299bf8	-0.04140851
100	0x3d923f85	0.07141022
101	0x3d7e64a4	0.062107697
102	0x3d92ed33	0.071741484
103	0x3d99165c	0.07474968
104	0xbb865b83	-0.0041002645
105	0xbccd2edf	-0.025046764
106	0x384eb293	4.9280537e-05
107	0xb6daa8c9	-6.5165555e-06
108	0x3c6dd251	0.014515475
109	0xba631e44	-0.0008663873
110	0x3d56cfab	0.05244414
111	0x3c84b11c	0.016197734
112	0x3da6b202	0.08139421
113	0x3bbcb987	0.0057594213
114	0xbce6b5f1	-0.028162928
115	0xbd93207a	-0.07183929
116	0x3d89004d	0.066895105
117	0xbc9999bb	-0.018750062
118	0xbc1b211f	-0.009468346
119	0x3a3b9021	0.0007154961
120	0x3d9d6393	0.07685008
121	0x3ccdbebc	0.025115363
122	0x3d60bf12	0.05486972
123	0x3d7b15d2	0.061300106
124	0xbc0d9a4b	-0.008642743
125	0xbbfd2ce7	-0.0077263
126	0x3d3b74b9	0.045765612
127	0x3dc981e8	0.09839231
128	0x381c13c3	3.7211703e-05
129	0x3d3ef096	0.04661616
130	0xbda6416a	-0.081179455
131	0x3d2200aa	0.039551415
132	0x39065249	0.0001280989
133	0x3a86a2c1	0.0010271893
134	0x3d36d6d3	0.044638466
135	0xbbd11d13	-0.0063816397
136	0xbc93e2cf	-0.018052487
137	0x3bda3b44	0.006659897
138	0x3d35edbe	0.04441618
139	0x3bbcb7a0	0.0057591945
140	0xb754c93e	-1.268304e-05
141	0xbd0852f7	-0.033282246
142	0x3633479c	2.671476e-06
143	0x3d0732b7	0.03300735
144	0xbda3482b	-0.07972749
145	0x3d911056	0.07083194
146	0x3adfc6b0	0.0017072763
147	0x3a85c3d1	0.0010205453
148	0xbb544ef7	-0.00323957
149	0xbce1d506	-0.027567398
150	0x3d214da8	0.0393807
151	0x36d59df4	6.366283e-06
152	0x3cfb18b2	0.030651424
153	0xb98cfc98	-0.00026891078
154	0xbbbcf9d4	-0.0057670865
155	0x3dc19846	0.09452872
156	0x3dbdbfa9	0.09265072
157	0xbd97c16f	-0.074099414
158	0x3abd722c	0.0014453582
159	0x3d9c8a08	0.07643515
160	0xbb33c7a7	-0.0027432234
161	0xbdca854d	-0.09888706
162	0x3d8cc22d	0.068729736
163	0x3991b890	0.00027794065
164	0x3aae5c78	0.0013302704
165	0xbbe45a21	-0.006968752
166	0xbd2c74f8	-0.042103738
167	0x3beb4108	0.007179383
168	0x3c8fbb2f	0.01754531
169	0xbc03d606	-0.008046633
170	0xbda57a03	-0.080799125
171	0x35cd6f72	1.5306125e-06
172	0xba03d77d	-0.00050293637
173	0xbd5858ee	-0.052819185
174	0x3c09cec0	0.008411109
175	0x3d6cd00c	0.057815596
176	0xbb2adfb3	-0.0026073277
177	0x3bdc3fa8	0.0067214556
178	0x3af3eefa	0.0018610649
179	0xbd973dd0	-0.07384837
180	0x3d8f0254	0.06982866
181	0xbbb17519	-0.0054155705
182	0x3d5a0d50	0.053235352
183	0x3c8e2c44	0.017355092
184	0x3bec350d	0.0072084726
185	0xbd44857c	-0.047978863
186	0xb941ff6b	-0.00018501065
187	0x398b1de8	0.00026534428
188	0x39ee3ea9	0.00045441583
189	0x3d50a7fa	0.050941445
190	0x3c6cf817	0.014463446
191	0xbb849b25	-0.004046815
192	0x3cb9e4af	0.022692053
193	0x3ab2bdf7	0.0013636936
194	0x3ade6674	0.0016967789
195	0x3d09e9bc	0.033670172
196	0xbbdf9794	-0.0068234894
197	0x3d0f8b38	0.03504488
198	0x3ccf41d1	0.025299938
199	0x3d36c2b3	0.044619273
200	0xbd5f920d	-0.054582644
201	0xbc8f8122	-0.01751763
202	0xbdcae40a	-0.09906776
203	0x3d1c5fb4	0.038177207
204	0xb82ead8c	-4.164646e-05
205	0x3ce74096	0.02822904
206	0xb713224a	-8.769866e-06
207	0xbb8f4ef8	-0.0043734275
208	0xbc4f44e6	-0.012650704
209	0x3d199a43	0.03750063
210	0xbd80779d	-0.062728144
211	0xbb2826d0	-0.00256579
212	0x3b58bf81	0.003307313
213	0xbc6270e9	-0.013820865
214	0xb8924948	-6.975472e-05
215	0xbab9c8b7	-0.0014174198
216	0x36b7c790	5.477057e-06
217	0x3805c7b8	3.1895674e-05
218	0x379a0974	1.8362633e-05
219	0x3c7201f6	0.014770975
220	0xbb1b3b97	-0.0023686641
221	0xbab5ee9e	-0.0013880318
222	0x3afa3ea9	0.001909216
223	0x3c1a5d12	0.009421604
224	0x3842d272	4.6449197e-05
225	0x3dca098a	0.09865101
226	0x3c2fbf78	0.010726802
227	0xbc4caddb	-0.012492622
228	0x368a0da9	4.1143107e-06
229	0xbc3e4395	-0.0116127925
230	0xb6fda61a	-7.5593243e-06
231	0x3d9992c7	0.07498699
232	0x3c4e61d2	0.012596564
233	0x3d231674	0.039816335
234	0x3d404368	0.046939284
235	0xbc0f80c8	-0.008758731
236	0xbcc617bd	-0.024181241
237	0xbd32dec8	-0.043669492
238	0x384f9dc4	4.9499577e-05
239	0xbd465070	-0.048416555
240	0x3db8874e	0.09010182
241	0x3c8a03ac	0.016847454
242	0x361f763d	2.376167e-06
243	0xba83ecf2	-0.0010065122
244	0xbb450ff3	-0.003006932
245	0x3dab1f15	0.08355538
246	0xbd8c5d81	-0.06853772
247	0x3bef2d1a	0.0072990777
248	0xbd5c61be	-0.05380415
249	0x3c9b61c0	0.01896751
250	0x3ca470b2	0.020073269
251	0x379f84ef	1.9016179e-05
252	0xbd0bb1dd	-0.03410517
253	0x3c7eb0aa	0.01554505
254	0xbcdac266	-0.026704025
255	0x3c8eebe0	0.017446458

layers.4.weight f4 [400, 300]
0	0xb92cc410	-0.00016476237
1	0xbc93cc1d	-0.018041665
2	0xb8dd0fd0	-0.000105410465
3	0xb7b81430	-2.194391e-05
4	0x3c01d855	0.007925113
5	0xb98cf3cc	-0.00026884524
6	0xbbdc6590	-0.0067259744
7	0xb6d1f7e8	-6.2575455e-06
8	0xb8ba1ff6	-8.875124e-05
9	0xb940aec2	-0.00018375649
10	0x339f0a20	7.405856e-08
11	0xb9067ac0	-0.00012824964
12	0xbca4dc19	-0.020124482
13	0x389c4e9e	7.453303e-05
14	0xbb9b6ecf	-0.004743434
15	0x391660d4	0.00014341186
16	0xb7b197fd	-2.117082e-05
17	0x372b0a8c	1.019485e-05
18	0x3c2627bc	0.010141309
19	0xbc4f0440	-0.012635291
20	0x35fa921f	1.8668978e-06
21	0x3cfeed3d	0.031118983
22	0x38d9140c	0.000103511
23	0xb9e6c598	-0.00044016237
24	0x379a7960	1.841475e-05
25	0x3cb23cf7	0.021757586
26	0x3b80f215	0.0039351084
27	0x35c13b4f	1.4396882e-06
28	0x3b519e49	0.0031985214
29	0x3c2c962c	0.010533851
30	0xba50338a	-0.000794225
31	0xbcb2df5a	-0.021835018
32	0x3c527e28	0.012847461
33	0xb9038c6d	-0.00012545446
34	0x38a0ee79	7.6738135e-05
35	0x3afa27c4	0.0019085337
36	0xb8e770e1	-0.00011035964
37	0xb7c99bcb	-2.4033614e-05
38	0x38007a95	3.063174e-05
39	0x382cf04b	4.1231786e-05
40	0x353ebd4c	7.105598e-07
41	0x3c1887e4	0.009309743
42	0xb8ecfb1c	-0.0001130013
43	0xb8362734	-4.3428692e-05
44	0xbc41ac69	-0.011820891
45	0xb8f4602c	-0.0001165274
46	0xbbb4d4c3	-0.0055185272
47	0x37c3757b	2.3300518e-05
48	0x360bfeb2	2.0860866e-06
49	0x3b91eb89	0.004453127
50	0x37754cd0	1.4621022e-05
51	0xb88c5cab	-6.692981e-05
52	0x3831f45c	4.2427666e-05
53	0xb786d628	-1.6073769e-05
54	0x381fe330	3.812014e-05
55	0xba54af5c	-0.0008113289
56	0xbc2421cf	-0.010017826
57	0x370cc4c4	8.390463e-06
58	0x3bd1151b	0.00638069
59	0xb8e37eff	-0.00010847858
60	0xb91bb8b1	-0.00014850755
61	0xb8e71b58	-0.000110200315
62	0xb83622f9	-4.3424752e-05
63	0x369a6c84	4.6021905e-06
64	0xbc7eb13b	-0.015545185
65	0xb8a9636c	-8.077067e-05
66	0xbbac485d	-0.00525765
67	0xbbf75cd3	-0.0075489073
68	0xbc1146cd	-0.008866978
69	0xb5be009c	-1.415628e-06
70	0xbc37a64a	-0.01120908
71	0x35252649	6.1523e-07
72	0x34c07840	3.585028e-07
73	0x37c6684b	2.3652005e-05
74	0xb90755bd	-0.00012906543
75	0x3bd88235	0.0066073188
76	0x364544b6	2.9395283e-06
77	0xba6b65cb	-0.0008979707
78	0xbc669f56	-0.014076075
79	0xb877fb58	-5.912347e-05
80	0xb974ae56	-0.00023334599
81	0xb9116bee	-0.00013868485
82	0x3d080961	0.03321207
83	0xbc11222a	-0.008858243
84	0xbcf21abd	-0.029553765
85	0x37ddc697	2.6437729e-05
86	0xb9abb742	-0.000327522
87	0x372936d9	1.0085955e-05
88	0xbb97b37e	-0.0046295514
89	0xb824d64c	-3.9300226e-05
90	0xb8b08fb7	-8.419103e-05
91	0x3c129660	0.008946985
92	0xbc70bcad	-0.014693421
93	0xb72f19ad	-1.0436791e-05
94	0x3b7e51fe	0.0038806195
95	0xb8fb5329	-0.000119841025
96	0xb7e9c3b7	-2.7866901e-05
97	0x3c72fc25	0.014830624
98	0xba76c4c5	-0.0009413476
99	0x35be1cd0	1.4164489e-06
100	0xbbaf2ee2	-0.005346165
101	0x39076a32	0.00012914164
102	0x3bb99576	0.005663569
103	0xbaf92280	-0.0019007474
104	0x3cb5c467	0.022188378
105	0x37d158be	2.4956065e-05
106	0xbadd0f33	-0.0016865492
107	0xb9053747	-0.00012704461
108	0x37c37b73	2.3303297e-05
109	0x3910d1d8	0.00013811083
110	0x3c66a8da	0.014078343
111	0x3c20dfef	0.009819015
112	0x3c219916	0.009863159
113	0xbca1a9e9	-0.01973434
114	0x3b8fa430	0.0043835863
115	0x3c73947f	0.014866947
116	0xbcebd959	-0.028790163
117	0xbbcd672c	-0.0062684026
118	0xb60dc0b0	-2.1122796e-06
119	0xb61bd336	-2.321974e-06
120	0xbc64042a	-0.013917008
121	0xbc91f427	-0.017816616
122	0xb881edd0	-6.1954954e-05
123	0xb7c62456	-2.362036e-05
124	0x367720ca	3.6824954e-06
125	0xb6fda24e	-7.5588823e-06
126	0x3c0678fd	0.008207557
127	0x3b4f4198	0.003162479
128	0x3622f4a8	2.428229e-06
129	0x33fcfb40	1.17803665e-07
130	0xbc508828	-0.012727775
131	0x3b60ff93	0.0034332022
132	0xb5d89dc8	-1.6139174e-06
133	0x382d65d6	4.1341256e-05
134	0x3c4cb5a4	0.012494478
135	0xb84ed825	-4.9315528e-05
136	0x388b8920	6.653578e-05
137	0x37df5890	2.6624912e-05
138	0x3ca37aed	0.019956077
139	0xb28d1f80	-1.6428885e-08
140	0x36179684	2.2588365e-06
141	0xbc99f9cc	-0.01879587
142	0xb800569f	-3.059825e-05
143	0xba419926	-0.00073851866
144	0xba7a32e6	-0.00095443276
145	0xbbee72ba	-0.00727686
146	0xbc194dd3	-0.009356934
147	0xb88afc4f	-6.627349e-05
148	0xbc27b85d	-0.010236827
149	0xbb905e9f	-0.004405811
150	0xb8b901ca	-8.821821e-05
151	0x34a60cc8	3.092921e-07
152	0xb70337ce	-7.8212015e-06
153	0xb8d89bb7	-0.00010328687
154	0x3c731b83	0.014838102
155	0xbc59d19b	-0.013294603
156	0xbbe0d42a	-0.0068612294
157	0xbc8d59ba	-0.017254699
158	0xb7d4f50e	-2.5386482e-05
159	0x3a2c79e9	0.00065794453
160	0x37a54e1f	1.970591e-05
161	0xbca064bf	-0.01957929
162	0x3911010c	0.00013828668
163	0xb819fe11	-3.671466e-05
164	0x3b444bf2	0.0029952493
165	0xb8fba024	-0.00011998441
166	0xbcfcd437	-0.03086291
167	0x3730f73f	1.0547984e-05
168	0x3b9babf2	0.004750722
169	0x373caf4b	1.1246487e-05
170	0xbc835d40	-0.016035676
171	0xb5d1b440	-1.5624173e-06
172	0x381300c1	3.5048233e-05
173	0xbc4d7c11	-0.012541787
174	0xb76e625d	-1.4208807e-05
175	0xb683ff02	-3.933791e-06
176	0x3761f70a	1.3468563e-05
177	0x370eeeec	8.519488e-06
178	0xb9978463	-0.000288996
179	0xba6fc919	-0.00091470924
180	0x3798e921	1.8228371e-05
181	0x377f1c10	1.5205718e-05
182	0xbc14b194	-0.009075541
183	0xb978eefd	-0.00023740153
184	0xbc1cb890	-0.0095654875
185	0xb9b3b241	-0.0003427435
186	0xb6eee19e	-7.119218e-06
187	0xb81cc47b	-3.7376285e-05
188	0x390bb03c	0.00013321725
189	0x383fc73e	4.5723507e-05
190	0xb65d36a3	-3.296337e-06
191	0x355231f0	7.8303765e-07
192	0x3c1572c3	0.0091216
193	0xb7dd1075	-2.6352916e-05
194	0x3903d869	0.00012573753
195	0xbb8406d8	-0.004029136
196	0x37dcc1a5	2.6316216e-05
197	0xbabb488c	-0.0014288588
198	0xb807bdc9	-3.236326e-05
199	0x3cc20657	0.023684664
200	0x3bca3691	0.0061710556
201	0xbcbe146d	-0.0232031
202	0xba811d52	-0.0009850657
203	0xb9c6d2d0	-0.0003792257
204	0x369e2000	4.7124922e-06
205	0x3c0313a1	0.008000285
206	0x375a4189	1.3009071e-05
207	0xb867ad64	-5.5236174e-05
208	0x372a4734	1.0149368e-05
209	0x3c1e94c2	0.009679021
210	0x3c97cdf3	0.018530821
211	0xb9115b4b	-0.00013862287
212	0xb8b3e17e	-8.577386e-05
213	0xb855a0a2	-5.093276e-05
214	0x37bf9929	2.2840295e-05
215	0xb901627e	-0.0001233909
216	0x38c5b262	9.4269184e-05
217	0x37314a2c	1.0567292e-05
218	0x37e9d813	2.7876382e-05
219	0xb9851ba1	-0.00025388322
220	0x387969ad	5.9464644e-05
221	0x382948ad	4.0360424e-05
222	0xb906573e	-0.00012811736
223	0xb7473582	-1.1873783e-05
224	0xb7349e25	-1.0765657e-05
225	0x3ce82c8e	0.028341558
226	0xb95059b8	-0.00019869849
227	0x379502df	1.7763521e-05
228	0xb2b084c0	-2.0549464e-08
229	0xb9b3a47f	-0.000342641
230	0xb5d314b2	-1.5726748e-06
231	0x3c738e72	0.014865505
232	0x39e6b140	0.0004400108
233	0xb6a129cc	-4.8030397e-06
234	0x3be2ded0	0.006923534
235	0xbcc4aace	-0.024007227
236	0xbb90e411	-0.004421719
237	0xbd079a6d	-0.033106256
238	0x38ffbf7b	0.000121950136
239	0xb75e2725	-1.3241345e-05
240	0xb9200650	-0.0001526114
241	0xb98277cc	-0.00024884788
242	0x35efd2f6	1.7868285e-06
243	0x3b7b108b	0.003830942
244	0x38430299	4.6494042e-05
245	0x3c3a476c	0.011369567
246	0x3a2cb3a1	0.0006588046
247	0xbccc2ded	-0.024924243
248	0xbca8735e	-0.020562824
249	0xb8c9c2ad	-9.620688e-05
250	0x3739b790	1.1069598e-05
251	0xb7e376c4	-2.7115813e-05
252	0xbcd2383a	-0.025661577
253	0xbb006506	-0.0019591465
254	0xbc153792	-0.009107487
255	0xb8f40db1	-0.00011637377

layers.4.bias f4 [400]
0	0xbc4640c8	-0.012100406
1	0x3d1953f3	0.037433576
2	0xbc74face	-0.014952375
3	0x3cf38940	0.029728532
4	0x39587471	0.00020642743
5	0xbd1024f3	-0.035191488
6	0xbc49d1b0	-0.01231806
7	0xbc509fa9	-0.012733378
8	0x3caf55dd	0.021403247
9	0x3d4c40b0	0.04986638
10	0x3a8caac0	0.001073204
11	0x3d28d5cd	0.04121952
12	0xbb892ad4	-0.0041860137
13	0x3cb91abd	0.022595758
14	0x3d7b7b2c	0.061396763
15	0x3befa8fc	0.0073138457
16	0x388d6724	6.7426154e-05
17	0xba6f8d85	-0.00091382145
18	0x3a79b0a6	0.0009524919
19	0x3cd1f540	0.02562964
20	0xbbbb196b	-0.005709817
21	0x3c87d0ad	0.016578997
22	0x3aa3f9ea	0.0012510393
23	0x3c88214c	0.01661744
24	0x38f9d977	0.00011913751
25	0x3cbf04a0	0.023317635
26	0xb8f9a160	-0.00011903304
27	0x3d39422f	0.045229133
28	0x3cd053d1	0.025430592
29	0x37fce71e	3.0148363e-05
30	0xbbab8757	-0.0052346396
31	0x3b335c47	0.0027368234
32	0xb96636f1	-0.00021954977
33	0xbced49f2	-0.028965924
34	0x397e532e	0.00024254314
35	0x3cc2da73	0.023785805
36	0x3a9c17d6	0.0011908959
37	0xba127090	-0.0005586231
38	0x3c9bfdb0	0.019041866
39	0x3bb88f3c	0.0056323092
40	0x3d3a9cad	0.045559574
41	0xbbceb274	-0.0063078944
42	0x3c559b59	0.013037526
43	0x38fbea6f	0.00012012279
44	0x3d6638c1	0.05620647
45	0x3d162d15	0.036664087
46	0x3d181c99	0.037136648
47	0x3c2ba8b3	0.010477233
48	0xbd023c50	-0.0317958
49	0x3cc5d2b9	0.024148332
50	0xbd08d0bc	-0.03340219
51	0xbcde55b2	-0.027140472
52	0x3cc0c474	0.023531176
53	0x3d114673	0.035467576
54	0x3d091645	0.033468504
55	0xbbbdfd8c	-0.0057980474
56	0xbbfb9944	-0.007678183
57	0x38cf90f1	9.8975266e-05
58	0xb7769d28	-1.4699333e-05
59	0x3bf075e1	0.007338271
60	0xbb2e4a6f	-0.002659466
61	0x3ccf4c82	0.025305036
62	0x3ae3a05a	0.0017366514
63	0x3ccb07cb	0.02478399
64	0x3ca7cc65	0.020483205
65	0x357464e4	9.10439e-07
66	0xbd1446db	-0.036200386
67	0x3d469b38	0.048487872
68	0x3d141cdf	0.036160346
69	0xbac134ed	-0.0014740505
70	0xbb46ba9f	-0.0030323637
71	0x3d4ba718	0.0497199
72	0xb9110a82	-0.00013832192
73	0xbb707bc2	-0.003669486
74	0x3d31c385	0.043399353
75	0xbb3f7055	-0.0029211242
76	0x3c90c244	0.017670758
77	0x3c7d2ff2	0.015453326
78	0x3c07b322	0.008282455
79	0x3784fb8c	1.5852762e-05
80	0x3859bf4f	5.1915e-05
81	0x391497df	0.00014170956
82	0x3d2d2049	0.042267118
83	0x3ca6048d	0.020265842
84	0xbc3ebdf1	-0.011641965
85	0xbcd4ec6c	-0.025991641
86	0x3917d6de	0.00014480526
87	0x39f1eb16	0.00046142255
88	0x3ccf25cd	0.02528658
89	0x39fa092a	0.00047690544
90	0xb9c58500	-0.0003767386
91	0x39099efa	0.00013124562
92	0xbc759057	-0.014988027
93	0x37281f65	1.002089e-05
94	0xb9bffed4	-0.0003662022
95	0x3cc22598	0.023699567
96	0x3cf52e32	0.029929254
97	0x3b9807b6	0.004639591
98	0xbc198cdf	-0.009371965
99	0x3bcd0dbe	0.0062577417
100	0xbd55b3b6	-0.05217334
101	0xbd52c004	-0.05145265
102	0xba3d69c4	-0.0007225538
103	0xbd36000d	-0.044433642
104	0x3d12bccc	0.035824582
105	0x3ca5d5c0	0.020243526
106	0xbc131761	-0.008977742
107	0x3ca57bd2	0.020200644
108	0xbcdff3a4	-0.027337857
109	0x3c249fa4	0.010047827
110	0xbb749220	-0.0037318543
111	0x3cf927bb	0.030414453
112	0x3cb8f600	0.02257824
113	0x39ac0de7	0.00032816755
114	0xb8265851	-3.9659735e-05
115	0xbb88dde6	-0.004176843
116	0x3d082898	0.03324184
117	0xbbf5b165	-0.0074979537
118	0x3d329d40	0.043606997
119	0x3ca2d084	0.019874819
120	0xbcacd259	-0.021096395
121	0x3b8b6d0d	0.004254943
122	0x3ca424f8	0.02003716
123	0x3d13aa47	0.03605106
124	0x3c807d17	0.015684647
125	0x3cda6a7e	0.026662108
126	0xbd06e0e6	-0.032929324
127	0xbb8277c2	-0.0039815614
128	0x3d34a72b	0.044104736
129	0x3c8e2c0c	0.017354988
130	0x3ca8d2ce	0.020608332
131	0xb8b342f6	-8.5478576e-05
132	0xb6b5ec28	-5.4217126e-06
133	0xb86af953	-5.602215e-05
134	0x382caa8a	4.1166822e-05
135	0x3d44b7b9	0.048026774
136	0x3cd8162b	0.026377758
137	0x3a82a3bf	0.0009967013
138	0x3c37c86c	0.011217218
139	0x3cd6ad78	0.026205763
140	0xbcb67216	-0.022271197
141	0x39d3ff9e	0.00040435506
142	0xbbca0335	-0.006164933
143	0x3c226f3b	0.009914215
144	0xb5a5003c	-1.2293526e-06
145	0xbb809857	-0.0039244103
146	0xbbc96f55	-0.006147305
147	0xbd01b57c	-0.031667218
148	0xbc51eed7	-0.0128132915
149	0xbc4622cf	-0.01209326
150	0x3d06ca01	0.03290749
151	0x3c81b93b	0.015835395
152	0x3d2b6900	0.041848183
153	0xbb87033f	-0.00412026
154	0x3b51e126	0.0032025068
155	0xbce3de3e	-0.027815934
156	0x38904e0e	6.880994e-05
157	0x3d0e7829	0.034782562
158	0x3d65a017	0.056060877
159	0xb8c1b4f8	-9.236665e-05
160	0x3b9e55ff	0.004832029
161	0x3d283468	0.041065603
162	0xbbc73b98	-0.006080102
163	0xba47c2f2	-0.00076202967
164	0xb945f312	-0.00018877935
165	0xb82ec8fa	-4.1672007e-05
166	0xb8ba7364	-8.890664e-05
167	0xbce0f32a	-0.0274597
168	0xbc41f466	-0.011838054
169	0x3d0d6e49	0.034529004
170	0xb8b66966	-8.698068e-05
171	0xb9cdbd32	-0.00039241608
172	0x3d266d02	0.0406313
173	0x3b7fee14	0.0039051818
174	0xbc6fad4b	-0.014628719
175	0xb85a7d6c	-5.209206e-05
176	0x38aaf29c	8.151421e-05
177	0xbc8d6d33	-0.017263984
178	0x3b9213fe	0.0044579497
179	0x3d63077e	0.055427067
180	0xbd04dcae	-0.03243702
181	0x3a3594d7	0.0006926781
182	0x3d3fd490	0.046833575
183	0x3cc30e16	0.023810428
184	0x3d03df7e	0.03219556
185	0x3d6d2780	0.057899
186	0xbc5849bd	-0.013201174
187	0x3c03f0e5	0.008053039
188	0x3d627fde	0.055297725
189	0xb685b4b6	-3.9847464e-06
190	0xbd07677c	-0.033057675
191	0xbd095be0	-0.033534884
192	0x3d3108ea	0.04322139
193	0xbcd7082b	-0.026249012
194	0xbca5181c	-0.020153098
195	0x3c006ef9	0.007838958
196	0x3947afc6	0.000190436
197	0xbb77152b	-0.0037701826
198	0xbc091d98	-0.008368872
199	0xb699d2b6	-4.5842853e-06
200	0x3caa256e	0.020769801
201	0x3cdf7666	0.027278136
202	0xbd15547a	-0.036457516
203	0xbcf5459b	-0.029940417
204	0x3ce1ba1c	0.027554564
205	0x3d4c09f2	0.049814172
206	0xb7cb7eea	-2.4258585e-05
207	0xb8097dde	-3.278057e-05
208	0x3d2e1a99	0.042505834
209	0x3d5489aa	0.0518891
210	0x3c4c6259	0.01247462
211	0x3bb8fa4f	0.0056450735
212	0x38c0886e	9.1806854e-05
213	0xbc37a561	-0.011208863
214	0xbd46000a	-0.04833988
215	0x3cac8f6e	0.021064486
216	0x3bb8e436	0.0056424392
217	0x3bdd9c5e	0.006763025
218	0xbd23ddcd	-0.040006448
219	0x3917bda4	0.00014471129
220	0xb926fedc	-0.00015925936
221	0x3ac4cbf2	0.0015014394
222	0x37a6f380	1.990213e-05
223	0xbca7d93a	-0.020489324
224	0x3b44d413	0.0030033633
225	0xb8889e1e	-6.514437e-05
226	0x3a0d14b9	0.0005381811
227	0xbc7246cb	-0.014787386
228	0xbd6807d4	-0.05664809
229	0xbc60ed22	-0.013728412
230	0x3c22e7ac	0.00994293
231	0xbc414c60	-0.011797994
232	0x3c45ee5a	0.012080753
233	0x3c36d00e	0.011158003
234	0x385ba7e0	5.2370015e-05
235	0x3c648635	0.013948013
236	0x3785f235	1.5967622e-05
237	0x397dee7c	0.00024216803
238	0xbd0d5350	-0.03450328
239	0x3cbbd260	0.022927463
240	0xbc004c61	-0.00783071
241	0x3d3e9cc6	0.04653623
242	0x3a9f3a21	0.0012148061
243	0xbc3d6586	-0.01155985
244	0x38d389e5	0.00010086949
245	0x38df5c9d	0.00010650719
246	0xb88ecc0f	-6.8090965e-05
247	0xbcca42d8	-0.024690077
248	0x3bdd1916	0.0067473752
249	0x3c326c7a	0.010890121
250	0xbd41f4ce	-0.047352605
251	0xbc8082fc	-0.015687458
252	0xbd2a8eb7	-0.04164001
253	0xbc621893	-0.013799804
254	0xbce674b4	-0.02813182
255	0x3d3d5e03	0.046232235

layers.6.weight f4 [1, 400]
0	0xbbcf7d2c	-0.0063320603
1	0x3d26407e	0.04058885
2	0xbc3b6bd2	-0.011439281
3	0xbc9451a6	-0.01810534
4	0x3b734d1f	0.0037124825
5	0xbd0a93c5	-0.03383233
6	0x3a2c305d	0.0006568486
7	0xbc4e5c7a	-0.01259529
8	0xbb1aea1a	-0.002363807
9	0x3c0dc388	0.008652575
10	0xbb17c7dc	-0.0023159897
11	0xbb633786	-0.0034670546
12	0x3b94d66d	0.004542163
13	0xbd9c69c4	-0.07637361
14	0x3d2f7de4	0.042844668
15	0xbd0c9eab	-0.034331005
16	0x3796e033	1.7985794e-05
17	0xbb7c8e1f	-0.003853686
18	0x39f6dc1b	0.00047084768
19	0x3c804b1a	0.015660811
20	0xb7de3a43	-2.6491593e-05
21	0xbcd6fed1	-0.026244553
22	0x3b097a01	0.002097726
23	0x3b9050cf	0.0044041644
24	0xb8d13478	-9.97567e-05
25	0x3d581c95	0.052761633
26	0x3ad57a6e	0.0016287097
27	0xbc6e906b	-0.014560799
28	0xbc8c44ff	-0.017122744
29	0x381cdf9e	3.7401558e-05
30	0x3b977516	0.004622112
31	0xbaff5746	-0.0019480966
32	0x3a5b0cb2	0.0008356079
33	0x3d0f08cc	0.0349205
34	0x3bacc30a	0.005272274
35	0x3b9c4d78	0.004769977
36	0xbc3ae3c7	-0.011406845
37	0x3b4d1186	0.0031290962
38	0x3d0cb4e6	0.034352206
39	0xbcdfe62b	-0.027331432
40	0xbc2a6dac	-0.010402124
41	0x3c76e69d	0.015069631
42	0xbd11fa42	-0.035639055
43	0x3b8a5536	0.0042215837
44	0x3c7f06fb	0.015565629
45	0xbc82c147	-0.015961302
46	0xbc676ddd	-0.014125315
47	0xbdadbe2f	-0.0848354
48	0xbd491c97	-0.04909953
49	0xbcae45cd	-0.021273518
50	0xbd023e8b	-0.031797927
51	0x3d11803d	0.03552269
52	0x3d5eceef	0.054396566
53	0x3d4d47d4	0.05011733
54	0xbd0420e3	-0.032257926
55	0xbb1b858a	-0.0023730719
56	0x3a81d2b9	0.0009904719
57	0x3acb957e	0.0015532223
58	0x3934e715	0.00017252222
59	0xbcf78802	-0.03021622
60	0x3cfe171b	0.031016877
61	0x3cfd84fc	0.030947201
62	0xbbda3bc9	-0.006659959
63	0xbcae6d5f	-0.021292387
64	0xbd23237b	-0.03982876
65	0x3b472a74	0.0030390294
66	0xbc71a238	-0.014748149
67	0x3cf27537	0.029596908
68	0x3bb1a2a5	0.005421
69	0x383a4672	4.4411463e-05
70	0x3c9ffebf	0.019530652
71	0x3d0eabdd	0.03483187
72	0x3a894c87	0.0010475077
73	0xbcae2558	-0.021258041
74	0xbb353574	-0.0027650269
75	0x3a785d73	0.0009474374
76	0xbb973adc	-0.004615171
77	0xbb2beec5	-0.0026234847
78	0xbcc4541a	-0.023965884
79	0x38a135d9	7.687108e-05
80	0xb728c4bb	-1.0059385e-05
81	0x3ab32647	0.0013668024
82	0x3d2e3546	0.042531274
83	0x3caed983	0.021343952
84	0xb732173f	-1.0615039e-05
85	0xbd0394e8	-0.03212443
86	0xb96ca064	-0.00022566464
87	0xbc00f356	-0.007870516
88	0x3d51d3c6	0.051227354
89	0x3d15ed84	0.036603466
90	0xba648154	-0.0008716781
91	0xba054fc1	-0.00050854316
92	0x3cf12206	0.029435169
93	0x398f2446	0.0002730211
94	0x3c8a4343	0.016877776
95	0x3be79e47	0.0070684287
96	0x3cd393fb	0.025827399
97	0xbca429a1	-0.020039381
98	0xbc652b0a	-0.013987312
99	0xbc603e1c	-0.013686683
100	0x3ca766f0	0.020434827
101	0xbcfb26eb	-0.030658206
102	0xb8668d6c	-5.4967983e-05
103	0x3cb0c024	0.021575995
104	0x3caa8ee9	0.020820098
105	0xbb9fc5b3	-0.0048758625
106	0xbb502d33	-0.0031765222
107	0xbcffc9de	-0.031224187
108	0xbc22b82b	-0.009931604
109	0xbd542a8c	-0.05179839
110	0xb8b635fc	-8.688492e-05
111	0xbcd95102	-0.026527885
112	0x3cbe92b6	0.023263317
113	0x3b820fdb	0.0039691753
114	0x37b531bd	2.1600043e-05
115	0x3a63f2ca	0.0008695541
116	0x3cb84afa	0.02249669
117	0x3bd63459	0.006537002
118	0xbd07564c	-0.033041283
119	0xbae1ab05	-0.0017217105
120	0xbc370643	-0.0111709265
121	0x3bc95df8	0.006145235
122	0xbc7c2ec7	-0.015392012
123	0xbc03deb6	-0.008048704
124	0xbb768133	-0.003761363
125	0xbc50c5fd	-0.012742517
126	0xbc335876	-0.010946384
127	0x3c86a98e	0.016438272
128	0x3d5b8bf7	0.053600278
129	0x3cfd8c7d	0.03095078
130	0xbcdf7fd7	-0.027282638
131	0x384bfcf0	4.8634538e-05
132	0xb7e22dcb	-2.6962623e-05
133	0x36922a16	4.3560385e-06
134	0x3a62a44e	0.0008645699
135	0x3d0b4c20	0.034008145
136	0x3d354d23	0.044263016
137	0x3c6756cc	0.014119815
138	0x3d42ff33	0.04760666
139	0x3c0fbfb5	0.008773734
140	0x3ca50741	0.02014506
141	0xbaac96a4	-0.0013167453
142	0x3bb4de3c	0.0055196565
143	0xba04df25	-0.00050686515
144	0xb6627ea8	-3.3750348e-06
145	0x3a54d828	0.0008119368
146	0xba0f9452	-0.00054771185
147	0xba07ddc9	-0.000518289
148	0xbbd0eec0	-0.0063761175
149	0xbb4485f5	-0.0029987071
150	0xbc4d9956	-0.012548765
151	0xbc8cbd63	-0.01718015
152	0xbc8a889a	-0.01691084
153	0x3b660348	0.003509717
154	0x3cc3c4d9	0.023897575
155	0xbd19e325	-0.037570138
156	0x39c7f456	0.00038138282
157	0x3b79cb05	0.0038115394
158	0x3c40507f	0.011737942
159	0x366b17c6	3.5031567e-06
160	0xbc5db616	-0.013532182
161	0xbc826554	-0.015917458
162	0x3d15bd8d	0.036557723
163	0x3a5a94bb	0.00083382026
164	0x388beced	6.6721674e-05
165	0x391934e0	0.00014610915
166	0xb92d1dc9	-0.00016509662
167	0x3d04b477	0.032398667
168	0x3c707710	0.014676824
169	0x3cf79dd7	0.030226631
170	0xb8b58c9f	-8.656945e-05
171	0xb86ed315	-5.6940207e-05
172	0xbd08e32f	-0.033419784
173	0x3cac618e	0.021042611
174	0x3d51abc5	0.051189203
175	0x38ea7275	0.00011179309
176	0x3875aefa	5.857551e-05
177	0x3ac64153	0.0015125669
178	0x3d0de5ea	0.03464309
179	0x3d07d3d1	0.03316099
180	0xb7ffb361	-3.0481899e-05
181	0x3b86f45f	0.004118487
182	0x3d2874bd	0.041126955
183	0x3d3e1580	0.046407223
184	0x3d3a33f6	0.04545971
185	0x3d1dda4e	0.03853827
186	0xbcd674ef	-0.026178805
187	0xbcb6a03b	-0.0222932
188	0x3d1a4f27	0.03767314
189	0x38888009	6.508834e-05
190	0x3b4190c2	0.0029535745
191	0x3d163a74	0.03667684
192	0xbb96c2f3	-0.0046008765
193	0x3d4c2c61	0.04984701
194	0xbcfaf112	-0.03063253
195	0x3d39a019	0.045318697
196	0x3c10a8e6	0.008829331
197	0x3b24d1c9	0.0025149456
198	0xb8ff5e99	-0.00012176968
199	0xb7c287ff	-2.318993e-05
200	0xbd0203a5	-0.031741757
201	0x3d376627	0.044775154
202	0xbaefd2bd	-0.0018297058
203	0x3c0c5658	0.008565508
204	0x3ceb600a	0.028732318
205	0x3d4ddee2	0.050261386
206	0xb894625b	-7.07551e-05
207	0x3aa33b91	0.0012453665
208	0xbcb2635b	-0.021775892
209	0x3d2dab41	0.04239965
210	0x3b16011a	0.002288884
211	0x3d17e872	0.03708691
212	0x38e8822d	0.00011086869
213	0xbd09a490	-0.033604205
214	0xbc83c6e0	-0.016086042
215	0xbc247046	-0.010036534
216	0x3c45598a	0.012045274
217	0x3be89a42	0.007098467
218	0xbc87a8df	-0.016560016
219	0x3a86785e	0.0010259261
220	0xbcfc34df	-0.03078693
221	0x3cb42131	0.021988483
222	0x37d05df7	2.4839288e-05
223	0xbc576e4d	-0.013148856
224	0xbbdf0048	-0.0068054534
225	0xb8cbb3dd	-9.7132965e-05
226	0x3b6187f4	0.003441331
227	0xbd000634	-0.031255916
228	0xbcb96bad	-0.022634352
229	0xbb0e8cf1	-0.0021751488
230	0xbca19c17	-0.01972775
231	0xbc314dda	-0.010821784
232	0xbc33e7a1	-0.010980518
233	0x3c1bea57	0.00951632
234	0x3c04e588	0.008111365
235	0x3b23e024	0.0025005424
236	0x37b83ab8	2.1961852e-05
237	0xba8cf84c	-0.001075515
238	0x3d46a2e1	0.048495177
239	0xbc65f958	-0.014036499
240	0xbc5dcd14	-0.013537664
241	0x3d24b85d	0.040214885
242	0x3be6d3a3	0.007044272
243	0xbab099c5	-0.0013473561
244	0xb8214a6f	-3.8454713e-05
245	0x395dc685	0.00021150157
246	0xb8407c56	-4.5892164e-05
247	0xbc54d546	-0.0129903015
248	0xbd2b3243	-0.04179598
249	0xbda6f98c	-0.08153066
250	0x3b89151f	0.004183426
251	0x3cad7228	0.021172598
252	0x3b720156	0.0036927066
253	0xbc9562c5	-0.018235574
254	0x3cae5d56	0.02128474
255	0x3d1d94c3	0.03847195
