data/model_Red .pt (torch_old, 249035 bytes, 7 tensors)

layers.0.weight f4 [100, 12]
00000000: bbbf e8bd 8c2b dd3d f4f2 883d 2418 3b3d
00000010: 5613 20bc 79d9 0a3e 60c8 22be aece 213e
00000020: a488 4dbe 13b2 3cbe c34e 9a3d 28b8 2fbe
00000030: da5d 03be 8663 edbd f0bf 0abe e9e1 2abc
00000040: 3bc0 9e3d d94c 483c 11a4 6ebd 042f 1f3e
00000050: 33be 113e 3514 08bd 6a22 03bd 065d 6ebd
00000060: 2652 b6bd 685c 20b9 37ce abbd 8c65 28b9
00000070: f895 0e39 6e49 9835 023c 8136 b436 113e
00000080: 0f4b 02be 8d09 7dbd fd17 e4bd 52f7 40be
00000090: ea6c 4dbe a14b 743d c5b7 1abd 2207 b33d
000000a0: 6c36 ec3d b675 44be 8132 80bb a8ff 313e
000000b0: 9b2c 623e 61ed 273d 3621 f83d f310 2bbe
000000c0: 1077 b13b 47bf 3fbe 90b9 bf3c 693c f63d
000000d0: f10e 1a3e b379 b5bd c8db 18be 2985 993d
000000e0: 31c1 c73c e554 be3d 3dcf 3fbd 3f53 f3bc
000000f0: d9fb 3abe 0611 2dbe 5e45 bcbd b804 51b9
00000100: ca2b c2b9 5914 1bbd 8018 68bd 5c21 e43c
00000110: 9aaa 1f3c c671 aa3c 1ed5 cebd 9576 a6b8
00000120: fc80 5a3c ed5f f5bd 9b57 89bd d8d7 fb3d
00000130: c776 393d 56dd eabd 7991 d63c 4a31 ba3b
00000140: 1c2c 18be 3110 2d3d b5e5 343e 34ef a93c
00000150: d7e9 ac3c 7026 41be 7059 5ab6 8478 3534
00000160: 9a70 01bd 2459 15b8 0a47 613d 0225 063e
00000170: 32c4 0d3e ee2a df3d 5b90 04be 967e 8bbd
00000180: 11cb b139 2bc7 003e 56ae 03be c620 1fbe
00000190: 8d6b 363e 1e91 393e d58a ca3c cf4b 1c3e
000001a0: bfdb d9bd 0673 443e 5a3a 043d 65be c03d
000001b0: 658d 63be ee8f 143e 86c3 953d e301 153e
000001c0: 9145 6cbe 0738 6f3d 5e59 033e bd97 8a3d
000001d0: 1b56 103e 5288 2ebd e529 dabd bed6 af3c
000001e0: 481a 34ba d279 fdbc bf39 2a3d 4537 903c
000001f0: 2e08 adbd 0654 1839 b394 f739 6380 6abd
00000200: f03e 173e 87f4 c9bd 2a3c b1b9 c1ac 113e
00000210: 835a bf3c ed2d cfbd a4ab e23d 2cc8 f3bc
00000220: 1bd1 623e 5f7d ffbd 4a9a 6d3e cab0 70bd
00000230: 6574 c03d 016b 30bd bd1c cd3d 9a61 adbd
00000240: e0ed dbbd d15b 803e 60e5 873d 226b 243d
00000250: ae73 fe3d 6490 c7bd a418 903d 2f23 d8bd
00000260: 996d 39bd ab0d c6bd 38f2 e13d 094a 5abd
00000270: 86b5 313c 5604 123e 5807 1c3e 9956 45bd
00000280: 8a65 d1bd 703c 2dbd eae2 473e 7a64 25bd
00000290: e0b4 8d3d bd14 123e 0638 4a3e 1352 2e3e
000002a0: 1edd 513d 6266 f7bd 78db f93d be5d 29be
000002b0: f2b2 f9b9 9598 ed39 fa80 f03b bc7a feb8
000002c0: 59f6 2ebe 8bd4 22be 8bfb 0fbe 0ba0 34bd
000002d0: 6b8b 2cbd 3dba 013e 5021 463d be7e 313e
000002e0: 66aa 103c b789 b43d 90be 34be 8cb2 323e
000002f0: 0501 093c 07af 543e 29fc d9bc 8fa7 53bb
00000300: df69 88bd a219 a2bd 6c7a 443e 3ec1 033d
00000310: 6315 aa3d a9ce 0f3e 26ff 3c3e 2d39 433e
00000320: 698e 15be ff6a b0bd 05ad 223c 655a 223c
00000330: 56c7 06bc 733c 993d 9bca 2bbe b0b2 b73d
00000340: dc7d 21be 2872 bc39 74c5 37b9 10dd 0e3e
00000350: eed9 00be e612 bd37 f39f 46be a499 933c
00000360: 8028 113e 0ff4 38be 3030 11be 5a0f 743d
00000370: 7954 5b3e 9b16 393d 11e3 6d3c 0f6f 62be
00000380: a35a ee3d d105 3c3d 0375 313e 49a7 14bd
00000390: 604f f73d 449f 95b8 561d 81b8 2b06 143d
000003a0: 5e4a 44b8 46ae 22be 58a9 febd 5abf 17be
000003b0: aecd d3bc 7c78 f4bb 68c5 a93d 9c1a cbbd
000003c0: 6ace 953d 4542 f537 81bd a53d e46b ce37
000003d0: 1e48 c9bd 491b f2bd 8293 ecb8 556e f7bd
000003e0: 084b 463d 2fc3 a63b ec1e 14be b685 6e3c
000003f0: 3fcb 29bd 8b55 e0bd 8800 e7bd a849 07b9
-0.11364695 0.107993215 0.06686965 0.04567732 -0.009770235 0.13559522 -0.1589675 0.15801498
-0.20071656 -0.18427305 0.07534554 -0.17160094 -0.1282877 -0.11591248 -0.13549781 -0.010429838
0.07751509 0.012225353 -0.058261935 0.15545279 0.14232711 -0.033222396 -0.03201524 -0.058194183
-0.08902387 -0.00015293213 -0.08388942 -0.00016059558 0.00013598043 1.1346253e-06 3.8514854e-06 0.14181024
-0.12723945 -0.061776686 -0.11137388 -0.18844345 -0.20061079 0.059642438 -0.037772913 0.08741595
0.11533818 -0.19185528 -0.0039122705 0.17382681 0.22087328 0.040997867 0.121157095 -0.16705684
0.0054158047 -0.1872531 0.023403913 0.12023241 0.15044762 -0.08861103 -0.1492759 0.074961014
0.024384113 0.09293536 -0.046828497 -0.02970278 -0.18260135 -0.16901025 -0.09192918 -0.00019933551
-0.0003703519 -0.037861202 -0.05666399 0.027847938 0.009745264 0.020806205 -0.10099243 -7.9375845e-05
0.013336416 -0.11981187 -0.067061625 0.12297028 0.04527929 -0.11467998 0.026192414 0.0056821452
-0.14860576 0.04225177 0.17665751 0.020743944 0.021107597 -0.18862319 -3.253659e-06 1.6900782e-07
-0.031601526 -3.5607387e-05 0.05499939 0.13100055 0.13844374 0.1089686 -0.12945692 -0.06811254
0.00033911367 0.12575977 -0.12859473 -0.15539846 0.17814465 0.18121764 0.024724403 0.15263294
-0.10637616 0.19184503 0.03228221 0.09411315 -0.22221906 0.1450803 0.07312684 0.14551501
-0.23073412 0.05840304 0.1282706 0.06767223 0.14095347 -0.042610474 -0.10652522 0.021464702
-0.0006870371 -0.030941878 0.041558977 0.01760448 -0.08448826 0.00014527151 0.000472223 -0.057251345
0.14770103 -0.09861093 -0.00033804897 0.14226057 0.023358589 -0.101161815 0.11067894 -0.029758535
0.2215008 -0.124750845 0.23203388 -0.05876235 0.093972005 -0.043070797 0.10015247 -0.08465882
-0.107387304 0.2507005 0.06635547 0.040141232 0.12424408 -0.09744337 0.0703595 -0.10553586
-0.045270536 -0.09670576 0.11032528 -0.05329326 0.010846501 0.14259467 0.15237176 -0.04817829
-0.10224445 -0.042293966 0.19520155 -0.040379025 0.06919265 0.14265724 0.19747934 0.17023496
0.051236264 -0.12080075 0.122000635 -0.16539666 -0.00047626306 0.00045317845 0.007339594 -0.00012134525
-0.17086162 -0.15901391 -0.140608 -0.04409794 -0.042125147 0.126687 0.048371613 0.17333505
0.008829689 0.088153295 -0.17650819 0.17450923 0.0083620595 0.20769893 -0.026609497 -0.0032295918
-0.06660818 -0.07915045 0.19187325 0.032166712 0.083048604 0.14043678 0.18456706 0.1906478
-0.14605106 -0.08614158 0.009928946 0.009909247 -0.008226236 0.07482233 -0.16776507 0.08969629
-0.15770668 0.00035943207 -0.00017525797 0.13951516 -0.12583134 2.2539356e-05 -0.19396953 0.018017597
0.14175606 -0.18061851 -0.14178538 0.059584953 0.21418943 0.045187574 0.014519469 -0.22112678
0.11638381 0.045903984 0.17329793 -0.036292348 0.120756865 -7.134539e-05 -6.1566636e-05 0.036138695
-4.67993e-05 -0.15886793 -0.124346435 -0.14819089 -0.025854912 -0.007460652 0.082896054 -0.09917185
0.07314761 2.9237135e-05 0.080927856 2.4607354e-05 -0.098282084 -0.118216105 -0.000112808324 -0.12081591
0.0484114 0.0050891857 -0.14464921 0.014558246 -0.041453596 -0.10953816 -0.11279398 -0.00012902042

layers.0.bias f4 [100]
00000000: c826 123e dd65 533e 55c0 e9bd fc2e d93c
00000010: 4e84 793d e342 49bc a073 dbbb 8728 3dbe
00000020: 56b3 00bd ea48 703d f041 00be 4f7b aabd
00000030: 2a50 433e 310f 7ebe 94d7 1fbe 3323 2fbe
00000040: d4b2 3ebe a693 a93b 9f0c 13be 2d83 8338
00000050: f26a 6cbc c35d 0dbe e909 0dbe 74a7 4dbd
00000060: b0a4 663d 2bf7 443e 98c6 623e b2f0 2b3e
00000070: 8ff9 513e 8c48 44be ebe9 9dbc 0bf3 163e
00000080: 33e6 90bd 1668 f1bd cde5 43b8 8dc8 773e
00000090: 11b7 633e 8a66 e0bd c16d 2bbd 8aba 643e
000000a0: b6f9 a0bb 439b af3d 778a 243e b155 5dbd
000000b0: 9fac 953d e2a0 583e 1ca3 1e3d 8b74 a4bd
000000c0: b5cb 64be 4660 4bbd 8619 4fbe 4297 38be
000000d0: d0ca 343e bbcd 8a3d 44b0 853e 86ea 553b
000000e0: 4408 b2bc 1a4f 163e 97d6 583e a1f2 b1bd
000000f0: e867 22be d315 5dbd 035b 38be 30f4 283e
00000100: e481 b6b7 5d30 293e 896e 4c3e 8290 44bd
00000110: b4ee 4838 9d7e 3a3e 8652 543d 1916 b2bc
00000120: 6c9c edbd e5d9 923c 4afa 96bd 24cd 223d
00000130: e575 e13d 86a4 fbb9 c40a 7cbb d695 793d
00000140: 9dbc 9fb9 d378 323d d301 81bd 19f9 4bbd
00000150: 4d29 813d 231f ca3c 3cbb 383e 7658 f63d
00000160: 95b6 d83a b6b8 bbbd 7113 52bd 5761 993d
00000170: 2da0 013e 553d 75bd 07d5 4cbc 6bde f1bd
00000180: 801a a33b 4c58 383e 672f 203e 91c3 d6bd
0.14272606 0.20644327 -0.114136375 0.026511662 0.06091719 -0.012284013 -0.006697133 -0.18472491
-0.031421028 0.058663286 -0.12525153 -0.083243005 0.19073549 -0.24810483 -0.1560958 -0.17103271
-0.18622905 0.005175072 -0.14360283 6.271e-05 -0.014429795 -0.13805299 -0.13773312 -0.050208524
0.056309402 0.19234912 0.2214607 0.16791037 0.20505355 -0.191683 -0.01927658 0.14741151
-0.07075157 -0.11787431 -4.670564e-05 0.24197598 0.22237803 -0.10957058 -0.041852716 0.22336784
-0.0049125804 0.08574536 0.16068445 -0.0540368 0.073083155 0.21155122 0.038729772 -0.08030041
-0.22343333 -0.04965236 -0.2022458 -0.1802645 0.17655492 0.06777521 0.26111042 0.0032641008
-0.021732457 0.14678612 0.2117561 -0.08688856 -0.1585995 -0.05397589 -0.18003468 0.164994
-2.1756576e-05 0.16522355 0.19964041 -0.047989376 4.7906025e-05 0.18212362 0.051836513 -0.021739053
-0.11602101 0.017926166 -0.073719576 0.03974642 0.11008815 -0.0004799703 -0.0038458565 0.06093391
-0.0003046737 0.04357226 -0.06299176 -0.049798105 0.063067056 0.02467305 0.18040174 0.12028591
0.0016533906 -0.0916609 -0.051288072 0.07489269 0.12658758 -0.059872944 -0.012501962 -0.11810001
0.0049775243 0.18002433 0.15643083 -0.1048652

layers.2.weight f4 [200, 100]
00000000: 7ddb b93c 7b73 f0bc efa9 ef39 ed24 153d
00000010: 5efe 0b3b 00de a7b5 b6cb c7b8 5c7b a739
00000020: 7f78 5abb 2d8e ddbc b41f e538 d1a5 3e3d
00000030: 1c89 a6bb e43a 653d 66b7 afb8 b923 023c
00000040: 4e13 b23c 5393 37b9 aae8 8aba bf1b 8e3c
00000050: e793 b8bb 5ece ad38 5822 7db9 6116 fa39
00000060: 9a4c 6d37 853d 8abc 215a a1bd 4269 53bd
00000070: 7a25 b13c d20c 91bc e79e 3237 5370 23b8
00000080: 98ec d53b 4eba 8ebc a9f2 9038 ef30 833d
00000090: 389f 5bbd b61d 2cb9 802e e737 2041 363d
000000a0: fb3d a03c 4633 583d 308c 703d a8a1 1e3c
000000b0: 27e8 26bc ede1 21bd 5c32 7c3c a56f bb3b
000000c0: 0eb8 e9bc 23fc 9d3b 9896 89bb 7cbe ccbb
000000d0: 692a 613c 889f a83b f273 54bb 05e7 973b
000000e0: 72cb e738 5e4f 743c 267d 5a3d 366a e937
000000f0: 2353 49bc 7e79 9f3d 5519 0fbb 5d7a 37bd
00000100: 879c ea3b df8e 9c3c 7e59 993c a14c b83b
00000110: cc43 80bc cefd a93c 79ee f23b c69e 1bba
00000120: e427 f539 f239 ce3c e857 b33a 938d 683c
00000130: e266 8a3d cf08 fe38 fa49 e2b9 756c fb3c
00000140: 2d4f 6b38 e835 b73a 5275 84bd fae5 ec3b
00000150: f43f 90bc 8ec3 ab3a 9777 13ba 488f c1b8
00000160: fd38 e139 1e1a 0638 e819 6bbb a302 3ebc
00000170: 1b51 c8bc 8a22 033c 836a 8938 de0a 00bd
00000180: 2b70 e5bc 2e16 88bd 5b5e b536 7fa8 813c
00000190: efe6 5dbc 3fc2 b13b 38bf 7337 90dd aa3c
000001a0: 979e b53c b95a 183c aed8 9eba 0154 8f3b
000001b0: 49eb 9839 a629 adbb 2c53 25b7 adea 3eb9
000001c0: 9547 003c eb20 47b9 4a6c f139 3eb7 adbc
000001d0: 8efa 453c b57c 92b7 759e 633c 76f9 543c
000001e0: 5c5f 45b8 c815 ecb9 5352 05bc bbcc b2b7
000001f0: b012 5638 e9f1 b7b9 6bb9 263b 6f98 85bc
00000200: 399f 643c 64c8 70b7 e305 70bb d797 41b9
00000210: 5240 b039 d60f 98b9 40f4 55b9 c9d6 8ebc
00000220: c215 8b39 08a0 04b6 d5be e23a 860a 23bb
00000230: d271 073c 5a4c 8b3c 0312 a43c 8259 853a
00000240: 713b 9438 b63b 4f3a 4ead 8639 de50 e0bb
00000250: aab9 93bc 6104 463b b873 a739 43d5 cc39
00000260: fe2f 2fba 72b6 8739 4d98 783c c8e0 58bb
00000270: 8498 5c3c c9ff 8d39 4690 cf3a 3738 6f3c
00000280: 1710 9739 88f6 84bc fa37 913b 8a61 cc3a
00000290: 600a 903c aee3 9d39 75d8 0b39 87c9 85b9
000002a0: 2ffa 5138 e1bc 1939 ec48 00bc 59d4 773c
000002b0: c20d a4bc 792b 013c 2768 29bb 46ca 5139
000002c0: d6d5 3f3c da34 92b7 ff01 9c39 e8c5 2ebb
000002d0: d7a7 903b f78c 04b8 3721 afba 2249 1abc
000002e0: 76a7 a3ba de8c a2b8 0449 93b7 c553 5639
000002f0: 9ac7 8a3c e7ab b03c 6452 94b8 fe6e acbb
00000300: ec89 03ba 0016 b63c cc02 93b9 121d 923b
00000310: 592d a5b9 6265 093a 82bb 03b9 d207 9736
00000320: fe91 2c3c 86b6 8c38 d566 323c 6ac4 233b
00000330: b733 0739 61f7 b3bc 5487 6e3a e80b f0b5
00000340: eb77 703b f96b cdbc b280 47b9 fee4 16b9
00000350: 1f77 033c 7416 adbc cc64 2239 2241 edbc
00000360: b997 683c d886 66b8 79b2 9b3c 4711 b23b
00000370: 3ae7 b4bb bcbd f937 1b85 2ebc eec7 77b8
00000380: 372c 3d3c 5631 b5bc d1e7 ebbb ed3c 87bc
00000390: 41c0 3f3c 027c 7d3c 32d9 59b9 30b5 f0bb
000003a0: 69f3 293a 48eb 8f3c 7b40 4937 a0c2 29bc
000003b0: 55e8 06bd 1af6 eab9 08da 043c 4cc1 463c
000003c0: 2a53 61b9 9f16 273c e6ee 1b3c b0ac 623c
000003d0: cd81 de39 099e 733c 8fec f4b9 e542 0eb8
000003e0: 97c7 233a 384c a73c a0a4 9cbc 297f 5339
000003f0: 085f 3dbc 3a50 f3b8 0ade 8bba 6e54 60b8
0.022687668 -0.02935194 0.00045712243 0.03641217 0.0021361331 -1.250708e-06 -9.5270036e-05 0.00031944632
-0.0033335981 -0.027045334 0.00010925476 0.046544854 -0.0050822627 0.055964366 -8.378811e-05 0.007943087
0.02173772 -0.00017507123 -0.0010597904 0.017347215 -0.0056328657 8.287722e-05 -0.00024140754 0.0004770039
1.4144136e-05 -0.016875038 -0.07878519 -0.051614054 0.021624316 -0.017706309 1.0646624e-05 -3.896684e-05
0.0065284483 -0.017422821 6.911654e-05 0.06405818 -0.05361864 -0.00016414266 2.7559e-05 0.0444957
0.019560805 0.052783273 0.058727443 0.009682097 -0.010187185 -0.0395221 0.015392866 0.005720096
-0.028530147 0.004821317 -0.0041988604 -0.0062482934 0.0137430215 0.0051459707 -0.0032417742 0.004635694
0.00011052833 0.014911501 0.053342007 2.7825223e-05 -0.012287888 0.07786845 -0.0021835167 -0.04479443
0.007159773 0.019111095 0.018719431 0.0056243693 -0.015657328 0.020750906 0.007413682 -0.000593644
0.00046759762 0.025174115 0.0013682814 0.01419391 0.067579046 0.000121133045 -0.00043161196 0.030691365
5.6102104e-05 0.0013977857 -0.064676896 0.007229564 -0.01760862 0.0013104544 -0.0005625425 -9.2296454e-05
0.00042957804 3.1972413e-05 -0.0035873596 -0.011597308 -0.024452737 0.00800384 6.5525084e-05 -0.031260364
-0.028007587 -0.066448554 5.405205e-06 0.015827416 -0.013543828 0.0054247673 1.452845e-05 0.020857602
0.022170348 0.009298974 -0.0012119019 0.0043740277 0.00029167 -0.005284506 -9.854131e-06 -0.00018207236
0.0078295665 -0.00018990382 0.00046047784 -0.02120554 0.012083663 -1.7462628e-05 0.01389276 0.012998929
-4.705727e-05 -0.00045029656 -0.008137303 -2.1314589e-05 5.103898e-05 -0.00035084717 0.0025440108 -0.016308038
0.013953977 -1.4351772e-05 -0.0036624603 -0.00018462479 0.00033617258 -0.00029003498 -0.00020404253 -0.017436402
0.00026528357 -1.9762683e-06 0.0017299304 -0.0024878099 0.008266883 0.01700418 0.02002812 0.001017377
7.068262e-05 0.0007905321 0.00025687594 -0.0068455776 -0.018032867 0.0030215012 0.0003193894 0.00039068804
-0.00066828716 0.0002588514 0.01517303 -0.0033092964 0.013464097 0.0002708419 0.0015835844 0.014600805
0.00028812952 -0.016230837 0.0044317218 0.0015593034 0.017583072 0.00030115008 0.0001333671 -0.00025517886
5.0062485e-05 0.0001466158 -0.007829886 0.015126311 -0.020026091 0.0078839 -0.0025849433 0.00020007146
0.011708697 -1.7429167e-05 0.00029756126 -0.0026668254 0.0044145393 -3.1602536e-05 -0.0013361339 -0.00941685
-0.001248582 -7.7510005e-05 -1.7557766e-05 0.00020439837 0.01694088 0.021566344 -7.0725364e-05 -0.0052622547
-0.00050178054 0.022227287 -0.0002804011 0.004459032 -0.0003150504 0.00052412425 -0.00012562986 4.501061e-06
0.010532854 6.709718e-05 0.010888775 0.0024988898 0.00012893869 -0.021968545 0.0009099145 -1.7884859e-06
0.003669257 -0.0250759 -0.00019026062 -0.00014390421 0.008024006 -0.02112887 0.00015487074 -0.028961722
0.01419633 -5.4961856e-05 0.019006 0.0054341885 -0.0055207284 2.9771465e-05 -0.010651852 -5.9075588e-05
0.011546186 -0.022118252 -0.0071992655 -0.016508544 0.011703552 0.01547146 -0.00020775644 -0.007345818
0.00064831093 0.017568246 1.1995547e-05 -0.010361344 -0.032936413 -0.00044815318 0.008108623 0.0121310465
-0.00021488653 0.010198264 0.009517407 0.013835117 0.0004243985 0.0148692215 -0.00046715557 -3.391774e-05
0.0006247698 0.020422086 -0.019121468 0.00020169899 -0.011558302 -0.00011602086 -0.0010671031 -5.3484393e-05

layers.2.bias f4 [200]
00000000: 86e8 0cbd 1682 89bb 775f 2dbd 6d61 f83a
00000010: 2a65 1339 56ef a7bc ac41 bc3c e4f5 00b9
00000020: dd4a e43c 2266 7cbd b9ca 22bd 0b71 4f3d
00000030: c580 83bd 2709 36bd e8d1 153d fb6b 463d
00000040: b226 cc3c e624 65bd 0671 db3b cf44 3a3d
00000050: 83c0 5e3d 96be b4b8 9a51 8c3c 47db 983d
00000060: 36f6 59bb 8e5e b338 176d ab38 8e20 3a3d
00000070: d488 32bb e16f a7bc 7c57 10bc addd 913d
00000080: 10ad ae3d adb5 cab8 22ce 5e3c 4b14 e838
00000090: 08bf aab9 0944 0ebc ab2a d03b e38e 193d
000000a0: 768f 46bd bb24 6839 5a99 1f3c 5e07 b7bc
000000b0: 849c c0b6 338b 85ba 705e 363d a6b4 94bc
000000c0: 3c54 003d 8ffa 733d 9e4d 333d ccd2 8aba
000000d0: 420e 4ebd 7e42 783d 33a1 20bc 0a1c a93d
000000e0: ab64 253d 7788 af3d 00f2 e838 a1a5 923c
000000f0: c93e 8d38 b2f4 a4bc e3c5 2c3c 4dfd 08bd
00000100: 9e04 72bc 1a48 d7bb 3f85 393d b206 09ba
00000110: 1711 5bbc 1447 b7bb 5a40 78bd 6050 183a
00000120: 3ab8 51bc 8db0 46bb 16dc 94bc 14a8 393b
00000130: aded 243d 21f3 32bc d89a fbb9 e58c 6dbb
00000140: b068 85bd dde3 d339 e363 2eb9 d107 ccbb
00000150: a883 19b5 8cac 8a3a 092d 123b 9e32 053d
00000160: e37d 3abd 8606 c93c bb60 443d e80d 28bc
00000170: 137f 913d 3b80 a6b7 12d2 ac39 30d4 383d
00000180: 1742 d738 af7c e339 16b3 edbc 0506 4fbd
00000190: 9743 a4bc 34df 49bc ef2e a0bc 4177 0ebd
000001a0: 0f3f 57bd 8b95 8d3b 5627 1e3c 320c 62bc
000001b0: 4c10 343d 5d83 663d e9fc 013d 7cf1 ea3c
000001c0: c35a 6538 a9c2 30bc 7bb2 0b36 b2df 7b3d
000001d0: 1c1d 54bc 6bd4 07bd 93c5 a83c 0619 923d
000001e0: 30e6 35b9 b496 49bd f5c4 2dbd eb0f f2bc
000001f0: cb13 4b3d c232 3838 aaa9 af3d e89d 603a
00000200: fb1e 84bd 7e6e 443d b583 68bd 21ef e6b7
00000210: 4ca6 903d 9ebd 8bb9 37bc bc3d f4e5 acb9
00000220: d9d3 a8bb d35b 703b 5a12 4dbd 3305 3dbc
00000230: bfeb 903c ead1 0a3c ee9f 083b efb0 d0bb
00000240: b00c 90bd f975 0a3d 6b30 aa3c 1ac6 47bc
00000250: 6221 813d 0487 60bd e3b6 3b3d d727 813c
00000260: 0cd7 4c3c b9dc 92b9 fc6f d7bb 688f 7639
00000270: 5d94 c53d 7a4c 91b8 cc88 5fbc 2b5c a1b6
00000280: bb52 593d d192 80bc 64b3 6d3c 2fc8 0fbc
00000290: d345 973b caaa 333d 9aef 36bd 932a 85bc
000002a0: 1e9b b23c d84a a03d 6b35 cd3d dd05 c4b7
000002b0: f6b9 76bd 6d4f 9fbc 45fd 403d fcf8 ba3d
000002c0: 3dab ae39 c141 7abc a879 cfb6 c0ca 2539
000002d0: 7a1e b938 7278 7c3d 0455 e639 0624 bebb
000002e0: 95a4 acbc 48dd 90bc 4431 9538 0e1f ae3c
000002f0: 1e32 073d 3819 b63b 62f5 3bba d4c4 89bb
00000300: e1f8 2bbb 67c5 b03d 2700 30bc 3e7f 8b3b
00000310: 494d 3a3d 69b8 613c c80b 3ebb 3365 09bc
-0.03440144 -0.0041964157 -0.04232737 0.0018949934 0.00014056699 -0.020499866 0.022980534 -0.00012298633
0.027867729 -0.06162084 -0.039744113 0.050644916 -0.06421045 -0.044442322 0.036577135 0.048442822
0.024920795 -0.055943392 0.006696823 0.045475777 0.054382812 -8.618568e-05 0.017128754 0.07463699
-0.0033258325 8.552997e-05 8.174235e-05 0.045441203 -0.00272422 -0.02043909 -0.00880992 0.071223594
0.08529103 -9.66595e-05 0.013598951 0.00011066402 -0.00032567256 -0.008683213 0.0063527427 0.037489783
-0.04847666 0.00022138927 0.009741152 -0.02234238 -5.7402667e-06 -0.0010188579 0.044523656 -0.018152546
0.031330332 0.059565123 0.043775193 -0.0010591387 -0.050306566 0.060610287 -0.009804058 0.08257301
0.040379208 0.085709505 0.00011107698 0.017901244 6.7350986e-05 -0.020136211 0.010545227 -0.03344469
-0.014771609 -0.0065698745 0.04529309 -0.0005227133 -0.013370774 -0.00559319 -0.060608245 0.00058103167
-0.012800271 -0.0030317635 -0.018171351 0.0028328942 0.040265728 -0.010922224 -0.00047989818 -0.003624731
-0.06514108 0.00040414828 -0.00016631144 -0.0062265177 -5.7188527e-07 0.0010579987 0.0022304675 0.032518975
-0.04553021 0.024539243 0.047943812 -0.010257222 0.071043156 -1.9848454e-05 0.0003296291 0.045124233
0.00010264309 0.0004338971 -0.029016059 -0.05054285 -0.02005176 -0.012321282 -0.01955363 -0.0347817
-0.05255037 0.0043208054 0.009652933 -0.013796853 0.043960854 0.05627762 0.031735335 0.028679602
5.4682383e-05 -0.010788598 2.0816503e-06 0.06149263 -0.012946393 -0.033161562 0.020602023 0.07133679
-0.00017347257 -0.049215987 -0.04242416 -0.029548606 0.049579423 4.391629e-05 0.08577283 0.0008568452
-0.064512216 0.047956936 -0.05676623 -2.752949e-05 0.070629686 -0.00026653422 0.09215587 -0.00032977725
-0.0051522073 0.0036675825 -0.05006633 -0.011536884 0.017690537 0.008472899 0.0020847279 -0.0063687484
-0.0703367 0.033803914 0.02077504 -0.012193227 0.063051954 -0.05481626 0.04582871 0.015766067
0.012502443 -0.0002801174 -0.006574629 0.00023513811 0.09647439 -6.928384e-05 -0.013643455 -4.8089037e-06
0.053057414 -0.015695008 0.014508102 -0.008775755 0.004616478 0.04386405 -0.044662096 -0.016255653
0.021802481 0.07826775 0.10019954 -2.3367751e-05 -0.06023594 -0.019447053 0.047116537 0.09129521
0.0003331545 -0.015274466 -6.1832434e-06 0.00015811156 8.827164e-05 0.061638303 0.0004393236 -0.005802634
-0.021074573 -0.01768364 7.11405e-05 0.021255042 0.03300678 0.0055572055 -0.0007170049 -0.004204372
-0.0026240873 0.086314015 -0.010742224 0.004257112 0.04548386 0.013776877 -0.0028998721 -0.008385944

layers.4.weight f4 [200, 200]
00000000: fa87 7a39 0add 4d3b 4302 8737 7cc1 19bb
00000010: 9cd3 d0b8 a8ca 66b7 6c53 75b8 5435 64b8
00000020: b115 5738 2645 ecb9 8945 5639 8ad3 3938
00000030: 5846 7238 f891 5239 8edb e736 aea1 2db8
00000040: 12cf 4abb 5217 6fb7 d2a9 7bbb b1f1 8c3b
00000050: 0d75 cdba 0eed 44b9 3109 54b8 2093 eaba
00000060: 87d8 5d3a 04b7 ac39 1894 db38 8944 1fba
00000070: 0232 eeb9 16f6 9238 4be1 01b7 95e1 4eb9
00000080: 2053 4b38 cbea 4639 086b e737 ba78 cc37
00000090: ac56 153b 6219 c3b7 fb3f 29bb 0318 e639
000000a0: 3329 7738 419d e3b9 7441 2038 233f 5339
000000b0: acec 51b8 f42c 97b7 1a6e 54bb 741a 97bb
000000c0: fb06 d3b9 8ad7 c638 1ca6 d136 1ffd 9c38
000000d0: fa8e 6eb8 4726 59ba e86a aab9 b624 1cb9
000000e0: f075 1636 e942 55b9 c869 8abb 76d2 bf37
000000f0: 86a0 84b9 2734 fe37 fb28 e8b9 bd6e 4db9
00000100: 68f5 7139 435d 5e3a 725c 2238 dfe0 b1b8
00000110: 12c4 fdb8 d4eb 7638 a18e 553b e433 45bb
00000120: 3752 97b8 aeca 88ba 4441 8137 ce78 8036
00000130: acd6 05b7 626b f7b9 65f9 7a38 c739 1839
00000140: acd2 cdb8 0c10 9ab7 b8ec f1b8 142a 54b9
00000150: 60a6 3039 d8b9 1d37 c628 0eb7 b2ca 8038
00000160: 332a 5ab8 eac8 6836 fe57 183a 4817 ce38
00000170: 48c2 0339 e2f7 1538 0529 2b37 3cab cc36
00000180: 82b5 62b8 ea41 6ab8 7899 36b9 55a0 4fb7
00000190: e430 a2b8 e3b2 9637 6a68 8fb7 0608 56b9
000001a0: a2e8 0d39 8a75 8ab7 0010 cd33 e5c2 a438
000001b0: c3f6 90b6 0f1b ab38 faac 23b8 3083 dfba
000001c0: 9882 7139 7ab6 0d39 d1f6 fbb9 9fb3 6638
000001d0: 484a c0b8 9be3 fab8 c895 4239 2aa1 6a36
000001e0: 5a6a cab9 2588 853b 0272 f939 6811 d9b9
000001f0: c55d 84b9 98bc a0b8 9731 34b9 b6b8 c33a
00000200: 2a43 17b6 e52e d837 0f16 88bb 022d 56b9
00000210: 82c3 0d38 a08e 9e38 e0f2 1f36 065b 4fbb
00000220: 7276 7939 eefe 70b8 5cc7 b4b7 00f9 23b6
00000230: b5c0 82b8 cd14 3db9 31f3 6b38 025c 85b6
00000240: 927b 3236 71ad 9837 6c75 0837 d211 a7b8
00000250: 1a32 f836 7f06 e538 304b fb39 4099 ec37
00000260: 1583 aab8 6562 e5b9 066b fe3a b54e 65b7
00000270: d987 e4b7 eb8a 2db8 597f dab9 e42a 8e38
00000280: c893 9939 6afc a838 1876 3b3b dcb1 8438
00000290: 8239 0839 122f e338 d479 c73a 93b2 49b7
000002a0: 92ed 5c37 bd48 d339 1765 5639 7cd4 3438
000002b0: b16d f438 7001 2f36 bc7d a136 a83c fe35
000002c0: 2126 36b9 c998 5339 3ed6 863b 7aa7 b1b8
000002d0: 0704 f6b9 3a06 a33a 1bfd f038 c479 3838
000002e0: fbef b43a 9257 d4b9 e668 f6b9 8aac fab9
000002f0: f094 fb38 9140 fab8 f1fa 983b a4d3 1937
00000300: ecb9 bab8 2ca3 89bb 0769 7abb 8485 f737
00000310: dab2 8db7 b062 84b9 58d5 a2b8 1257 1939
00000320: df84 ceb9 3e21 7538 4352 5237 5c42 fab9
00000330: 4e30 4739 b4e4 39b9 5614 d4b8 9122 3ab9
00000340: 1386 0638 cc69 6a3b 60e5 c8b8 ad17 56bb
00000350: 1453 103b cf5e fc3a eaf9 4ab9 946a 0f38
00000360: 78c3 183b 5c3f 5cb9 f538 0539 d878 953b
00000370: c170 fab9 9dc1 d3ba 96db 41b9 c6cf b3b8
00000380: 1a17 f4b8 6de2 55b8 1591 a0b7 17f5 70bb
00000390: db87 3339 5553 b5ba 5b89 bc37 ff74 69bb
000003a0: 3cf9 4339 3c74 2738 8d0e 22b8 4c75 9c38
000003b0: f7ea 823b 855f 0fb8 9ac4 80b8 4e1c 7438
000003c0: 894b 013b 8f95 c639 28bd f137 36f0 abb8
000003d0: 74e9 8b38 1a1b 2ab9 fcf2 34b9 2194 19b9
000003e0: 705c 4c38 c5bb fbb9 8a9f a538 8784 2939
000003f0: e20e de38 40a1 6ab9 0e79 dcb8 f826 1239
0.00023892513 0.0031412267 1.6094307e-05 -0.0023461273 -9.957628e-05 -1.3756253e-05 -5.8490245e-05 -5.44091e-05
5.1280196e-05 -0.00045064947 0.00020434534 4.430445e-05 5.776281e-05 0.00020081538 6.909896e-06 -4.139699e-05
-0.0030946177 -1.425094e-05 -0.0038400781 0.004301273 -0.0015675143 -0.00018780326 -5.05533e-05 -0.001789663
0.0008462746 0.00032942754 0.000104703184 -0.0006075581 -0.00045432156 7.0076596e-05 -7.741454e-06 -0.00019729727
4.8476388e-05 0.00018970219 2.7587186e-05 2.4374913e-05 0.0022787256 -2.3257631e-05 -0.002582549 0.0004388691
5.892776e-05 -0.00043413977 3.820793e-05 0.00020146048 -5.00499e-05 -1.8021536e-05 -0.0032414258 -0.0046113078
-0.00040250257 9.481523e-05 6.248023e-06 7.485807e-05 -5.687678e-05 -0.0008283597 -0.00032504578 -0.00014890995
2.242039e-06 -0.00020338189 -0.004224036 2.2866978e-05 -0.000252966 3.0303445e-05 -0.0004428102 -0.00019591577
0.00023074972 0.0008482525 3.8709906e-05 -8.481903e-05 -0.00012100501 5.8870603e-05 0.0032586234 -0.0030090744
-7.215555e-05 -0.001043638 1.540839e-05 3.828761e-06 -7.9774e-06 -0.00047191518 5.983691e-05 0.00014517373
-9.8144024e-05 -1.8365703e-05 -0.00011535868 -0.00020233571 0.00016846647 9.401199e-06 -8.473353e-06 6.1412706e-05
-5.201455e-05 3.4687641e-06 0.00058114517 9.827182e-05 0.00012565509 3.5755227e-05 1.0201945e-05 6.099608e-06
-5.405164e-05 -5.5851335e-05 -0.00017414044 -1.2375492e-05 -7.7338686e-05 1.7964694e-05 -1.709555e-05 -0.0002041162
0.0001353347 -1.6505615e-05 9.548967e-08 7.856431e-05 -4.3202613e-06 8.1589555e-05 -3.9023325e-05 -0.0017052647
0.00023032201 0.00013514786 -0.00048058343 5.500356e-05 -9.1691094e-05 -0.00011963324 0.0001855708 3.4962527e-06
-0.0003860768 0.0040750676 0.00047577923 -0.00041402434 -0.00025246866 -7.664523e-05 -0.00017184611 0.0014932367
-2.2539848e-06 2.5771044e-05 -0.00415302 -0.00020425397 3.37991e-05 7.560593e-05 2.3834218e-06 -0.0031639948
0.00023790615 -5.745788e-05 -2.1550506e-05 -2.443383e-06 -6.2347775e-05 -0.00018032193 5.6254856e-05 -3.97442e-06
2.6595994e-06 1.8200577e-05 8.133571e-06 -7.9665e-05 7.3968085e-06 0.00010920781 0.0004793047 2.8204755e-05
-8.1306476e-05 -0.00043751593 0.0019410558 -1.3667789e-05 -2.7242977e-05 -4.137579e-05 -0.00041675082 6.779077e-05
0.0002929254 8.05788e-05 0.0028604325 6.3273794e-05 0.00012991394 0.00010832971 0.0015218803 -1.2022111e-05
1.31683355e-05 0.0004029925 0.0002044629 4.3113236e-05 0.00011655258 2.6077869e-06 4.8128113e-06 1.8942128e-06
-0.00017371077 0.00020179445 0.004114895 -8.471213e-05 -0.00046923777 0.0012437769 0.000114912364 4.398242e-05
0.001380443 -0.00040501036 -0.00046998932 -0.00047812267 0.000119963544 -0.000119329554 0.0046685864 9.168787e-06
-8.903802e-05 -0.00420036 -0.0038209574 2.9506868e-05 -1.6891794e-05 -0.0002525053 -7.7645e-05 0.00014623653
-0.00039390379 5.844351e-05 1.2536128e-05 -0.00047733157 0.00018996114 -0.00017728173 -0.000101127356 -0.0001775122
3.2072956e-05 0.0035768626 -9.5794676e-05 -0.003266792 0.0022022175 0.0019254329 -0.00019357321 3.4193115e-05
0.0023309868 -0.00021004438 0.00012705087 0.004561525 -0.00047767724 -0.0016155724 -0.00018487716 -8.574086e-05
-0.0001163913 -5.0994033e-05 -1.9141045e-05 -0.0036767179 0.0001712138 -0.0013834039 2.2475308e-05 -0.0035622714
0.00018689496 3.9924154e-05 -3.863736e-05 7.460508e-05 0.003995295 -3.4182816e-05 -6.1401355e-05 5.8200494e-05
0.001972886 0.00037876933 2.8817522e-05 -8.198658e-05 6.6715205e-05 -0.0001622256 -0.00017256656 -0.000146464
4.872348e-05 -0.0004801435 7.8975296e-05 0.00016166466 0.00010588557 -0.0002237605 -0.00010512966 0.00013938162

layers.4.bias f4 [200]
00000000: 7aac b3b8 104b b8b9 7ccb 2036 a0de 4cb8
00000010: 5c34 c03c a262 a53a 9a1f b0bc 139c 48bd
00000020: 6330 5abd 35b4 73bc 2cd8 1d3d 1af7 e3b8
00000030: 07b6 8b3d fa06 8e3d cba0 97bb 43e0 30bd
00000040: de07 2ebb 9f84 81b7 1f26 fd3a 7615 963a
00000050: 6abc a13c df7f 42bd 9b3a ca3c a86d 583d
00000060: bdc5 d8ba c0ac 8abb f2c0 7a3d 69b7 9cbb
00000070: a144 4abd 792c 4abb 7ded a8bc 7d1c e9bc
00000080: c919 903c 09df c1b8 a725 623b 6741 03bd
00000090: 1b51 00bc b30e 473d 2a0f c0bc 985f fa39
000000a0: 7717 5f3d 863f d1bc 4160 45bd 508e 053d
000000b0: 7088 b839 ccf5 90bc 89da 1b3d 06fc 113a
000000c0: 305d 0b39 a9da 18bb 98ed 2b3d d258 36b9
000000d0: 5610 233c 17e5 46bd 7d67 e03c d8c0 63b6
000000e0: 9040 8436 a174 a0b8 a3e4 beba d3d3 43bd
000000f0: 780d 73bb 2030 c6bc 27f6 dcbc 5c0b 0e3d
00000100: 608a 2a3d c625 323c 8295 183d f22d 68ba
00000110: 3023 b63a c15d 673c c6dc 54bd d29f c7bc
00000120: 8f55 0e3b 59be cf3c 24c2 313c 8102 a53c
00000130: c419 89ba 6703 4a3d 0c21 4f36 4647 e536
00000140: 206e 493d b218 eab8 c5ea 79bc 070d 0fbb
00000150: 81d0 a73c 0ffc 733c 12a1 44bc a268 8e3a
00000160: 716a 6938 d320 20bd 99d3 2e3d de1a 4937
00000170: 148b 613d 5ed6 f839 005e 85bd c4d0 1bb9
00000180: 8d09 223d 2981 26b8 8755 513d 31bb bd3c
00000190: 8913 283c 774e c43c dc38 f13c 06ce a038
000001a0: fa73 90bb 4b2e 85ba 1c43 4b3b 51d6 bcb8
000001b0: 6de9 b838 db26 9838 5462 dd39 dfd9 d1bc
000001c0: 3127 dc3c a995 87bc 4412 983c fbb3 363b
000001d0: adb1 0cbd 322c 33bd 2f23 98bc aae3 d23c
000001e0: caf8 dc39 8bc3 653d e18e 68b7 2cac 2d37
000001f0: d573 52bb c122 083c 76b1 08bc e0fd cebc
00000200: d8eb 49ba 548e 3b3d 68b0 8eba 1a7b d33c
00000210: 71cf 81bc 0533 023c b60b 073c daed eb3b
00000220: 0967 8bb8 1bdc d93c c1f9 11bc 7ca5 b939
00000230: 87f3 06ba 3c30 54bc 6890 863a 3ea6 803d
00000240: eca3 39ba a1a9 053d 3835 44bb 1d4d a839
00000250: 9db3 6ebb a628 babc 6d9b 5a3d 14e6 cc3c
00000260: 5d31 953d 8ee7 193d 4442 c036 a981 963d
00000270: fe08 c83c 84fb 4a3d b247 7bba e107 b8bc
00000280: 6f11 223d e0fc 973d 42fe 6abc a135 1b3d
00000290: fd6d bc3c c259 823b d60b 463d c69e 083d
000002a0: 024d 6239 947f b23c be71 8a3c 7796 7cbd
000002b0: e41c abb8 4108 ccba bb38 933d b35e 063d
000002c0: fa4d a7bb 8273 693d dfee 2ebc 9b47 5abd
000002d0: 54c5 85b8 15d4 e73c ae7d 843d d9df 543d
000002e0: ad5a 49bd 92ea 883c da1d 43bd 79b0 1e3d
000002f0: 1d27 1e3d 2275 33bb ae0b 753c 3719 48bd
00000300: 2426 343d 796a 413d fc8d 15b9 1624 3a3d
00000310: 436c a23d eafd afba 1528 c63c 76db 233d
-8.5675114e-05 -0.0003515114 2.3960301e-06 -4.8844726e-05 0.023462467 0.0012617896 -0.021499444 -0.04897697
-0.0532688 -0.014874508 0.038536236 -0.0001087023 0.06821828 0.069349244 -0.0046273223 -0.043182623
-0.0026554982 -1.5439755e-05 0.0019313729 0.0011450488 0.019743163 -0.04748523 0.024686148 0.05283895
-0.0016538423 -0.004232019 0.061219163 -0.0047826064 -0.049381856 -0.0030849262 -0.020621056 -0.028455967
0.01759042 -9.244501e-05 0.0034507306 -0.032044794 -0.007831837 0.048598003 -0.02344473 0.0004775494
0.054465737 -0.025542986 -0.048187498 0.032606423 0.0003519687 -0.01769533 0.03805021 0.00055688655
0.00013290788 -0.002332369 0.041974634 -0.0001738996 0.009952625 -0.04855832 0.027393097 -3.3937886e-06
3.9414226e-06 -7.651118e-05 -0.0014563989 -0.047809433 -0.0037086885 -0.02419287 -0.026972843 0.034678802
0.04163587 0.010873264 0.037251957 -0.0008856944 0.0013895985 0.014121474 -0.05196836 -0.0243682
0.0021718477 0.02535932 0.010849509 0.020142796 -0.0010459949 0.04931965 3.086464e-06 6.833029e-06
0.04917729 -0.00011162589 -0.015253727 -0.0021827833 0.020485165 0.014891638 -0.012001293 0.0010864923
5.565066e-05 -0.039093804 0.042682264 1.1986789e-05 0.055064276 0.00047461962 -0.0651207 -0.00014859723
0.03955989 -3.9697774e-05 0.051106956 0.023160549 0.010258564 0.023963196 0.029446058 7.6677694e-05
-0.0044083567 -0.0010160891 0.0031015342 -9.004458e-05 8.817283e-05 7.255162e-05 0.00042225665 -0.025616584
0.026874157 -0.016550856 0.018563397 0.0027878273 -0.034349132 -0.04374332 -0.018571464 0.025743324
0.00042147032 0.056094687 -1.3861544e-05 1.035169e-05 -0.0032112498 0.008309067 -0.008343091 -0.025267541
-0.0007702685 0.04579003 -0.0010886313 0.025815535 -0.015845986 0.007946734 0.008242538 0.007199985
-6.647228e-05 0.026594212 -0.008909644 0.00035409245 -0.0005147983 -0.012950953 0.0010266425 0.06281708
-0.0007081616 0.032632474 -0.0029938947 0.0003210091 -0.0036422976 -0.02272446 0.05337088 0.025012054
0.07284806 0.037574343 5.7297602e-06 0.073489495 0.02441835 0.04955627 -0.00095855736 -0.022464694
0.039567407 0.07421279 -0.014342846 0.03789294 0.023001665 0.003977985 0.04835113 0.033354543
0.00021581727 0.02178935 0.01689994 -0.061666932 -8.159297e-05 -0.0015566425 0.07188555 0.032805156
-0.005105731 0.056994922 -0.0106770685 -0.053290945 -6.3786894e-05 0.02829937 0.06469284 0.05197129
-0.04915874 0.016713414 -0.04763589 0.038742516 0.03861152 -0.002738305 0.014956398 -0.04885217
0.043981686 0.04722068 -0.0001426264 0.04544457 0.079308055 -0.0013427113 0.024189034 0.040004216

layers.6.weight f4 [1, 200]
00000000: 33e3 9937 6703 8aba fc67 9b37 91c2 ec39
00000010: a663 d8bc 24f8 693d 645d ccbc 0505 013d
00000020: e05b 5f3c 9eeb ac3a f4c7 753a 851b e339
00000030: 9450 543d 0860 d83c 82ea dcba 79db 873c
00000040: cb01 403a d394 2db9 ba7a 933b ff92 603b
00000050: 7db6 38bd 4f3a 993d 829d 253d 3bc9 d0bc
00000060: 740d efb9 5fab 7dbc 6a36 253d 3e38 9437
00000070: dd84 683d 4860 3c38 36cc dcbb d373 183c
00000080: 4745 39bd e2d0 80b9 61a8 78ba 6db4 9abc
00000090: c8c3 793d 9399 533d 439a 5c3d 6f78 f5b8
000000a0: 07e4 4e3d eac9 883d d12f 833d 05be a43c
000000b0: ce67 6338 c551 42bb 09ff 8a3d 53d6 92bc
000000c0: 3840 91ba 0705 c6b8 731d 253d be4e 86ba
000000d0: 3d2b db3c 6681 cebc 277d e83c e9d7 05b9
000000e0: dc2c 99b8 605a 95b7 0e2e 043c f589 8c3c
000000f0: 62a6 063b 2694 243d 406f 04bc 4003 9c3c
00000100: 2b43 b43c f16d 02bd 26f3 f2bc 98ee 3b3b
00000110: d255 d037 c5a5 13bd c6c7 06bc 16ab 093d
00000120: f85a 0a3c 5919 2abd aadf 223d c973 163d
00000130: abe5 ab3c 11bc 06bd 9b2e f3b9 ba0c 1e37
00000140: 5696 9a3d 9ac4 af38 2cb9 46bb a729 01ba
00000150: 1dae 823d 2869 0c3d cef5 003c 948b 893b
00000160: 12d6 3f3b b4cd 88bc 613d bdbc 6aa7 fbb7
00000170: c00a 2fbd ca91 e83a c4eb 53bd 2db2 0b3b
00000180: 3ef4 7a3d 5410 b339 741e 00bd 95dd 6f3d
00000190: 6cfb 503d fbe5 82bb 21b4 9a3b e94a 373a
000001a0: 113e f2bc 583c 28bd 81a0 1d3c 66b1 7d38
000001b0: 1e66 b4b9 c91e db38 3af4 8039 f0ba 98bb
000001c0: 2f94 20bd 44b0 22bd 3fba 383d 490b 9b3c
000001d0: 3985 e0bc bf55 c3bc 895a dabc eb76 7f3d
000001e0: c8e0 9abb 09ad 603d 1bf0 d238 f496 3237
000001f0: b014 7f3b c9eb c5bc 23e6 363d a1bc 2f3d
00000200: d464 b6b8 fe93 b0bc b0fe 603a 4cb8 50bd
00000210: 9215 0d3d a2db 643c e454 353b 0421 0cbd
00000220: bedc 98b8 be36 a33d 9110 8d3d 4c70 4139
00000230: 6f61 0b39 bcdc 0f3b 560e 263c 1bdb 303d
00000240: f60b 2339 a9b7 bb3c 7b13 2939 d094 a636
00000250: 29aa a138 922d 913d 3964 26bd 2fbf 503c
00000260: 6763 9d3d ca55 b3bc 7523 e337 51ff 5a3d
00000270: 2ab8 ebbc 6d0b dcbc 3323 4ab9 2d11 88bc
00000280: fb91 28bd 1fab 7a3d f21f 5dba 69ec 2fbc
00000290: 1f04 cb3c 61f8 5f3c 2c3e 473c 949d 5b3d
000002a0: d2fe 16b8 e660 1a3d 6a0c 473c 55f9 8abc
000002b0: fec6 e2b6 7f99 9a37 e3c1 613d 9801 503d
000002c0: fc9c 3b3c 7135 bd3c fa10 253d d867 2c3d
000002d0: b56d 97bb 4384 8c3d 4f40 9d3c 49e7 963d
000002e0: 3cbf 063d 1d87 ee3b 5e0e 923d bba3 1ebd
000002f0: 4752 5239 166f ce38 2c9b 39bc 21e0 ccbc
00000300: e729 8bbc 1c26 d6bc b5ee 5439 488f 8e3d
00000310: a5ab 993d 1292 4ab9 32d1 44bc 1d43 e639
1.834482e-05 -0.0010529578 1.8525861e-05 0.0004515839 -0.026414704 0.05712141 -0.024946876 0.031498928
0.013632745 0.0013192778 0.00093758036 0.00043317318 0.051834658 0.026412979 -0.0016854557 0.016584145
0.0007324486 -0.00016554007 0.004500714 0.0034267304 -0.04509591 0.074818246 0.040433414 -0.02548658
-0.00045595656 -0.015482753 0.040335096 1.7669165e-05 0.056767333 4.491236e-05 -0.006738211 0.009304958
-0.045232084 -0.00024569692 -0.00094855396 -0.018884862 0.060977727 0.05166013 0.053858053 -0.00011704943
0.050510433 0.06679137 0.06405605 0.02011014 5.4217693e-05 -0.002965079 0.06786925 -0.017924463
-0.0011081761 -9.442312e-05 0.040311288 -0.0010246856 0.026754016 -0.025208186 0.02837999 -0.00012764301
-7.303964e-05 -1.7804268e-05 0.008067621 0.017155627 0.002054595 0.040180348 -0.008083165 0.019044518
0.022004684 -0.03184313 -0.029656958 0.0028676149 2.4835495e-05 -0.036046762 -0.008226341 0.033610426
0.00844454 -0.04152808 0.039764084 0.036731515 0.020983538 -0.032894198 -0.00046383296 9.420497e-06
0.075482056 8.38127e-05 -0.0030322773 -0.0004927166 0.06380866 0.034279972 0.007871104 0.004197547
0.0029271883 -0.01669965 -0.023100557 -2.999949e-05 -0.04273486 0.0017743644 -0.051738515 0.0021315918
0.061268084 0.00034153706 -0.031279042 0.058560926 0.051021025 -0.003994701 0.00472118 0.00069920585
-0.029570611 -0.041073173 0.009620787 6.0485116e-05 -0.0003440836 0.00010448468 0.00024596025 -0.0046609566
-0.03920382 -0.03971888 0.045099493 0.01892628 -0.027407276 -0.023844598 -0.026654499 0.06236927
-0.004726503 0.05485252 0.000100583035 1.0644773e-05 0.0038922243 -0.024160283 0.04465307 0.0429045
-8.697217e-05 -0.021554943 0.0008582873 -0.05095701 0.0344444 0.01396838 0.0027669007 -0.034211174
-7.289041e-05 0.079694256 0.068879254 0.00018447748 0.0001329237 0.0021951636 0.010135254 0.043177705
0.00015549347 0.022914724 0.00016124353 4.9645096e-06 7.708773e-05 0.0708877 -0.040622924 0.012740894
0.07684975 -0.021891493 2.707702e-05 0.053466145 -0.02877434 -0.026860917 -0.00019277334 -0.016609753
-0.041154843 0.06119835 -0.0008435241 -0.010737517 0.024782239 0.013670058 0.012160819 0.053617075
-3.6000107e-05 0.037690066 0.012148956 -0.016964594 -6.7584906e-06 1.8429708e-05 0.055116545 0.05078277
0.011451002 0.023096772 0.040299393 0.04209122 -0.0046212324 0.068611644 0.019195704 0.07368333
0.03289722 0.0072792904 0.071316466 -0.038730364 0.00020057811 9.843537e-05 -0.0113285 -0.025009217
-0.016987754 -0.026141219 0.00020306821 0.069609225 0.07503442 -0.00019318637 -0.012012767 0.00043919022
