data/model_Dry white.pt (torch_old, 611048 bytes, 7 tensors)

layers.0.weight f4 [100, 12]
0	0x3d50fc41	0.051021818
1	0x3e809699	0.25114897
2	0xbd81a23d	-0.063297726
3	0xbcef3c43	-0.02920354
4	0x3e801b4e	0.25020832
5	0xbde13cec	-0.10997948
6	0x3e593ed5	0.21215375
7	0x3c82586a	0.0159113
8	0x3e1ce970	0.15323424
9	0x3e13bd78	0.14427745
10	0xbdb13029	-0.08651764
11	0xbb89559a	-0.0041911127
12	0x3d0a53f2	0.033771463
13	0xbdf25485	-0.11832527
14	0x3e78d36b	0.242994
15	0xbe598fc6	-0.21246251
16	0xbe4b185a	-0.19833508
17	0x3e6f8b76	0.23393044
18	0x3d452ad5	0.04813655
19	0x3e416165	0.1888481
20	0xbe03eb96	-0.12882838
21	0x3e6abbb0	0.2292316
22	0x3e119515	0.14217027
23	0xbe4d2e1e	-0.20037124
24	0xbe8d6271	-0.27614167
25	0x3de6ff1a	0.112791255
26	0xbdde3571	-0.10850037
27	0xbe00738e	-0.1254408
28	0xbc11edc8	-0.008906789
29	0x3e3fd87a	0.18734923
30	0x3e5e935c	0.217359
31	0xbd783798	-0.060599893
32	0x3e746116	0.2386516
33	0x3e7f135d	0.2490973
34	0x3e83b7f1	0.25726274
35	0xbdbb8d2d	-0.091577865
36	0x3dbe7cdc	0.09301159
37	0xbdb43632	-0.087993994
38	0x3e793b77	0.2433909
39	0xbe108785	-0.14114197
40	0xbd501ca2	-0.050808556
41	0x3d46a11c	0.04849349
42	0xbdc83e6f	-0.09777533
43	0x3e71141a	0.23542824
44	0xbe394f8d	-0.18096752
45	0x3e788bf2	0.24272135
46	0x3e512c31	0.20427014
47	0xbe4a3841	-0.19748022
48	0xbe8832c4	-0.2660123
49	0x3ddaad2d	0.10677562
50	0x3e862b15	0.26204744
51	0x3e8254d1	0.25455335
52	0x3d68afda	0.05680833
53	0xbe810514	-0.25199187
54	0xbcb70865	-0.02234287
55	0x3d8a498c	0.06752309
56	0x3e42dcec	0.19029588
57	0x3d58fdc4	0.052976385
58	0x3e908f18	0.28234172
59	0xbd83271f	-0.06403946
60	0xb87b5840	-5.9925253e-05
61	0x3e25ef47	0.16204558
62	0x391468b0	0.00014153379
63	0xba32db63	-0.00068228523
64	0xbe17ccf0	-0.14824271
65	0xbd4adbe9	-0.04952613
66	0xbe006345	-0.12537868
67	0x3df17bb9	0.11791176
68	0xbe1d9902	-0.15390399
69	0xbdf303ee	-0.11865984
70	0xbb3ae9ae	-0.0028520632
71	0x3d158e0d	0.036512423
72	0xbb909cfc	-0.0044132452
73	0xbe284868	-0.16433871
74	0xbd83f71e	-0.06443618
75	0xbda3a144	-0.07989743
76	0x3df333dd	0.118751265
77	0x3decdf17	0.115659885
78	0x3d57ee04	0.052717224
79	0x3d9395c7	0.07206302
80	0xbcdeb26a	-0.027184684
81	0xbda2f881	-0.079575546
82	0x3dbca710	0.09211552
83	0xbe120413	-0.14259367
84	0xbdd3556f	-0.103190295
85	0x37e98bbc	2.7840833e-05
86	0xbd2dc985	-0.042428512
87	0x3a14c7b5	0.00056755106
88	0xbdb2625e	-0.08710168
89	0xbcf3094c	-0.029667519
90	0x3dd9ebc5	0.106406726
91	0xb7021fb9	-7.75599e-06
92	0xbda73e55	-0.08166186
93	0x3d96f31c	0.07370588
94	0xb6ec1296	-7.0355118e-06
95	0x3b3bda26	0.0028663962
96	0xbe78d117	-0.24298511
97	0x3dd3a72a	0.103346184
98	0x3e74c650	0.23903775
99	0x3e87d2c7	0.26527998
100	0x3e1ac424	0.15113884
101	0x3c9b3c81	0.018949749
102	0xbe62c496	-0.22145304
103	0xbcadc26b	-0.02121087
104	0xbda0b3fa	-0.07846828
105	0x3e8e25fb	0.27763352
106	0x3dec79ce	0.1154667
107	0x3da13065	0.07870559
108	0xbcea938c	-0.028634809
109	0xbc524d68	-0.012835838
110	0xbd4b1bea	-0.049587168
111	0x36f539b0	7.3082847e-06
112	0x3d711357	0.058856335
113	0xbdcaeb50	-0.099081635
114	0xbe1c1444	-0.15242106
115	0xbc4e5276	-0.012592902
116	0xbd501aed	-0.05080693
117	0x3d93074f	0.071791284
118	0xbc69e57f	-0.014275908
119	0x3dd254be	0.102700695
120	0x3e899019	0.2686775
121	0x3c9260db	0.01786845
122	0xbe3c8a27	-0.18412076
123	0xbdc3341a	-0.09531422
124	0x3c103bdf	0.008803337
125	0xbca7a27e	-0.020463225
126	0x3d5782ad	0.052614857
127	0x3da4cb68	0.08046609
128	0x3d4f3a20	0.05059254
129	0xbdd16741	-0.10224772
130	0x3db7a6ef	0.08967387
131	0xbe3b2fa6	-0.18279895
132	0x3ca250fd	0.019814009
133	0xbe57de10	-0.21080804
134	0x3e4f156f	0.2022302
135	0x3e55b467	0.208696
136	0xbe3b8a6e	-0.18314525
137	0x3e2da318	0.16956747
138	0x3db0f924	0.0864127
139	0x3e3ca623	0.18422751
140	0xbe555fe7	-0.20837365
141	0xbe38c143	-0.18042473
142	0x3dc4d42d	0.09610782
143	0x3d1efd4d	0.038815785
144	0xbe59084f	-0.21194576
145	0x3e1ad195	0.15119012
146	0xbd86550e	-0.06559192
147	0x3b9804a8	0.004639227
148	0x3e6e9b55	0.23301442
149	0x3e8a8c50	0.27060175
150	0x3de92aa8	0.11385089
151	0x3e75565c	0.23958725
152	0xbc20f1f5	-0.009823312
153	0xbcb3195f	-0.021862684
154	0xbd1f5653	-0.038900685
155	0x3e69ca69	0.2283112
156	0xbe6af8f1	-0.22946526
157	0xbc612bf9	-0.013743394
158	0x3dd8df40	0.105894566
159	0xbd0e69b3	-0.03476877
160	0x3e4f1bf8	0.20225513
161	0xbe3378b6	-0.17526516
162	0xbe4659c6	-0.19370183
163	0xbcdffe52	-0.027342949
164	0x3ded9357	0.116003685
165	0x3e457004	0.19281012
166	0xbd648349	-0.055789266
167	0xbd9ef89c	-0.07762262
168	0xbe393d4e	-0.18089792
169	0xbd026b99	-0.031840894
170	0x3e0baa8d	0.13639279
171	0x3d8d6e72	0.069058314
172	0x3d7de2bb	0.061983805
173	0x3e34d91b	0.17660944
174	0xbe49d900	-0.19711685
175	0xbd8eb38c	-0.069678396
176	0xbe2bc780	-0.16775322
177	0x3d066eef	0.03282064
178	0x3e1eee3a	0.15520564
179	0xbe218f84	-0.15777403
180	0x3d6972ef	0.056994375
181	0xbdd65378	-0.10465139
182	0xbe760c3c	-0.24028105
183	0x3e0c0c93	0.13676672
184	0x3dd036b6	0.10166685
185	0xbe84cff2	-0.259399
186	0xbd8bd8cf	-0.06828462
187	0x3e18e10d	0.149296
188	0x3d6013a9	0.05470625
189	0x3e32f460	0.17476034
190	0x3e6440e1	0.22290374
191	0x3e549289	0.20759024
192	0x3e2ac4a0	0.16676569
193	0x3d7ab7cc	0.06121044
194	0x3d1f23b4	0.03885241
195	0xbaf565c0	-0.001872234
196	0x3c75f622	0.015012296
197	0x3be4874c	0.0069741365
198	0xbd89f39b	-0.06735917
199	0x3e391751	0.18075301
200	0xbc8c6d33	-0.017141914
201	0x3e481c94	0.19542152
202	0xbdd87ed8	-0.105710685
203	0xbe77c0a3	-0.24194579
204	0x3e74977e	0.23885915
205	0x3df7d247	0.12100654
206	0xbe53b34c	-0.20673865
207	0xbe84d84d	-0.25946274
208	0x3d00db3e	0.031459086
209	0x3e77d3c2	0.24201873
210	0xbe1179f8	-0.14206684
211	0xbe306d14	-0.1722911
212	0x3e8ad844	0.27118123
213	0x3d00e646	0.031469606
214	0x3e243213	0.16034727
215	0x3cd95ad6	0.026532572
216	0xbdedbecf	-0.116086595
217	0xbe4c7791	-0.19967486
218	0xbdc97e12	-0.09838499
219	0x3dd82f94	0.1055595
220	0x3e5ad207	0.21369182
221	0xbe1aef8c	-0.15130442
222	0x3d232f4b	0.039840024
223	0x3dc079c7	0.09398227
224	0xbe3b986d	-0.18319865
225	0x3e50591b	0.20346491
226	0x3e50f6b5	0.20406611
227	0x3c8304ff	0.015993593
228	0x3c758cec	0.014987212
229	0xbdcfd35f	-0.10147738
230	0xbe7840b0	-0.24243426
231	0x3e7e30d9	0.24823321
232	0x3e7806d5	0.24221356
233	0x3e2bca4d	0.1677639
234	0x3e3964e0	0.18104887
235	0xbe86f821	-0.26361182
236	0xbe8f642f	-0.28006122
237	0x3e1f4241	0.15552618
238	0x3df261e0	0.118350744
239	0x3e6370ea	0.22211042
240	0x3d86f2ad	0.065892555
241	0xbe8c86b1	-0.2744651
242	0x3d98887a	0.07447906
243	0xbe17419c	-0.14771122
244	0x3e176390	0.14784074
245	0x3bf429d1	0.007451274
246	0x3e1739a3	0.1476808
247	0x3d045710	0.03230959
248	0x3d331f77	0.04373118
249	0x3e826fd3	0.2547594
250	0x3c3f0622	0.011659177
251	0xbd0af476	-0.033924542
252	0x3e626ac0	0.22111034
253	0x3e6664fd	0.22499461
254	0xbdda7afc	-0.10667989
255	0x3e811d2c	0.2521757

layers.0.bias f4 [100]
0	0xbce7ef08	-0.028312221
1	0xbe399206	-0.1812211
2	0xbe84fa86	-0.25972384
3	0x3e41467b	0.18874542
4	0x3e62e59a	0.22157899
5	0xb70df90e	-8.4622425e-06
6	0x3defdf44	0.117125064
7	0xbd278ec1	-0.040907625
8	0x3e772b2a	0.2413756
9	0xbcb42dfe	-0.021994587
10	0x3e1a5603	0.15071873
11	0x3e7eede6	0.24895439
12	0x3b91eee9	0.004453529
13	0x3db3ba3e	0.08775757
14	0x3d86e591	0.06586755
15	0x3e8694d0	0.2628541
16	0x3e8c3117	0.27381203
17	0xbdbbc5bc	-0.09168574
18	0x3dc434e8	0.095804036
19	0xbe0af181	-0.13568689
20	0xbe25e0ff	-0.1619911
21	0x3d42c5fd	0.047552098
22	0xbe662f3e	-0.22478959
23	0x3e10ed12	0.14152935
24	0x3e28256b	0.16420524
25	0x3d5cbbcd	0.05389004
26	0xbd79260e	-0.060827307
27	0x3df13f32	0.11779632
28	0xb62c35d4	-2.566133e-06
29	0xbd9d3c87	-0.0767756
30	0x3e128919	0.14310111
31	0xbe16e9ab	-0.14737575
32	0x3df54205	0.11975483
33	0x3e5a6dfa	0.21331015
34	0x3da687d4	0.08131376
35	0xbcb2e3ce	-0.021837141
36	0xbd1391d6	-0.036027752
37	0xb90a8028	-0.00013208447
38	0x3ddaa543	0.106760524
39	0xbe068462	-0.13136438
40	0xbe0dd31c	-0.13850063
41	0xbe1ce825	-0.15322931
42	0x3e1d24fe	0.15346143
43	0x3e716db5	0.23577006
44	0xbc0830be	-0.008312402
45	0xbb8141f6	-0.0039446307
46	0x3d97a833	0.07405128
47	0x3b82b8ba	0.0039893063
48	0x3d821f1f	0.06353592
49	0xbc3ac119	-0.011398577
50	0xbdd61619	-0.104534335
51	0xbd941e18	-0.072323024
52	0xbd1f01cd	-0.038820077
53	0xbe50e241	-0.20398809
54	0x3dd0a746	0.10188155
55	0xbe1c155c	-0.15242523
56	0xbda87f7b	-0.0822744
57	0xbe02faeb	-0.1279103
58	0x3e15ab1b	0.14616053
59	0xbe778fca	-0.24175945
60	0x3cb0731a	0.02153926
61	0xbd89f5f8	-0.06736368
62	0xbde134d6	-0.10996406
63	0x3db7b22b	0.0896953
64	0x3cb809b4	0.022465564
65	0x3e224cf7	0.15849672
66	0xbe8f0790	-0.27935457
67	0xbdb4c31a	-0.08826275
68	0xbe21b2e9	-0.15790905
69	0xbcccebe3	-0.025014823
70	0x3ce633b5	0.028100828
71	0xbe584490	-0.21119905
72	0x3d3b0192	0.045655794
73	0xbca276b4	-0.019831993
74	0x3d87f4f9	0.06638522
75	0xbe685e16	-0.22692141
76	0xbd9b9a41	-0.07597781
77	0xbd82843a	-0.063728765
78	0x3d826300	0.06366539
79	0x3dd7e43a	0.10541578
80	0xbe4908c9	-0.19632258
81	0x3d1bac34	0.038006023
82	0xbe01716a	-0.1264092
83	0xbd1210b8	-0.035660475
84	0xbe3117cf	-0.17294239
85	0xbd8897d0	-0.06669581
86	0x3e2bcb7f	0.16776846
87	0x3e526e24	0.20549828
88	0x3cd1625a	0.025559593
89	0xbdd8f345	-0.10593275
90	0xbdd54dd7	-0.104152374
91	0x3abfe14c	0.0014639287
92	0xbe113dc1	-0.14183713
93	0xbb5d0ae0	-0.0033728406
94	0xbe05a591	-0.1305144
95	0xbd4f55e4	-0.05061902
96	0xbd798d7f	-0.060925957
97	0x3758da9a	1.29255e-05
98	0x3606d1da	2.0089706e-06
99	0x3c6f8c19	0.014620804

layers.2.weight f4 [300, 100]
0	0x3dc1a4ec	0.094552845
1	0x3ba635f8	0.0050723515
2	0xbd5c92af	-0.053850826
3	0xbd873250	-0.06601393
4	0x3dbbba05	0.0916634
5	0xb7505170	-1.2416727e-05
6	0x39407fda	0.00018358175
7	0x3b9218f6	0.004458542
8	0xbd583774	-0.05278726
9	0xbb7db233	-0.0038710951
10	0xbca03edd	-0.019561226
11	0xbd3b5777	-0.04573771
12	0xbd6c7c4d	-0.05773573
13	0xbc401bc7	-0.011725373
14	0xbd0703aa	-0.03296248
15	0x3d483d1a	0.048886396
16	0xbd8577cf	-0.06516992
17	0x3d9fb696	0.077984974
18	0xbc930f56	-0.017951649
19	0x3db6015f	0.0888698
20	0xbca5ede0	-0.02025503
21	0xbbf44c34	-0.007455373
22	0xbb4f87c6	-0.003166662
23	0x3db6f28e	0.089329824
24	0x3d16f703	0.036856662
25	0x3db60814	0.088882595
26	0x3b4f28d0	0.003161002
27	0xb69b945f	-4.6366326e-06
28	0xb8e85c8a	-0.00011079859
29	0x39011a73	0.00012312252
30	0x36413dbe	2.879518e-06
31	0x3d4d38ab	0.05010287
32	0x3d7a135f	0.06105363
33	0xbc72b19f	-0.014812856
34	0xbdaaa5c2	-0.08332397
35	0x380aecc1	3.3122258e-05
36	0xb7c98f6d	-2.4027855e-05
37	0xbbf9126f	-0.0076010744
38	0x3d78a448	0.060703546
39	0xb78b386b	-1.6596363e-05
40	0xb81b5198	-3.703087e-05
41	0x367a30ba	3.7281266e-06
42	0x3dc9104b	0.09817561
43	0xbdb0cff1	-0.08633412
44	0xbd87664b	-0.06611308
45	0x36b6cb51	5.447692e-06
46	0xba6782f8	-0.00088314665
47	0xbd604168	-0.054749876
48	0xbd4a74d3	-0.04942782
49	0xbd5e7e4b	-0.05431966
50	0xbcb44a60	-0.022008121
51	0xbb172e0b	-0.0023068215
52	0x3c029458	0.007969938
53	0x3dc65bc6	0.09685473
54	0x3b1e013e	0.0024109627
55	0xbc9b2f26	-0.01894338
56	0xbda532ae	-0.08066307
57	0x3d0b7988	0.034051448
58	0x3be3d916	0.006953369
59	0xbd73ea42	-0.059549578
60	0x3bea2b8a	0.0071463035
61	0xbd9205b0	-0.07129991
62	0x364d2358	3.0567953e-06
63	0xbd29ff8a	-0.041503467
64	0x3d772422	0.060337193
65	0x3908ffa4	0.00013065204
66	0x3b9b8486	0.0047460226
67	0x3dba3798	0.09092635
68	0xb8e86ce4	-0.000110829045
69	0x36d6fed6	6.407364e-06
70	0xbd2c4edc	-0.042067394
71	0x3d7cb252	0.061693497
72	0xb9c78cd3	-0.0003806116
73	0x3b740f09	0.0037240407
74	0x3d9a2cb2	0.07528056
75	0x3d38f20e	0.045152716
76	0x394e62ff	0.0001968257
77	0x39411338	0.00018413074
78	0x3ba01f26	0.0048865257
79	0x3d836f42	0.06417705
80	0xbc60df51	-0.013725118
81	0x3d958691	0.07301057
82	0x3da9fbf0	0.083000064
83	0xbcd295bd	-0.025706166
84	0xbd112db7	-0.035443988
85	0xbd95fa8e	-0.0732318
86	0xbbf4f05e	-0.007474943
87	0xbd87fa36	-0.06639521
88	0x3cc284b1	0.023744913
89	0xbd39978a	-0.045310535
90	0x3a8a93f9	0.0010572664
91	0xb6f5e51a	-7.32824e-06
92	0x39fc468a	0.0004811774
93	0x3d8553b2	0.06510104
94	0x3d6819f5	0.05666538
95	0x3d5a329a	0.053270914
96	0x3c6c3bc3	0.014418545
97	0xb74d56b5	-1.223914e-05
98	0xb7aa2bc9	-2.0285968e-05
99	0x3b2304f0	0.002487477
100	0x3a7c8e02	0.0009634198
101	0xbbb3d7fd	-0.0054883943
102	0x3b93e036	0.004512812
103	0x3763ac30	1.3570345e-05
104	0x3a3388bd	0.00068486837
105	0x3b408722	0.002937742
106	0x3b1441de	0.0022622268
107	0xba8af4d1	-0.0010601525
108	0xbb21b0b6	-0.0024671978
109	0x3b8f62f6	0.0043758107
110	0xb8f7afa1	-0.00011810591
111	0x3ae08a85	0.0017131126
112	0x39aede7c	0.0003335363
113	0xb9d6d037	-0.00040972393
114	0xba39b2ac	-0.0007083814
115	0x3b10c259	0.0022088496
116	0x390ecaca	0.0001361772
117	0xba8a7d2c	-0.0010565869
118	0x3b1e8b6c	0.0024191989
119	0x3b8aabb8	0.0042318963
120	0x3b83a347	0.004017267
121	0xbb205f7b	-0.0024470973
122	0x3baf7331	0.005354308
123	0xb991988c	-0.0002777021
124	0xbb158104	-0.0022812495
125	0x3a44baa8	0.00075046206
126	0xbab3545a	-0.0013681755
127	0xb7067ca0	-8.016039e-06
128	0xb621f3d2	-2.4132792e-06
129	0xb84c6445	-4.8730773e-05
130	0xb72553fb	-9.85432e-06
131	0x3b9de854	0.0048189554
132	0xbbfea968	-0.0077716596
133	0xb96f8188	-0.0002284107
134	0x39a6cb7b	0.00031813592
135	0x3842354f	4.6302852e-05
136	0x351e1f47	5.89051e-07
137	0xb7090625	-8.167267e-06
138	0xbb70a311	-0.003671829
139	0xbb854115	-0.0040665963
140	0x3891355b	6.924077e-05
141	0xb8453dc8	-4.7026e-05
142	0x3b231720	0.002488561
143	0xbb8a289f	-0.004216268
144	0x3ae88ff5	0.0017743098
145	0x3a42f46b	0.0007436934
146	0xbbe8b8c6	-0.007102105
147	0xba6bdf1e	-0.00089977856
148	0x3700cdb8	7.677292e-06
149	0x3a240297	0.00062564894
150	0x3b36af42	0.0027875458
151	0xb5225adf	-6.048194e-07
152	0xbb09126f	-0.0020915528
153	0x3a221267	0.0006182552
154	0xb8e8fd59	-0.00011109812
155	0x399cc29f	0.00029899643
156	0x3b8653e0	0.004099354
157	0x3c1de3ac	0.009636801
158	0xbb102dc9	-0.0021999946
159	0x3955c01e	0.00020384832
160	0x3997863a	0.0002890097
161	0x3b2baedb	0.0026196751
162	0xb5470f61	-7.4155656e-07
163	0xbb097289	-0.002097281
164	0xbb468e2c	-0.0030297143
165	0xbbbd847b	-0.005783615
166	0x3ba6acad	0.0050865025
167	0xba574ca7	-0.0008213021
168	0x389be33e	7.433303e-05
169	0xb8ec625b	-0.00011271677
170	0xbc01de6c	-0.007926565
171	0x3895b0dc	7.137816e-05
172	0x392d0677	0.00016500974
173	0x3abb62ac	0.0014296374
174	0x39646db2	0.00021784639
175	0xba7b3989	-0.00095834635
176	0x3730278e	1.0499627e-05
177	0x3bbda09c	0.0057869684
178	0xb9983957	-0.0002903442
179	0x3b2473f6	0.0025093532
180	0xbade686d	-0.0016968377
181	0x3b5954d4	0.0033162134
182	0x3acbd210	0.0015550274
183	0x3b5f1201	0.003403783
184	0x3b061079	0.0020456596
185	0x3abaa5c7	0.0014240079
186	0x3b589eb3	0.0033053576
187	0x3b346118	0.0027523693
188	0xbb72278c	-0.0036949841
189	0x3b0d5b10	0.002156917
190	0x38877652	6.4593405e-05
191	0xb7f1acd2	-2.8809915e-05
192	0xbad74932	-0.0016425012
193	0x3a4da55b	0.0007844769
194	0xba65e9a0	-0.00087704696
195	0x3b208b7c	0.0024497202
196	0xb8616660	-5.3739524e-05
197	0xb7abcd66	-2.0480435e-05
198	0xb64944fd	-2.999149e-06
199	0xba1b7800	-0.0005930662
200	0x3d64fb07	0.05590346
201	0xb7310b5c	-1.0552667e-05
202	0xbc6ca015	-0.014442463
203	0xbc6db995	-0.014509578
204	0xbd0ba3c3	-0.034091722
205	0x37821ef6	1.5511625e-05
206	0x37eb531f	2.805289e-05
207	0x3b9fd2a8	0.004877407
208	0xbd358fae	-0.044326477
209	0x393885f9	0.00017597516
210	0xbc3638e3	-0.011121961
211	0x3c8119db	0.0157594
212	0xbc957c01	-0.018247606
213	0xb964a0f0	-0.00021803728
214	0x3afb1e45	0.0019158801
215	0x3d2690c8	0.040665418
216	0xbd6b84a2	-0.057499535
217	0xbc044e23	-0.00807527
218	0x35e91670	1.7366383e-06
219	0x3c97a439	0.018510925
220	0xb7ae4753	-2.077563e-05
221	0xbcf79819	-0.030223893
222	0x38618004	5.3763404e-05
223	0x3caee869	0.021351056
224	0xbd7a15c2	-0.061055906
225	0xbc1a8cc0	-0.0094329715
226	0xbae75a54	-0.0017650821
227	0xbbdf4787	-0.0068139466
228	0xb908e921	-0.00013056818
229	0xbbd17f41	-0.0063933437
230	0xbc09ca4d	-0.008410049
231	0x3a8c7408	0.0010715732
232	0x3a9446f5	0.0011312651
233	0x3d0abd30	0.03387183
234	0x3d757a94	0.059931353
235	0xb901703a	-0.00012344206
236	0xbb2eba38	-0.0026661288
237	0x3ba0d67d	0.0049083815
238	0x3c98cfec	0.018653832
239	0x36fda09c	7.558685e-06
240	0x36b75e08	5.4647717e-06
241	0xb7de1ede	-2.6478836e-05
242	0xbd2b53bf	-0.041827913
243	0xbd125eca	-0.03573493
244	0xbb4f1942	-0.0031600748
245	0x3a53928b	0.0008070848
246	0x3bf3cd43	0.0074402406
247	0x3aeeaba8	0.0018209117
248	0x3cc2650f	0.02372983
249	0xbd0f9f92	-0.035064287
250	0xbba9c422	-0.0051808516
251	0x36dde069	6.612438e-06
252	0x3c3d3a79	0.0115495855
253	0xbd6fe530	-0.05856818
254	0xb75883b2	-1.2905266e-05
255	0xbd1914e9	-0.037373457

layers.2.bias f4 [300]
0	0xbd2870f8	-0.04112336
1	0x3a899d3e	0.0010499132
2	0xbc462cb6	-0.012095621
3	0xbd3ac896	-0.04560145
4	0xbbe71a3a	-0.007052687
5	0xbc3288cc	-0.010896873
6	0x38e0332a	0.000106906824
7	0xbd827822	-0.0637057
8	0xbb82a0dd	-0.0039864616
9	0xbd78b89f	-0.060722943
10	0xbb5e9f3e	-0.0033969427
11	0xb809f46b	-3.2890977e-05
12	0xbb336889	-0.002737554
13	0xbcf2a813	-0.02962116
14	0xbd18eba0	-0.037334085
15	0x3d5d3465	0.054005045
16	0x3d09331e	0.033496015
17	0xba356e0e	-0.00069210015
18	0xbce79fd7	-0.02827446
19	0x36855d42	3.9745655e-06
20	0x3dc6ed07	0.09713178
21	0x3d588adc	0.0528668
22	0x3dba214b	0.090883814
23	0x39b58ad0	0.00034626434
24	0xb63b32d5	-2.789476e-06
25	0xbb2f858a	-0.0026782476
26	0xbd8a8755	-0.06764094
27	0x3c719e54	0.014747221
28	0xbb3c9aff	-0.0028778908
29	0xbaf49df5	-0.0018662798
30	0x3db65409	0.08902747
31	0x3c9f8551	0.01947275
32	0x3bb6391a	0.0055610063
33	0xbd89e280	-0.067326546
34	0x3daaa62b	0.08332475
35	0x3c1c7810	0.0095501095
36	0xbb969328	-0.004595179
37	0x3d7484b3	0.059696864
38	0x3da359d2	0.07976116
39	0xbd25d9c5	-0.040490884
40	0xbdb7917f	-0.08963298
41	0xbd83f5bf	-0.06443357
42	0x3da50898	0.0805828
43	0xbd929444	-0.07157186
44	0xbd0d0e11	-0.034437243
45	0x3c8e36d4	0.017360128
46	0x3c026c20	0.007960349
47	0xbd500ac3	-0.050791513
48	0x3d494beb	0.049144667
49	0xbb69b4ca	-0.0035660737
50	0xbc077a0f	-0.008268847
51	0xbd3eb2a6	-0.04655709
52	0x3923d71e	0.00015625029
53	0x3d7f4e82	0.06233073
54	0xb6021d22	-1.9388467e-06
55	0x39098497	0.00013114732
56	0xbc0b602f	-0.008506819
57	0xb7176a1c	-9.025007e-06
58	0xbd1a21f6	-0.037630044
59	0xb7e92f14	-2.7797687e-05
60	0xbd41416b	-0.047181528
61	0x3d0cfebd	0.034422625
62	0xbc2b3ea8	-0.01045195
63	0x379ae105	1.8463013e-05
64	0x3b631cb8	0.003465457
65	0xb90bb749	-0.00013324352
66	0x38a58b75	7.893789e-05
67	0x3c3ba6fb	0.011453385
68	0xb7e2759f	-2.6996071e-05
69	0xbc0a1810	-0.0084285885
70	0xbda7e92c	-0.08198771
71	0x3d95f4e8	0.07322103
72	0xbb1a9a0c	-0.0023590354
73	0xbd1aca58	-0.037790626
74	0xbdb5277f	-0.08845424
75	0xbb6fcca9	-0.0036590493
76	0xbbceff5a	-0.0063170614
77	0xbd9fcd01	-0.07802773
78	0x36eede0e	7.1188033e-06
79	0x3d68ce07	0.056837108
80	0x3d3e9ae1	0.046534423
81	0xbb12652d	-0.0022338137
82	0x3dac6483	0.084176086
83	0x3d48740d	0.0489388
84	0x3db006ae	0.08595024
85	0xb9a5cd2d	-0.0003162412
86	0x3d022fd8	0.03178391
87	0x3d8c1137	0.06839221
88	0xbdb718ad	-0.089402534
89	0x37731ab4	1.4490146e-05
90	0x3a214b71	0.0006152904
91	0xbd8f7e41	-0.07006503
92	0x3d8dc0cc	0.06921539
93	0x3dc66089	0.09686381
94	0x3d64e825	0.055885453
95	0xbb8b6bea	-0.0042548077
96	0x3b8e0d0f	0.004335053
97	0xbdac2e75	-0.084072985
98	0x3ca1a456	0.019731682
99	0x3d0f1300	0.03493023
100	0xbd70ea16	-0.05881699
101	0x3b4ebb73	0.0031544834
102	0x3dc9f79d	0.098616816
103	0xbd9019cc	-0.0703617
104	0xbd5e0fee	-0.05421441
105	0x3c94cb21	0.018163266
106	0x3d243e79	0.04009864
107	0x3d8a6933	0.067583464
108	0xbc01113e	-0.007877646
109	0xbaf4a292	-0.0018664172
110	0x3d13a013	0.03604133
111	0xbd5fc8fc	-0.054635033
112	0x3d95f938	0.07322925
113	0xbc98e941	-0.018665912
114	0xbc8eeefc	-0.017447941
115	0x3c4e98a5	0.0126096355
116	0x3d31a8f4	0.043374017
117	0xbb895ef1	-0.004192226
118	0xbb8e0690	-0.0043342784
119	0x3782564b	1.5537391e-05
120	0x3d2b1c5f	0.041775104
121	0x3d76ba3f	0.060236212
122	0x3db76a1b	0.08955785
123	0x37075615	8.06667e-06
124	0x3b87d5f9	0.0041453806
125	0xbc5e720d	-0.0135769965
126	0xbbd79905	-0.0065795206
127	0x3d641682	0.055685528
128	0x3d6ada52	0.057337113
129	0x3d94efab	0.072722755
130	0x3d817205	0.063205756
131	0x3d326448	0.043552667
132	0xbd8765e3	-0.0661123
133	0x3d8ad527	0.06778937
134	0xba5d6238	-0.00084451167
135	0x3c89ad90	0.016806394
136	0x3d43b540	0.047780275
137	0xbb1e474d	-0.0024151385
138	0x3db2b73a	0.08726354
139	0xbc0924f2	-0.008370625
140	0x3cb59242	0.022164468
141	0xbc095149	-0.008381196
142	0xbbb6525a	-0.0055640163
143	0x3d73f47c	0.05955933
144	0x3d197b4c	0.0374711
145	0x373135f5	1.0562585e-05
146	0x3d17e1d2	0.037080593
147	0x3cda01d3	0.026612198
148	0xbd49afda	-0.04923997
149	0xbc94bb6c	-0.018155776
150	0x3caea335	0.021318058
151	0x3cd003b3	0.025392389
152	0xbdb9bb96	-0.09068982
153	0x3d12aeee	0.035811357
154	0x3c7f12a4	0.015568409
155	0x3b8dc49a	0.0043264152
156	0xb65c11c3	-3.2792893e-06
157	0x3dbd15a8	0.09232646
158	0xbd07f23c	-0.033189997
159	0x3d6e6afe	0.058207504
160	0x3d594d12	0.053052016
161	0x3d908e4c	0.07058391
162	0xbd03d8c0	-0.03218913
163	0xb91f02d8	-0.00015164481
164	0xbca9529a	-0.02066927
165	0x3d560752	0.052253075
166	0x3d86bbbb	0.065787755
167	0x3cd3ac38	0.025838956
168	0x3c605178	0.013691299
169	0x3cb788a6	0.022404026
170	0x3d82b7f2	0.06382741
171	0x3d1269b8	0.035745353
172	0xbc739ffa	-0.014869684
173	0x38b2bb1b	8.5225525e-05
174	0x3c488d42	0.01224071
175	0xb7572516	-1.2823633e-05
176	0x3dbacfc4	0.091216594
177	0x3d9cd787	0.07658296
178	0x3d58b351	0.052905384
179	0xbd80760e	-0.06272517
180	0x3d9e45e8	0.07728177
181	0x3cf6aa8a	0.030110616
182	0xba642954	-0.0008703668
183	0xbd23a973	-0.03995652
184	0x35a18e58	1.2036862e-06
185	0xbd388fc7	-0.04505899
186	0xbd776f61	-0.060408954
187	0x3da728ef	0.08162104
188	0x3c620d1e	0.013797073
189	0xbd32d49a	-0.043659784
190	0x384f8fa9	4.948644e-05
191	0xbd7c5a22	-0.061609395
192	0xbd8b4d2f	-0.06801831
193	0x3da95b03	0.08269312
194	0x3d647ba5	0.05578198
195	0xbd4e95ae	-0.050435714
196	0xb62815bc	-2.5046602e-06
197	0xbd85ca70	-0.065327525
198	0x3d81930e	0.063268766
199	0xbd7f3ef7	-0.062315907
200	0xbd492e26	-0.049116276
201	0x3c326c06	0.010890013
202	0x3ce63eb5	0.028106073
203	0x3ca8bc17	0.0205975
204	0x3d099210	0.03358656
205	0xbbd2c227	-0.006431836
206	0x3bfbd5f6	0.0076854182
207	0x3a3ae162	0.00071289216
208	0xbbdbfa61	-0.006713197
209	0x3d88f7e9	0.0668791
210	0x3d9c0cf9	0.07619662
211	0x3d8ece80	0.069729805
212	0x3c29e642	0.010369839
213	0x3a836cd1	0.0010026937
214	0x3911f55c	0.00013919681
215	0x3d3d74e8	0.04625407
216	0x3d956486	0.07294564
217	0xbd1b5bd4	-0.03792937
218	0x3d8c1d42	0.06841518
219	0x3d15c2f8	0.03656289
220	0xbd680694	-0.0566469
221	0xb4f4b579	-4.558058e-07
222	0x37e9ee17	2.7886634e-05
223	0x3d044b75	0.032298524
224	0xb726a985	-9.93384e-06
225	0xbbacff88	-0.005279485
226	0xbc0ecd6b	-0.008715968
227	0x3d3e0d75	0.046399552
228	0xbd6a9f38	-0.05728075
229	0x3d0adb76	0.0339007
230	0x3bf416a5	0.0074489885
231	0x3d683f57	0.05670103
232	0x3db657da	0.08903475
233	0x3d296525	0.041356225
234	0x3bbc7d53	0.0057522445
235	0xbba1a649	-0.004933153
236	0x382870cf	4.0159382e-05
237	0x38bf616d	9.125737e-05
238	0x3d7bcd4b	0.06147508
239	0x3d8f6e6a	0.07003482
240	0x3928072d	0.00016024402
241	0xbd55c8e7	-0.05219355
242	0xbb91533a	-0.00443497
243	0xb5cbc991	-1.5183342e-06
244	0x3d8ceab6	0.06880705
245	0x37a0895a	1.9137446e-05
246	0xbca5c885	-0.020237217
247	0xbc889a5a	-0.016675163
248	0x3c88e15a	0.016709018
249	0xbd528cb5	-0.05140372
250	0x3750e5cf	1.2451273e-05
251	0x3d1d0238	0.038332194
252	0xbb2901d4	-0.0025788443
253	0xbd5a0345	-0.053225774
254	0x3d090038	0.033447474
255	0xbdba6729	-0.091017075

layers.4.weight f4 [400, 300]
0	0xbcb83047	-0.022483958
1	0xbaaa3e3e	-0.001298852
2	0xba1684ed	-0.00057418534
3	0xbbb92866	-0.005650568
4	0xbc57ca17	-0.013170741
5	0x38cd6c1d	9.7952994e-05
6	0x37e6cefa	2.7514518e-05
7	0x3d4c962e	0.04994791
8	0xbc6473a4	-0.0139435865
9	0x3c97caca	0.018529315
10	0xb84e37d6	-4.916623e-05
11	0xb906cc90	-0.00012855441
12	0x3a22d328	0.00062112743
13	0xbd0106ff	-0.031500813
14	0x3d493147	0.04911926
15	0x3d4d19ca	0.050073422
16	0x3c46ee6e	0.012141807
17	0x376b776d	1.40348975e-05
18	0x3b98a092	0.0046578133
19	0x3902d806	0.00012478241
20	0x3ce8e383	0.028428799
21	0x3c52ef9f	0.012874513
22	0x3d4198d2	0.04726488
23	0xb87032a2	-5.7267614e-05
24	0xb4c5e1b1	-3.6858322e-07
25	0xb7d2ae6b	-2.511517e-05
26	0x3c9e5c34	0.019331075
27	0x3d10d5e1	0.03536022
28	0xbc39e198	-0.01134529
29	0xb6ce333e	-6.145244e-06
30	0x3d1318e8	0.035912424
31	0xba98ac62	-0.0011648054
32	0xbb6be375	-0.003599373
33	0x3c82ab4d	0.015950823
34	0xbc04ca7f	-0.008104919
35	0xbd1811a2	-0.03712619
36	0xbba5c913	-0.0050593703
37	0xbc7fe39a	-0.015618229
38	0x3d3b7a28	0.045770794
39	0x3a4e4fd9	0.00078701746
40	0x3c429d43	0.011878314
41	0x3d061ef9	0.03274438
42	0xbc4d0786	-0.012514001
43	0x3beb6580	0.0071837306
44	0x39a2f649	0.00031082545
45	0xbd1bfa5a	-0.03808055
46	0xbae8c362	-0.0017758424
47	0xbc1316f3	-0.0089776395
48	0xbbc942b7	-0.006141986
49	0xb8a8cc89	-8.048962e-05
50	0xb503f29b	-4.915434e-07
51	0xbb9a00e5	-0.0046998137
52	0x38943eb4	7.068869e-05
53	0x3c96d338	0.018411264
54	0x35c3b2ce	1.4580671e-06
55	0xb90ce3e8	-0.00013436342
56	0xbd172227	-0.036897805
57	0xb8887469	-6.5066684e-05
58	0xbc137bdb	-0.009001697
59	0xb8150a45	-3.5533933e-05
60	0x3cf4c7f1	0.029880496
61	0x3c114674	0.008866895
62	0x3cf98ab5	0.030461648
63	0x36874d3d	4.0323052e-06
64	0x39168d53	0.00014357762
65	0xb84f3298	-4.9399765e-05
66	0x376f2427	1.42539275e-05
67	0xbc91a751	-0.017779978
68	0x384895da	4.7823276e-05
69	0x38292306	4.0325358e-05
70	0xbcd294fc	-0.025705807
71	0x3b851a51	0.004061975
72	0x3a28e68a	0.00064430444
73	0x3c6a4368	0.014298297
74	0x3c0774a0	0.008267552
75	0xb6bd9320	-5.6497665e-06
76	0x384fa805	4.9509126e-05
77	0x3c024187	0.007950193
78	0x3782c216	1.5587586e-05
79	0xbc386496	-0.01125445
80	0x36723835	3.6093527e-06
81	0xbcef2221	-0.029191079
82	0xbd25800f	-0.04040533
83	0xbbbe9a32	-0.0058167214
84	0x3d79be0e	0.060972266
85	0x37891cae	1.6345028e-05
86	0x3cc74e35	0.024329284
87	0x3d25cf2f	0.04048079
88	0xbc9aeecf	-0.018912701
89	0xb72124b6	-9.604895e-06
90	0x36e957b0	6.9541493e-06
91	0x3bbc53eb	0.0057473085
92	0x3d7a5e6d	0.061125208
93	0x3ca6b3da	0.020349432
94	0x3c4ed303	0.012623551
95	0x39278d65	0.00015979035
96	0x372903d2	1.0074074e-05
97	0x3d114aa9	0.035471592
98	0x3caf9f98	0.021438405
99	0x3d567814	0.05236061
100	0x3c95434d	0.018220568
101	0x3c5e7534	0.013577748
102	0x3d5f1832	0.054466434
103	0x3b9519e3	0.004550205
104	0x3d3bb0f4	0.045823053
105	0x3c3ce5f2	0.011529433
106	0x39824d84	0.00024853286
107	0xbd43a126	-0.047761105
108	0xbc1a5389	-0.00941933
109	0xbd061855	-0.03273805
110	0x3ca17ba1	0.019712271
111	0x36a39a6a	4.8757547e-06
112	0xbd143da6	-0.036191605
113	0x3c6501c4	0.013977472
114	0xbcbb7889	-0.022884624
115	0x3cc32919	0.023823308
116	0x3cf6e26d	0.030137265
117	0x36de2ba2	6.621195e-06
118	0xb53e28fa	-7.0840144e-07
119	0x35a03335	1.1935832e-06
120	0x3c4ea985	0.012613659
121	0xbce5248c	-0.027971528
122	0x3d20cb9b	0.039256673
123	0xb6ee542e	-7.1027525e-06
124	0x3c3699f9	0.011145108
125	0xb8b74e86	-8.740746e-05
126	0x3d431d94	0.04763563
127	0xbbe3b23a	-0.0069487365
128	0x3cbc7c59	0.023008512
129	0xbc871738	-0.016490564
130	0x3d0115e2	0.03151501
131	0xbce6c47b	-0.028169861
132	0xbd1df732	-0.038565822
133	0xbcb23901	-0.021755697
134	0xb99ddbab	-0.0003010904
135	0xbbe07dde	-0.006850942
136	0x3cc84646	0.024447571
137	0x3b5bd9de	0.0033546607
138	0x3b876bd9	0.0041327295
139	0xb838f67b	-4.409857e-05
140	0x3c3e6093	0.011619705
141	0x3cf7ca08	0.030247703
142	0x379693aa	1.7950155e-05
143	0x3c7c8a38	0.015413813
144	0xbc84f023	-0.016227787
145	0x369cb8fc	4.6706973e-06
146	0xbc5af23c	-0.013363417
147	0x3c69eac2	0.014277162
148	0xbcb601b1	-0.022217603
149	0x3c2a5373	0.010395872
150	0x3a8adcd0	0.0010594372
151	0x3aec814d	0.0018043906
152	0x3c6a7c0f	0.014311804
153	0xbc2135a6	-0.009839451
154	0x3d1b6676	0.03793951
155	0x35929694	1.0921672e-06
156	0x35025068	4.854578e-07
157	0xbcf55e5e	-0.029952224
158	0x3ca4db4f	0.020124106
159	0xbc20de0c	-0.009818565
160	0x3a02e678	0.0004993449
161	0xbc4d098e	-0.012514485
162	0x39b40856	0.00034338486
163	0x381d7097	3.7536574e-05
164	0x3d128bad	0.035777736
165	0x3d68e815	0.056861956
166	0x3b8b2a5e	0.004246994
167	0xbb13ac1c	-0.0022533005
168	0x3d0594e8	0.03261271
169	0xbca3b216	-0.019982379
170	0x3c70690b	0.014673482
171	0xbcb887e0	-0.022525728
172	0xbb9870d9	-0.0046521244
173	0x39de62bf	0.0004241671
174	0x3cc895bc	0.024485461
175	0x3767b083	1.380977e-05
176	0xbcaf0c68	-0.02136822
177	0x38d4bc1b	0.00010143985
178	0x3ac1f462	0.0014797563
179	0x3d4d6e49	0.050154004
180	0x3cf4b5d2	0.029871855
181	0xbc820fd2	-0.015876684
182	0x393c592d	0.00017962298
183	0xbbca587a	-0.006175098
184	0xb7150338	-8.8818415e-06
185	0xbd1bcd67	-0.038037684
186	0x3ce9fdf9	0.028563486
187	0xbd4a99bb	-0.049463015
188	0x3c9a01e3	0.018799728
189	0x3d0f8258	0.035036415
190	0xb8d9e58e	-0.00010390124
191	0xbbbd0473	-0.0057683527
192	0x3bb2a80e	0.0054521626
193	0x3d14f3ef	0.036365446
194	0x3d006090	0.03134209
195	0x3b56bbae	0.0032765674
196	0x369d9017	4.695739e-06
197	0xbce86636	-0.02836905
198	0xbd29329f	-0.04130804
199	0x3c040b98	0.008059405
200	0x3ca05071	0.019569607
201	0xbd45c37b	-0.048282128
202	0x3d1755c1	0.036947016
203	0x3cf4012f	0.02978572
204	0xbca2ee48	-0.019889012
205	0xb763cf6c	-1.35785485e-05
206	0xb84e6b5b	-4.921421e-05
207	0x3b2fabce	0.0026805284
208	0x3723e4f5	9.768865e-06
209	0xbcb06711	-0.02153352
210	0xbba3bfbc	-0.0049972218
211	0xbcca20ef	-0.024673907
212	0x3c0a253e	0.008431731
213	0x3c8ec247	0.017426623
214	0x37e4941a	2.7248683e-05
215	0x3cda248c	0.026628755
216	0xbd17c3a4	-0.03705181
217	0x3c42337e	0.011853097
218	0xbd079457	-0.033100452
219	0x3d143861	0.03618658
220	0xbd2fd494	-0.04292734
221	0x3795ebe9	1.7872038e-05
222	0x384f8865	4.9479673e-05
223	0x3845213c	4.6999412e-05
224	0x37eb901b	2.8081287e-05
225	0x37d480a9	2.5332281e-05
226	0xbb9881db	-0.004654152
227	0xbc310a21	-0.010805638
228	0xbc042375	-0.008065094
229	0xbc38788e	-0.011259211
230	0xb8857dae	-6.365344e-05
231	0x3c4c0881	0.012453199
232	0xbd1dcd29	-0.038525734
233	0x3ca8acea	0.020590264
234	0x3c0d27ec	0.008615475
235	0x34b48e48	3.3631136e-07
236	0x384c3a88	4.86919e-05
237	0x384882c7	4.780551e-05
238	0xbbd16ebd	-0.006391375
239	0x3d1c123d	0.03810333
240	0x38d73670	0.00010262139
241	0x3d62ddba	0.055387236
242	0xbad691b9	-0.0016370333
243	0xb76184d6	-1.3441973e-05
244	0xbc1b63ac	-0.009484213
245	0xb7605b3e	-1.3372684e-05
246	0x3c07b01e	0.008281736
247	0xbbcb19fc	-0.006198166
248	0x3b4fce41	0.003170863
249	0xb582bd86	-9.740913e-07
250	0xb57cf5ea	-9.423517e-07
251	0xb71c8fd0	-9.3318085e-06
252	0xb77f1d6e	-1.5206037e-05
253	0xbb877201	-0.0041334634
254	0xbc904c6b	-0.017614564
255	0xbb9afbc0	-0.004729718

layers.4.bias f4 [400]
0	0x3d16bf4d	0.036803532
1	0x3cb8b0bc	0.022545211
2	0x3cee04b4	0.029054977
3	0x3c771f78	0.015083186
4	0xbd297766	-0.041373633
5	0xbc3a7092	-0.011379378
6	0xbbdcf5d2	-0.0067431713
7	0xbc8dd8b4	-0.017315246
8	0x3c0daed6	0.008647641
9	0x3d183db3	0.037168216
10	0x3cdad03d	0.026710624
11	0xb9a88ce6	-0.00032148435
12	0xbc677e6a	-0.014129261
13	0x3cbf928b	0.023385307
14	0x3c945abc	0.018109672
15	0x3d44db88	0.048060924
16	0x3ca9f8ca	0.020748515
17	0x3ce415fc	0.027842514
18	0xbcd68a9d	-0.026189143
19	0xbd2c9ab9	-0.042139743
20	0xb8a82856	-8.0183774e-05
21	0xb874b42a	-5.8341924e-05
22	0xbb9703dd	-0.004608615
23	0xbc68338c	-0.014172446
24	0x3caf5217	0.021401448
25	0x3d7eb705	0.06218626
26	0x3aab0211	0.001304688
27	0x3cb5e3d1	0.022203358
28	0x3c93ff43	0.018066054
29	0x3d1499e1	0.036279563
30	0xbc3a5323	-0.01137236
31	0x38ba717e	8.890311e-05
32	0x3cd41452	0.025888596
33	0xbca2aa7b	-0.019856682
34	0xbbaaabe1	-0.005208478
35	0x3c6700d9	0.014099323
36	0x3d44a27a	0.048006512
37	0x3d347a67	0.044062044
38	0x3d0ab6fb	0.03386591
39	0x36e4be70	6.8170993e-06
40	0xbc7dd918	-0.015493654
41	0x3c96730f	0.018365411
42	0x3925540f	0.0001576694
43	0x3d3663b8	0.044528693
44	0x3d364423	0.044498574
45	0xbd6f6240	-0.058443308
46	0x39edf3fd	0.00045385948
47	0xbd0637f9	-0.032768223
48	0x38bbf314	8.962132e-05
49	0xbce3ea40	-0.02782166
50	0xb885ef6f	-6.386532e-05
51	0xb8bd3696	-9.02239e-05
52	0xbd4528b0	-0.048134506
53	0x3bb85772	0.0056256587
54	0x3aa3e9be	0.0012505574
55	0x3ce6e134	0.028183557
56	0x3d388e0e	0.04505735
57	0x389fc59d	7.618519e-05
58	0x3bcec280	0.0063098073
59	0xbcd497f9	-0.025951372
60	0x3c99976a	0.018748958
61	0x3d4295d1	0.047506157
62	0x3bbe29a0	0.005803302
63	0x3d16b911	0.036797587
64	0x39078d74	0.00012927299
65	0xbd03056d	-0.031987596
66	0x38f9054c	0.00011874232
67	0x3d0fbe7d	0.035093773
68	0x3c936c5b	0.017996004
69	0x3cd6215b	0.026138952
70	0xbcf948c4	-0.030430205
71	0x3d6e48a9	0.058174763
72	0xb9f103a4	-0.00045969815
73	0xbbe5dd42	-0.0070149014
74	0x3c032f21	0.008006842
75	0xbd55cd1a	-0.052197553
76	0x379a57ec	1.8399172e-05
77	0xbadb89d3	-0.0016749449
78	0xb88e6a8b	-6.790933e-05
79	0x3c79bfb5	0.01524346
80	0xbc4c6922	-0.0124762375
81	0xb820b3b1	-3.8314323e-05
82	0x39ccc01e	0.0003905305
83	0x3c51c674	0.012803663
84	0x3c675ce3	0.014121267
85	0x3c9e32a1	0.019311251
86	0x3caf2e7d	0.021384472
87	0xbd111bc4	-0.03542687
88	0x374a6344	1.206325e-05
89	0x3c74cb68	0.014941074
90	0x3b20803d	0.0024490498
91	0xb7bcb8e9	-2.2497452e-05
92	0x39ac28ed	0.0003283689
93	0xb7baf9a0	-2.2289169e-05
94	0xbc510a3e	-0.01275879
95	0xb8822063	-6.2049156e-05
96	0x3cdb5ccf	0.026777653
97	0x3a762e28	0.0009391033
98	0xbd50ddf6	-0.05099293
99	0x35eacae0	1.7493403e-06
100	0x3b1a7be2	0.0023572375
101	0x3b828357	0.003982942
102	0xbcadb02b	-0.021202167
103	0xbbafd644	-0.0053661186
104	0xb7b69530	-2.1765562e-05
105	0x38a66ae2	7.935405e-05
106	0x3a6826f2	0.0008855901
107	0xbc3b0cd9	-0.011416637
108	0x3c5da1d2	0.0135273505
109	0x37cc5459	2.4357973e-05
110	0x3bbcb631	0.0057590236
111	0x38f70101	0.00011778065
112	0xb9efef4b	-0.0004576392
113	0x3cdd74b5	0.02703319
114	0xba1219ee	-0.0005573322
115	0xbcd72d8f	-0.026266841
116	0xbb9bf7ef	-0.0047597806
117	0xb86dc144	-5.6685196e-05
118	0xbccf5932	-0.025311086
119	0xbcd96e09	-0.026541727
120	0x395c49d0	0.00021008332
121	0x398e8d7f	0.00027189773
122	0x3cb75184	0.022377737
123	0xb935161b	-0.0001726974
124	0xbd1dd533	-0.0385334
125	0x3d4b3aec	0.04961674
126	0xba327cb8	-0.00068087457
127	0xb7aef867	-2.0858088e-05
128	0x3d0c15ac	0.034200355
129	0xbc9d8a5d	-0.019231016
130	0x3a05a161	0.00050975947
131	0xbd7d4451	-0.06183273
132	0x3d0ce427	0.03439727
133	0xbce8651f	-0.02836853
134	0xb85009ee	-4.9600312e-05
135	0xba60c92e	-0.00085749
136	0xbbd27328	-0.006422419
137	0x396f24cd	0.00022806526
138	0xbd071884	-0.032982364
139	0x3c8a080b	0.016849538
140	0x3c4ed7b5	0.012624671
141	0xba68795e	-0.0008868183
142	0x3d2763cb	0.040866654
143	0xbd6c5183	-0.057694923
144	0xbd217703	-0.03942014
145	0x3bf544b3	0.007484996
146	0xbb3e3289	-0.002902182
147	0xbb9eb0f6	-0.0048428727
148	0x3cce5be8	0.025190309
149	0xbd096f86	-0.033553623
150	0xbc8c8511	-0.017153295
151	0x3d643569	0.055715
152	0x3b6efca2	0.00364665
153	0x3b2248d1	0.002476264
154	0xbd2ed9cf	-0.042688187
155	0x3d7b67cd	0.06137829
156	0xbd1018f7	-0.03518006
157	0x3a48f0e6	0.0007665291
158	0xb9750458	-0.00023366639
159	0xb925818b	-0.00015783885
160	0x3867a907	5.523211e-05
161	0x3d1369d6	0.035989605
162	0x3d01688b	0.03159384
163	0x3c7df457	0.01550015
164	0x395b49c1	0.00020912943
165	0x38d91ec5	0.000103530976
166	0x3cfc4374	0.030793883
167	0xbc36b0d4	-0.011150558
168	0xbd5c4cf0	-0.05378431
169	0x3d1135fa	0.035451867
170	0x3cf60e7a	0.0300362
171	0xba743e9d	-0.00093171914
172	0x3cda7de6	0.026671361
173	0xbb3505f0	-0.0027621947
174	0x3cf74c01	0.030187609
175	0xbd163347	-0.036669996
176	0xbb3f6775	-0.0029205952
177	0xbcc18a3f	-0.023625491
178	0x3cfd217a	0.030899752
179	0x3b6bd135	0.0035982851
180	0x3ca4e61e	0.02012926
181	0x39bf57ea	0.0003649586
182	0xbd079c0d	-0.033107806
183	0xb7713eaa	-1.43793095e-05
184	0xbd58eda1	-0.052960996
185	0x390f530d	0.00013668482
186	0xbc0f1b23	-0.008734497
187	0x3a3a87b2	0.0007115557
188	0x3cf73384	0.030175932
189	0xbcd7ed48	-0.026358262
190	0x3d182b9d	0.037150968
191	0xbc851af2	-0.0162482
192	0x3c74c621	0.014939816
193	0xbc078828	-0.008272208
194	0x3d6671b9	0.056260798
195	0xbd2e23ba	-0.04251454
196	0x3ce1f862	0.027584258
197	0x3b6640f5	0.0035133932
198	0x3bb4ccd9	0.005517584
199	0x3c2ceedc	0.010554995
200	0x3d0cfa68	0.034418494
201	0x3888b186	6.518052e-05
202	0xb9fcc9c0	-0.000482155
203	0x3c90b9ce	0.017666724
204	0x3cfa8b83	0.030584102
205	0xb9efe1e3	-0.0004575393
206	0xbd441751	-0.0478738
207	0x3d5ec6fd	0.05438899
208	0xbd1851e9	-0.03718749
209	0xbc9ad3da	-0.018899847
210	0xbd38e43b	-0.045139533
211	0x3d2b45d2	0.041814633
212	0x3d6bf4d8	0.057606548
213	0x3b9159be	0.004435747
214	0xb6a511b6	-4.919445e-06
215	0xbd8244ff	-0.06360816
216	0x3b4587e2	0.0030140807
217	0xbd0e0437	-0.03467199
218	0xba1e174d	-0.0006030694
219	0xb984fa59	-0.00025363525
220	0x3b14fb2d	0.002273272
221	0x3958abf8	0.00020663429
222	0xbd04370d	-0.032279063
223	0x3b1a02dc	0.002350024
224	0x3c8618f5	0.016369322
225	0x3c2086a4	0.009797726
226	0x3d77ba29	0.06048027
227	0x3d5ec538	0.0543873
228	0xba9b7039	-0.0011859006
229	0xb95d7443	-0.00021119513
230	0x3cd22836	0.02565394
231	0x3c070484	0.008240823
232	0xb92d5f39	-0.00016534039
233	0x3d7e573e	0.06209492
234	0x3c80c1a7	0.01571734
235	0x397fee48	0.00024407462
236	0x36849e26	3.9523175e-06
237	0x3c3fd27d	0.011707899
238	0xb682a2f9	-3.8932744e-06
239	0xbca8d6ef	-0.0206103
240	0xbb0ace9f	-0.0021180285
241	0x3d520924	0.05127825
242	0x39ad6c3f	0.0003307778
243	0xbb43de6a	-0.0029887208
244	0xbc6f15e3	-0.014592621
245	0xbc861c25	-0.016370842
246	0xbd055788	-0.03255418
247	0xbd62993f	-0.055321928
248	0x3d150fd2	0.03639204
249	0xba41e47e	-0.0007396414
250	0xbd853ebf	-0.065061085
251	0xbc058722	-0.008149894
252	0x3d0abe36	0.033872806
253	0x3d73082a	0.059333958
254	0xbd7e19a0	-0.062036157
255	0x3c01695c	0.007898655

layers.6.weight f4 [1, 400]
0	0x3ce29bcb	0.027662179
1	0xbd9e76e9	-0.07737524
2	0xbcdc20b8	-0.02687107
3	0xbd07cb29	-0.033152733
4	0x3d0254fe	0.031819336
5	0xbb94cf05	-0.00454128
6	0xbc2a0a3c	-0.010378417
7	0x3b88a5f8	0.0041701756
8	0xbccfca7b	-0.025365105
9	0xba94f771	-0.0011365247
10	0xbae5bff9	-0.0017528526
11	0x375203cc	1.2517859e-05
12	0xbc6da4a7	-0.014504588
13	0x3c8eeff5	0.017448405
14	0x3b8aa3af	0.0042309384
15	0xbd1d4dd1	-0.03840429
16	0x3d34037b	0.04394863
17	0xbd9a3a80	-0.07530689
18	0xbb0a1be6	-0.0021073758
19	0xbcc77da4	-0.024351902
20	0x3baea7c3	0.0053300573
21	0x372128ba	9.60583e-06
22	0x3c631fd3	0.013862568
23	0xbc89e3cd	-0.016832257
24	0x3bcb40ef	0.006202809
25	0x3ca6b1f8	0.020348534
26	0x3d0f4fce	0.034988217
27	0xbae38e91	-0.0017361214
28	0xbc0c7aa9	-0.008574166
29	0xbbda6446	-0.0066647856
30	0xbc6ca6f9	-0.014444106
31	0xba1e4c1d	-0.00060385634
32	0xbc6f5711	-0.014608161
33	0xbcfda39b	-0.030961802
34	0xbc687870	-0.014188871
35	0xbb154f35	-0.0022782807
36	0x3cc0eb4f	0.023549704
37	0xbbcc7369	-0.006239344
38	0x3d1d59bb	0.03841565
39	0x39dc7dd9	0.00042055434
40	0x3b42abd2	0.0029704464
41	0xba8f11d3	-0.0010915346
42	0x39f2b86e	0.00046295248
43	0x3d5e9183	0.05433799
44	0xbc4e6e38	-0.01259952
45	0xbcea4deb	-0.028601607
46	0xbd29a04d	-0.04141264
47	0xbd17a424	-0.03702177
48	0xb8b33fa7	-8.547241e-05
49	0x3cb70ef3	0.022345996
50	0xb885c276	-6.3781554e-05
51	0x389d4e73	7.500956e-05
52	0x3b777852	0.0037760925
53	0xba672236	-0.00088170485
54	0xbc8dda7a	-0.017316092
55	0x3d0b5ca6	0.034023903
56	0xbc93cd37	-0.01804219
57	0x391659a7	0.00014338513
58	0x3d1d5914	0.03841503
59	0x3ce8bf37	0.02841149
60	0x3d25e952	0.040505715
61	0x3c4ba2f8	0.0124289915
62	0xbb5717bc	-0.0032820543
63	0x3d121967	0.035668757
64	0x3ae9e464	0.0017844555
65	0xbb266be5	-0.00253939
66	0x39a6323a	0.0003169941
67	0x3cf678a9	0.030086832
68	0x3c345e3d	0.011008796
69	0xbb68b3dd	-0.0035507597
70	0xbd0a9b54	-0.03383954
71	0x3c96703e	0.018364068
72	0xbae32cb3	-0.0017332047
73	0xbb9fce8f	-0.0048769186
74	0xbd0ba4bb	-0.034092646
75	0xbc2364c3	-0.009972754
76	0x39850493	0.00025371145
77	0xbc6073bb	-0.013699467
78	0x396fa7d7	0.00022855341
79	0xbaa83849	-0.0012834157
80	0xbcfa3dfe	-0.030547138
81	0x39d7d9ca	0.0004117026
82	0x3c093ed8	0.0083767995
83	0x3bbfd619	0.00585438
84	0xbc9296d5	-0.017894188
85	0x3c063ff9	0.008193963
86	0x3bea998f	0.007159419
87	0x3b801dae	0.003909788
88	0x394a8260	0.0001931279
89	0xba0f46fd	-0.0005465595
90	0x3d3664f0	0.044529855
91	0x368bfe7f	4.17215e-06
92	0x3ce61651	0.028086813
93	0x3d050b9e	0.032481782
94	0xbce94b83	-0.02847839
95	0x39f38a8e	0.00046451803
96	0xbc7f0786	-0.015565759
97	0x3ca7f3e9	0.020502048
98	0xbbe66255	-0.007030765
99	0x3999fa8c	0.00029369106
100	0x3b9ccfbe	0.004785507
101	0x3c108f61	0.008823247
102	0x3bceba0c	0.0063087996
103	0x3acf6468	0.001582277
104	0xb7cde1f4	-2.4543122e-05
105	0xb8be9d94	-9.089257e-05
106	0x3c80611d	0.015671307
107	0x3d2c2c90	0.042034686
108	0x3d0f5da3	0.03500141
109	0x3876fc14	5.8885737e-05
110	0x3d3990a6	0.045303963
111	0x3cb0c808	0.021579757
112	0xbaf3c4d0	-0.0018598083
113	0x3d1fa7b9	0.038978312
114	0xbb57021f	-0.003280766
115	0xbb8fad70	-0.004384689
116	0x3d288629	0.04114357
117	0xb7d6a018	-2.5585337e-05
118	0xbb09f6d0	-0.0021051653
119	0x3ccd6841	0.025074126
120	0xb9e155e8	-0.0004297935
121	0x3b2e95f5	0.0026639674
122	0xbd87b9da	-0.06627245
123	0x373da724	1.1304193e-05
124	0xbc8f6477	-0.01750396
125	0x3bc0954d	0.005877173
126	0xbb0ac48f	-0.0021174287
127	0x387d642f	6.0413204e-05
128	0x3bce7166	0.0063001392
129	0x3d27e1fc	0.040987
130	0x3cf338a4	0.029690094
131	0xbc760d92	-0.015017884
132	0xbc3eebe8	-0.011652924
133	0x3c35dca3	0.011099967
134	0xb99d5b16	-0.00030013238
135	0xbaeda65d	-0.0018131245
136	0xbcd244d6	-0.02566759
137	0x3b81b00e	0.003957755
138	0x3cc66e03	0.02422238
139	0xbb48abfb	-0.0030620086
140	0x3c6f5507	0.014607674
141	0xbb2f0fdb	-0.0026712331
142	0x3cca52ac	0.024697624
143	0xbcce8d2a	-0.025213797
144	0x3c07056c	0.008241039
145	0x3c5da321	0.0135276625
146	0xbd1025c7	-0.035192277
147	0x3d295b09	0.041346584
148	0x3d22dc49	0.03976086
149	0xbd015cac	-0.03158252
150	0x3c8ebde8	0.017424539
151	0x3d28a744	0.041175142
152	0xbbb257d1	-0.0054425974
153	0xbcace87d	-0.021106953
154	0x3c9f10ee	0.019417252
155	0x3d2e0dfe	0.042493813
156	0xbd0beada	-0.03415952
157	0x3c8b8f35	0.01703606
158	0xb9f047b8	-0.00045829802
159	0xb76e4bf4	-1.420359e-05
160	0xb79fe6b6	-1.906171e-05
161	0xbc5bd551	-0.013417558
162	0xb8b24899	-8.501224e-05
163	0x3ce36c4f	0.027761606
164	0x3c753cb3	0.014968085
165	0x3adc4c4f	0.001680741
166	0xbdb1108c	-0.08645734
167	0x3bfd694c	0.0077334996
168	0xbd101de7	-0.035184767
169	0x3d05470b	0.032538455
170	0x3c5d4195	0.0135044055
171	0xb965139b	-0.00021846445
172	0xbc2c91d3	-0.010532814
173	0x37e7fc13	2.7654727e-05
174	0x39cf531d	0.0003954404
175	0xbc31b76e	-0.010846956
176	0xb8195a0a	-3.6561898e-05
177	0xbb122795	-0.0022301425
178	0x3c48094d	0.012209249
179	0xbc7233ba	-0.01478284
180	0x3c8cf8a4	0.017208405
181	0x3c5a9beb	0.013342838
182	0xbce10b69	-0.027471261
183	0x38220c25	3.863512e-05
184	0x3c2a9604	0.010411743
185	0x3885d8c1	6.382308e-05
186	0xbb8748f3	-0.0041285693
187	0x3b726fc9	0.0036992899
188	0x3d45e71c	0.048316106
189	0xbc2c6eb8	-0.010524444
190	0x3c4911df	0.012272327
191	0xbca870a7	-0.02056153
192	0x3ce4cb38	0.027928934
193	0x3d55532d	0.052081276
194	0x3d47719d	0.048692334
195	0xbc1bb121	-0.00950268
196	0xb9e3fe35	-0.00043486213
197	0x378a959a	1.6520546e-05
198	0x3d007a5f	0.031366702
199	0xbd065869	-0.03279916
200	0x3bbd46e8	0.005776275
201	0x3cd7015f	0.026245771
202	0x38636388	5.4213713e-05
203	0x3d054470	0.03253597
204	0x3cad4cb5	0.02115474
205	0x3b9198d6	0.0044432683
206	0x3d0fc7e0	0.035102725
207	0x3d62242e	0.055210285
208	0xbd0a6255	-0.033785183
209	0x3ca262b5	0.019822458
210	0xbcf22667	-0.029559327
211	0xbd917027	-0.071014695
212	0x3ca03c47	0.019559992
213	0x3b1913bd	0.0023357712
214	0xb5b62ee0	-1.3573699e-06
215	0xbc96ea91	-0.018422397
216	0x3ce4a1f9	0.027909266
217	0x3d1090e2	0.03529442
218	0xbadd83f0	-0.0016900282
219	0xba8b7dc8	-0.0010642344
220	0xba9fef5b	-0.0012202071
221	0x3b086773	0.0020813614
222	0xbcf1b7cf	-0.029506592
223	0xbbd1b3bf	-0.006399601
224	0x3c665b2a	0.014059821
225	0xbc864f8c	-0.016395353
226	0x3d11ff63	0.035643946
227	0x3d4593bc	0.048236594
228	0x3c8b8c81	0.01703477
229	0x391fb24d	0.00015229844
230	0xbd1ee267	-0.038790133
231	0x3d4b63e3	0.049655806
232	0xb6eb213c	-7.0074148e-06
233	0x3d5877ac	0.052848503
234	0xbb8236b4	-0.0039738063
235	0x3987fd16	0.0002593777
236	0xb7694f98	-1.3906414e-05
237	0x3d4dd2ee	0.050249986
238	0x37ddcce9	2.6440672e-05
239	0x3aad298f	0.0013211238
240	0xbd0c7960	-0.03429544
241	0x3d2ffcf6	0.04296585
242	0x3cdb3635	0.026759246
243	0x3b091495	0.002091681
244	0x3a42c27a	0.0007429492
245	0xb9f9edfb	-0.0004767029
246	0x3c20d0ad	0.009815377
247	0x3ccfe60b	0.025378248
248	0xbbc98ae1	-0.006150589
249	0xbb0a1c95	-0.0021074165
250	0xbccc7b66	-0.024961185
251	0xbc913612	-0.017725978
252	0xbdb775c0	-0.08958006
253	0x3c8aee51	0.016959341
254	0xbbf748cf	-0.0075465213
255	0xbc851831	-0.016246887
