data/model_Fortified.pt (torch_old, 249035 bytes, 7 tensors)

layers.0.weight f4 [100, 12]
0	0xbe68c798	-0.22732389
1	0x3e888cd4	0.26669943
2	0x3e638c64	0.22221524
3	0x3df59224	0.11990765
4	0xbe0b3430	-0.13594127
5	0xbe361925	-0.1778303
6	0x3d4bf500	0.049794197
7	0xbe6ba2bc	-0.23011297
8	0x3e71df50	0.23620343
9	0xbdf5ea90	-0.1200763
10	0xbe21363b	-0.15743344
11	0xbe2141f6	-0.15747818
12	0xbd912211	-0.07086576
13	0x3e0ccb30	0.13749385
14	0x3debe014	0.11517349
15	0xbb99b1a7	-0.0046903673
16	0xbdd511d1	-0.10403789
17	0xbe1cba32	-0.15305403
18	0x3da747e1	0.08168007
19	0x3e48d6fb	0.19613259
20	0xbd98c12e	-0.07458721
21	0xbd4592e5	-0.048235793
22	0xbe1d511a	-0.15362969
23	0x3e7ab331	0.24482419
24	0x3d8cc6a8	0.06873828
25	0xbe3b0f94	-0.18267661
26	0xbe731e9a	-0.23742142
27	0x3e23c636	0.1599358
28	0xbe923f91	-0.28564122
29	0xbdeaa14e	-0.11456548
30	0x3a467a00	0.000757128
31	0xbba7e440	-0.005123645
32	0xbde20e54	-0.11037889
33	0x3dd9a950	0.10627997
34	0x3cf18fb0	0.02948746
35	0x3e43efe4	0.1913448
36	0xbe494bb0	-0.19657779
37	0xbc8e3026	-0.017356943
38	0xbd2365b4	-0.039891914
39	0x3e09b30c	0.13447207
40	0xbba00535	-0.004883433
41	0xbe82c08b	-0.25537524
42	0x3e56027f	0.2089939
43	0xbe6f6208	-0.2337724
44	0x3e1399df	0.14414166
45	0xbe0efbf6	-0.13963303
46	0xbd4980a3	-0.049194943
47	0x3e035a3e	0.12827393
48	0x3e02cac2	0.12772658
49	0xbd7c1d28	-0.061551243
50	0x3e188048	0.14892685
51	0x3e8afb1e	0.27144712
52	0x3e171d0e	0.14757177
53	0xbd6bd128	-0.057572514
54	0xbe4dbf93	-0.20092611
55	0x3c1c8d40	0.009555161
56	0xbe5be97c	-0.21475786
57	0xbe1875a7	-0.14888631
58	0xbe1c17b6	-0.1524342
59	0xbe934928	-0.2876675
60	0xbe8590aa	-0.26086932
61	0x3e452741	0.19253255
62	0x3e323510	0.17403054
63	0x3e5a312b	0.21307819
64	0xbe22df3a	-0.15905467
65	0xbe9382e2	-0.28810793
66	0xbba3f951	-0.005004086
67	0x3d9e4d30	0.07729566
68	0xbe180d97	-0.14848934
69	0x3ce7b502	0.028284553
70	0xbcbc6cf0	-0.023001164
71	0x3d1636f7	0.036673512
72	0xbe249736	-0.16073307
73	0xbe422856	-0.189607
74	0x3e85efb6	0.26159447
75	0xbe453376	-0.19257912
76	0x3d0bb000	0.034103394
77	0x3e67aab8	0.22623718
78	0xbbbbee00	-0.005735159
79	0xbe6424c0	-0.22279644
80	0x3d791f30	0.06082076
81	0xbe24fbfc	-0.1611175
82	0xbe74aabf	-0.2389326
83	0xbd2e82c8	-0.04260519
84	0x3d2a40ae	0.04156559
85	0xbe531716	-0.20614275
86	0xbe5be68e	-0.21474668
87	0x3c99594f	0.018719343
88	0x3d3f7a5d	0.046747554
89	0x3e94c8e2	0.2905951
90	0xbe45d72d	-0.19320364
91	0x3e54b126	0.20770702
92	0x3da00e6a	0.07815249
93	0x3ad5dafb	0.0016315872
94	0x3e6d7031	0.23187329
95	0xbc8826cf	-0.016620068
96	0x3c92cf61	0.017921152
97	0xbd588bea	-0.052867807
98	0x3e8ea356	0.2785899
99	0x3e5161f4	0.20447522
100	0xbd88e56a	-0.06684382
101	0x3d98c176	0.07458775
102	0x3e6adbd7	0.22935425
103	0xbdbd1093	-0.09231677
104	0xbd724711	-0.059149805
105	0x3cdc2c94	0.026876725
106	0xbe8976db	-0.26848492
107	0xbdd0e1d4	-0.10199323
108	0x3e2b82ca	0.16749111
109	0x3e82d594	0.25553572
110	0x3c235505	0.009969001
111	0x3c3e8f3a	0.011630828
112	0x3dd96484	0.10614875
113	0xbe26ce54	-0.16289645
114	0xbda61a81	-0.08110524
115	0x3db58753	0.08863702
116	0x3e6016e9	0.2188374
117	0x3e0ba54f	0.13637279
118	0xbe00b20c	-0.1256792
119	0xbe022921	-0.12711002
120	0x3e8d145d	0.27554598
121	0x3e934d65	0.28769985
122	0xbe8db3e5	-0.2767631
123	0x3e1641b3	0.146735
124	0x3e588fb7	0.21148573
125	0x3e821e9a	0.25413972
126	0xbe0c97af	-0.13729738
127	0xbdc2cd7c	-0.09511849
128	0x3ce68a83	0.02814222
129	0xbe7aa0b6	-0.24475369
130	0x3e29d716	0.16585955
131	0xbe7f347e	-0.24922368
132	0xbc4bcde0	-0.012439221
133	0x3dedf9bc	0.11619899
134	0xbe8f1c09	-0.27951077
135	0xbb8ea580	-0.004353225
136	0xbdbf752e	-0.09348522
137	0xbcbea660	-0.023272693
138	0xbd545e14	-0.051847532
139	0x3e8dbc48	0.2768271
140	0xbe1291c5	-0.14313419
141	0x3db4f794	0.08836284
142	0xbe106ec6	-0.14104757
143	0x3d90357c	0.07041451
144	0x3e6c8a1c	0.2309956
145	0xbda4f6d4	-0.08054891
146	0x3e0ad92a	0.13559404
147	0xbe34bd09	-0.17650236
148	0xbe607d6e	-0.21922848
149	0x3e045baa	0.12925592
150	0xbcb696bf	-0.022288678
151	0x3e84dcf5	0.25949827
152	0xbdeb3b8a	-0.114859655
153	0xbe22e532	-0.15907744
154	0x3d29de98	0.041472048
155	0x3e35f560	0.17769384
156	0xbe8898ca	-0.2667907
157	0x3ddb534c	0.10709247
158	0x3dfb23f0	0.12262714
159	0x3d8ccb44	0.06874707
160	0x3e625eac	0.22106427
161	0x39d25400	0.00040116906
162	0xb9bdf400	-0.00036230683
163	0xbe154212	-0.14575985
164	0xbcf79400	-0.03022194
165	0xbe376cbe	-0.17912576
166	0xbe91637b	-0.2839621
167	0xbd0870e0	-0.03331077
168	0xbd8a4cb2	-0.0675291
169	0x3e8583c9	0.26077107
170	0xbe1cb008	-0.15301526
171	0x3e06234b	0.130994
172	0xbe3f7763	-0.18697886
173	0x3e334484	0.17506605
174	0xbd504673	-0.050848436
175	0xbdf35f65	-0.118834294
176	0x3e933803	0.2875367
177	0x3ced65bf	0.02897918
178	0x3dd3940e	0.103309736
179	0x3c771525	0.015080725
180	0x3e860145	0.26172844
181	0x3daf67ba	0.08564706
182	0x3cc39f47	0.02387966
183	0x3e40ed64	0.18840557
184	0x3e46fa7b	0.19431488
185	0x3e49021d	0.19629712
186	0xbe4bec8f	-0.19914459
187	0x3df6be22	0.12047984
188	0x3cf28d5b	0.02960842
189	0xbe3ba538	-0.18324745
190	0xbe31ee19	-0.17375983
191	0xbe93b056	-0.2884547
192	0x3e370f34	0.17876893
193	0xbe76c6c8	-0.24099267
194	0xbc9673e8	-0.018365815
195	0xbe84313d	-0.25818816
196	0xbdd5b477	-0.104348116
197	0x3d9c5bd1	0.076347
198	0xbd47fc15	-0.04882439
199	0x3ca25b92	0.019819055
200	0x3d400870	0.046883047
201	0x3ccff9f3	0.02538774
202	0x3d2a1479	0.04152343
203	0xbe8b5edc	-0.2722081
204	0x3d0eebc8	0.034892827
205	0xbe3b1f0c	-0.18273562
206	0xbe91b180	-0.28455734
207	0xbdce4978	-0.10072607
208	0xbc57aa80	-0.013163209
209	0xbe50c42b	-0.20387332
210	0xbcbd1ac0	-0.023084044
211	0xbacba100	-0.0015535653
212	0x3e4f0084	0.2021504
213	0xbe8d7c59	-0.27633932
214	0xbe5f1a34	-0.2178734
215	0x3d9da360	0.07697177
216	0xbe89618d	-0.26832238
217	0x3e893c72	0.2680393
218	0xbca54f95	-0.02017955
219	0x3e4d088a	0.20022789
220	0x3e69319e	0.22772834
221	0x3e364632	0.17800215
222	0x3e6e6073	0.2327898
223	0x3e19de37	0.15026174
224	0xbe5a1c72	-0.21299914
225	0xbd904f87	-0.07046419
226	0xbc84b0d8	-0.016197607
227	0x3e383978	0.17990673
228	0xbb645680	-0.0034841597
229	0xbe420662	-0.18947747
230	0x3e4fd814	0.20297271
231	0xbe0362fc	-0.12830728
232	0xbe0560b4	-0.1302517
233	0xbd5bf138	-0.05369684
234	0xbe90cda1	-0.28281882
235	0xbda4f2dc	-0.08054134
236	0xbe6f9548	-0.2339679
237	0x3d2e2998	0.042520136
238	0x3e92f008	0.28698754
239	0x3d93a3fc	0.07209012
240	0x3e71c3b2	0.23609808
241	0xbb288067	-0.00257113
242	0xbe8dade7	-0.2767174
243	0xbda67bb3	-0.081290625
244	0x3e6cc51d	0.23122068
245	0xbe82f8db	-0.25580487
246	0x3e60bc69	0.21946873
247	0x3e5b7135	0.21429904
248	0xbe493796	-0.1965011
249	0x3dbd1fe6	0.092346
250	0xbd0ec7b9	-0.03485844
251	0x3e7e2ef7	0.24822603
252	0xbd8a536c	-0.06754193
253	0xbe2d96f8	-0.16952121
254	0xbe73767f	-0.23775671
255	0x3e5b5782	0.214201

layers.0.bias f4 [100]
0	0xbe06f2c1	-0.13178541
1	0x3e8aa879	0.2708166
2	0xbe6e7e67	-0.23290406
3	0x3dcd6a66	0.100300595
4	0xbe8c5b26	-0.2741329
5	0x3e78e58f	0.2430632
6	0x3e13eaac	0.14444989
7	0xbe4a67ed	-0.19766207
8	0xbe6a91db	-0.22907202
9	0xbd2b4049	-0.041809354
10	0x3d02e3e0	0.0319556
11	0xbe3062a0	-0.17225122
12	0x3e43c235	0.19117053
13	0xbe03ab12	-0.12858227
14	0xbe061aac	-0.13096112
15	0xbe2805c3	-0.16408448
16	0x3e59dc17	0.21275364
17	0x3dbab218	0.09116
18	0x3d4401e4	0.047853366
19	0xbc87d4d0	-0.01658097
20	0x3e3107a7	0.17288075
21	0xbd5e616e	-0.054292135
22	0x3d91c0cc	0.07116851
23	0xbe8ff199	-0.28114012
24	0x3e43b5a2	0.19112256
25	0x3d6140b0	0.05499333
26	0xbe64bea4	-0.22338349
27	0xbe4644ad	-0.19362135
28	0x3df977a4	0.12181023
29	0xbdc5d51b	-0.09659787
30	0xbe2638f4	-0.16232663
31	0xbdf57552	-0.11985268
32	0xbe1af17f	-0.15131186
33	0x3dbae491	0.09125627
34	0xbe8d8c93	-0.27646312
35	0xbe03b7e7	-0.12863122
36	0xbe19a388	-0.15003788
37	0x3e7aa7ae	0.24478027
38	0xbe0d32e0	-0.13788939
39	0x3e4bc6ca	0.19900051
40	0xbd28f25a	-0.04124675
41	0x3e04b8fe	0.12961194
42	0xbda7ffaa	-0.08203061
43	0xbe0bb899	-0.13644637
44	0xbdbfe669	-0.09370119
45	0x3d354391	0.04425389
46	0x3e831b85	0.25606933
47	0xbe2d3259	-0.16913737
48	0x3d55fdea	0.052244104
49	0x3e7ee290	0.24891114
50	0xbaf0e594	-0.0018378966
51	0xbe787ea5	-0.24267061
52	0x3e0e2548	0.13881409
53	0x3e47d85c	0.19516128
54	0x3d90b3f4	0.07065573
55	0xbe40642d	-0.18788214
56	0xbe6555a9	-0.22395958
57	0xbded5f56	-0.115904495
58	0x3d98ee7c	0.07467362
59	0x3d56148d	0.052265693
60	0xbe6e8728	-0.23293746
61	0xbe4df9c1	-0.20114805
62	0xbe1cdd03	-0.15318684
63	0xbd147517	-0.036244478
64	0xbe4da7cc	-0.2008354
65	0x3cf48631	0.029849144
66	0xbc040aa2	-0.008059176
67	0xbe414f41	-0.18877889
68	0x3e2e8ba2	0.17045453
69	0x3e581697	0.21102367
70	0x3e949235	0.29017797
71	0xbe1c5755	-0.1526769
72	0xbdf637c4	-0.12022355
73	0x3e6414a0	0.22273493
74	0x3e80f94e	0.25190204
75	0x3c4d2849	0.012521812
76	0x3e2abb60	0.1667304
77	0x3e84a4a3	0.25906858
78	0xbe4bb3cc	-0.19892806
79	0x3e1c4806	0.1526185
80	0xbdc9735c	-0.09836456
81	0xbc823410	-0.015893966
82	0x3cebea38	0.028798208
83	0xbd820193	-0.063479565
84	0x3e6becb9	0.23039521
85	0x3d9ec443	0.07752278
86	0x3da73f84	0.081664115
87	0xbe4814fe	-0.19539258
88	0x3e1949d8	0.14969575
89	0xbd2c4390	-0.04205662
90	0xbd34def0	-0.044157922
91	0x3dc41e2a	0.09576066
92	0x3e76da10	0.24106622
93	0xbe557048	-0.20843613
94	0x3e6878a5	0.22702272
95	0xbd9a0d98	-0.07522124
96	0x3e59340e	0.21211264
97	0xbc058fc0	-0.008151948
98	0x3e3e2e7f	0.18572424
99	0xbe24de39	-0.16100396

layers.2.weight f4 [200, 100]
0	0x3d6d79e2	0.057977565
1	0x3d76c4b2	0.060246177
2	0x3d414ea2	0.04719413
3	0x3c8194cc	0.015818022
4	0xbcfb4c8c	-0.030676149
5	0x3d84e98e	0.064898595
6	0x3d951181	0.07278729
7	0xbb223a92	-0.002475415
8	0xbddf6504	-0.10907939
9	0xbd3c0f65	-0.04591312
10	0xbd0a4e86	-0.033766292
11	0xbd9d1536	-0.07670061
12	0xbd0983ab	-0.033572834
13	0xbd0c81ac	-0.034303352
14	0x3d4dbe0e	0.05023008
15	0x3d783e36	0.060606204
16	0x3d1cc92f	0.0382778
17	0xbd3e52fd	-0.046465863
18	0x3ca2d633	0.019877529
19	0x3d405482	0.046955593
20	0xbd753066	-0.05986061
21	0x3d793cf8	0.06084916
22	0xbdb04037	-0.08605998
23	0xbd24bdfc	-0.040220246
24	0xbd3feae7	-0.04685488
25	0x3da3d93d	0.08000419
26	0xbd89ada0	-0.067225695
27	0xbd719c95	-0.05898722
28	0x3d42e088	0.04757741
29	0x3d887793	0.06663432
30	0xbd9ec93d	-0.07753227
31	0x3d04cfa0	0.03242457
32	0x3c383130	0.011242196
33	0x3cdeb1bc	0.02718436
34	0xba535b00	-0.0008062571
35	0x3ced804c	0.02899184
36	0x3d885acb	0.066579424
37	0x3d942769	0.072340794
38	0xbdb784ad	-0.08960853
39	0x3d63fef2	0.055663057
40	0x3cc07f0c	0.02349808
41	0xbdc7008b	-0.097169004
42	0x3ca98334	0.020692445
43	0xbd66d01a	-0.056350805
44	0x3d180768	0.03711644
45	0x3b11269a	0.0022148252
46	0xbcac2a52	-0.021016274
47	0x3d5becf6	0.05369278
48	0x3da18025	0.0788577
49	0xbc016110	-0.007896677
50	0x3d9e90a3	0.07742431
51	0x3d1e7952	0.03868992
52	0xbd87a6f1	-0.066236384
53	0x3d7fbeba	0.06243775
54	0xbd9672e5	-0.07346133
55	0x3b645d6b	0.003484572
56	0x3df14ce8	0.11782247
57	0xbc787a18	-0.015165828
58	0x3da7c7f9	0.08192439
59	0x3ce47b71	0.027890893
60	0x3d47a22f	0.048738655
61	0x3c6c4da7	0.014422811
62	0xbda7ea0e	-0.08198939
63	0x3da1ae56	0.0789458
64	0xbd9f98e9	-0.07792837
65	0xbcad5db1	-0.02116284
66	0xbd51a5c6	-0.051183484
67	0xbc813d5a	-0.015776325
68	0xbc015540	-0.00789386
69	0xbdd789a2	-0.10524298
70	0x3d9370e3	0.07199266
71	0xbd4f097c	-0.050546154
72	0xbd4d3683	-0.050100815
73	0xbcea8ed8	-0.028632566
74	0x3c205f1b	0.0097883
75	0xbb90dd1f	-0.004420891
76	0xbdc2bdb5	-0.0950884
77	0xbdc32a0b	-0.095295034
78	0xbd3f9113	-0.046769213
79	0xbd64cbd5	-0.055858452
80	0xbdc09e51	-0.094051965
81	0xbdb409e8	-0.08790952
82	0xbd9e6410	-0.07733929
83	0x3cb93363	0.02260751
84	0x3d76c8ed	0.06025021
85	0x3d993147	0.07480102
86	0xbc131e19	-0.008979344
87	0x3b928e1e	0.004472508
88	0x3d696791	0.056983534
89	0x3d983f39	0.07433934
90	0x3d1f347b	0.03886841
91	0xbdd9c806	-0.106338546
92	0xbcd21ca4	-0.025648423
93	0x3daf74c3	0.085671924
94	0xbdbab177	-0.0911588
95	0xbc8f8131	-0.017517658
96	0xb9290fe8	-0.00016123021
97	0x3dae3b5b	0.08507415
98	0xbd6c6baa	-0.057719864
99	0xbd047498	-0.032337755
100	0xbcc4f5ac	-0.024042927
101	0x3c38219c	0.011238482
102	0xbc0d44f0	-0.008622393
103	0x3b877b4f	0.0041345726
104	0x3d3c9512	0.046040602
105	0x3d5487b1	0.051887218
106	0xbda36e40	-0.07980013
107	0xbdeb6b7e	-0.11495112
108	0x3d866b0e	0.06563388
109	0xbb84fd2d	-0.004058501
110	0x3d325659	0.04353938
111	0x3dae9c7f	0.08525943
112	0x3d260f09	0.040541682
113	0x3cf0601c	0.029342704
114	0x3da999b7	0.08281272
115	0x3d661ec1	0.056181673
116	0x3cd69259	0.02619283
117	0x3d48f8b6	0.049065314
118	0xbb15f15c	-0.0022879457
119	0x3ccc6500	0.024950504
120	0x3db9e9b3	0.09077778
121	0x3d5c8ef0	0.053847253
122	0xbd5eb3fa	-0.054370858
123	0x3d461b3c	0.048365816
124	0x3de43046	0.1114202
125	0x3d38d6dc	0.04512678
126	0xbd873210	-0.066013455
127	0xbc1ca52a	-0.009560863
128	0xbc562a5d	-0.013071624
129	0x3d49dc4b	0.049282353
130	0xbcf88d88	-0.030340925
131	0xbda788a1	-0.08180357
132	0xbc3d1bd9	-0.011542284
133	0xbd154989	-0.03644708
134	0x3dc8ea7d	0.0981035
135	0xbc4afd91	-0.0123895565
136	0x3d47beb7	0.048765864
137	0x3d08463a	0.0332701
138	0x3d8cb815	0.06871048
139	0xbd0063fc	-0.031345353
140	0x3d3b56fd	0.045737255
141	0x3d527372	0.05137963
142	0xbc6b6107	-0.014366395
143	0xbd9a7d6d	-0.07543454
144	0xbcfe7240	-0.031060338
145	0xbd6c65fb	-0.057714444
146	0x3d511040	0.051040888
147	0xbd77392f	-0.06035727
148	0x3b67ee1f	0.0035389734
149	0x3db7e399	0.08978958
150	0x3d8055ce	0.06266366
151	0xbd03aeaa	-0.032148995
152	0xbdbd2092	-0.09234728
153	0xbd540db3	-0.051770877
154	0x3d85a5cf	0.06525766
155	0x3da247ff	0.079238884
156	0x3db74a12	0.08949675
157	0xbd1bad4f	-0.038007077
158	0xbd0793c4	-0.033099905
159	0xbd654249	-0.055971418
160	0x3d487da6	0.048947953
161	0x3dcf614c	0.1012598
162	0xbd2be7b6	-0.041969024
163	0x3cb84481	0.022493603
164	0x3dcefa4b	0.10106333
165	0x3ddd7f60	0.108153105
166	0xbdbb775d	-0.09153626
167	0xbd200ed5	-0.039076645
168	0x3c819054	0.015815891
169	0x3d5e3ee9	0.054259215
170	0xbd5ef542	-0.054433115
171	0xbd6e8b43	-0.05823828
172	0xbdcc9098	-0.099885166
173	0x3ccaa8ec	0.024738751
174	0x3df7a8cc	0.12092742
175	0xbd23fd2f	-0.040036377
176	0x3d6be844	0.057594553
177	0xbd74189e	-0.05959379
178	0xbafb4e67	-0.0019173146
179	0xbd1a5374	-0.037677243
180	0xbdf7ff5e	-0.12109254
181	0x3cee4075	0.02908347
182	0xbc196bc3	-0.009364071
183	0x3ddfc056	0.10925357
184	0xbdb086b9	-0.08619446
185	0xbd7c08a0	-0.061531663
186	0xbdb7b91e	-0.08970855
187	0x3cca41ac	0.024689518
188	0x3d1403ee	0.03613656
189	0x3d9b2cf9	0.07576937
190	0xbd0fc2c0	-0.035097837
191	0xbd966770	-0.07343948
192	0x3db1ebec	0.08687577
193	0xbdc603b0	-0.09668672
194	0x3ddc2e90	0.107510686
195	0x3d58ac2f	0.052898582
196	0x3d19502d	0.037429977
197	0x3dc6adef	0.09701144
198	0xbd96d03e	-0.07363938
199	0xbe0ed4de	-0.1394839
200	0xbcb31680	-0.021861315
201	0xbdaa7c53	-0.08324494
202	0xbd5884d3	-0.052861046
203	0x3ccb8e6c	0.024848185
204	0xbc915fd8	-0.017745897
205	0x3d866b41	0.06563426
206	0x3c2e0f18	0.010623716
207	0xbca27c78	-0.019834742
208	0xbd977a6e	-0.073963985
209	0x3dbe1ea5	0.09283189
210	0x3d0dea42	0.034647234
211	0x3d69a922	0.057046063
212	0xbd34241a	-0.04397974
213	0x3c2a2f28	0.0103872195
214	0xbd8ab022	-0.06771876
215	0x3d35fb5e	0.044429176
216	0x3b870bb0	0.0041212663
217	0xbd62d540	-0.055379152
218	0x3cfe949c	0.031076722
219	0x3d8e1c4d	0.06938992
220	0x3c494910	0.012285486
221	0x3c8c2958	0.017109558
222	0x3c378598	0.011201285
223	0xbd1c5b6a	-0.038173117
224	0xbd6f4483	-0.058414947
225	0xbd47b41a	-0.048755743
226	0xbcbf42c0	-0.023347259
227	0xbc859da8	-0.016310528
228	0x3c39cb70	0.011340007
229	0xbdac68ae	-0.084184036
230	0x3ca576c8	0.02019824
231	0x3d85cf35	0.06533662
232	0xbd2a7f3a	-0.04162524
233	0xbdcb7ca7	-0.09935885
234	0x3c8b1ad4	0.016980566
235	0xbd878afd	-0.06618307
236	0xbd1311ac	-0.035905525
237	0x3da8efb5	0.082488455
238	0xbc871e00	-0.016493797
239	0xbd87fdc5	-0.066401996
240	0x3c1706f0	0.009217963
241	0x3bba7ba0	0.005691007
242	0xbd462bc3	-0.04838158
243	0xbc8a1c54	-0.016859211
244	0xbc407630	-0.011746928
245	0xbd98673b	-0.07441565
246	0x3d180db6	0.03712245
247	0xbae940c0	-0.0017795786
248	0xbcf6920c	-0.030098937
249	0x3bb3df00	0.00548923
250	0xbcaccc48	-0.021093503
251	0x3d8637e5	0.0655363
252	0x3d8ee1a5	0.06976632
253	0x3d1e1812	0.038597174
254	0xbd20fea3	-0.03930534
255	0x3d8f5487	0.06998544

layers.2.bias f4 [200]
0	0xbac58979	-0.0015070877
1	0xbd79beac	-0.060972854
2	0x3d271862	0.040794738
3	0x3d9ff289	0.07809932
4	0xbdaf275d	-0.0855243
5	0x3c1aef5a	0.00945648
6	0xbdc1ca90	-0.09462464
7	0x3d894307	0.067022376
8	0x3d05997a	0.03261707
9	0xbcee612d	-0.029099071
10	0x3c5560d3	0.013023573
11	0xbcfea489	-0.031084316
12	0x3dc24a7a	0.094868615
13	0x3d5f96f4	0.05458732
14	0xbd2a6059	-0.04159579
15	0x3ddab2ac	0.1067861
16	0x3d3a8793	0.04553945
17	0xbc5cd4d0	-0.013478473
18	0xbda2c0fc	-0.07946965
19	0xbd9acbf0	-0.07558429
20	0x3d8c891e	0.068620905
21	0x3d017caa	0.03161303
22	0x3d93065b	0.071789466
23	0x3dae0360	0.084967375
24	0x3d7ed1c1	0.062211756
25	0xbb4a2921	-0.0030847269
26	0xbd951f4b	-0.07281359
27	0xbbc32f44	-0.0059565622
28	0x3dce528a	0.10074337
29	0x3d20ff76	0.039306127
30	0xbc208e84	-0.009799603
31	0x3dc66497	0.09687155
32	0x3d7143eb	0.058902662
33	0xbabc1fdb	-0.0014352755
34	0x3d15fa77	0.036615815
35	0x3d9868ba	0.0744185
36	0x3da98034	0.08276406
37	0xbdc29345	-0.09500746
38	0x3c531a98	0.012884758
39	0xbcb1785f	-0.021663843
40	0xbd040ab8	-0.032236785
41	0x3cf457bd	0.029826993
42	0xbc729ef0	-0.014808401
43	0xbd4f64cd	-0.05063324
44	0x3bc0b6c6	0.0058811633
45	0xbd69e66a	-0.057104506
46	0xbdb27c4d	-0.08715115
47	0x3c949bfe	0.01814079
48	0xbc508a2f	-0.012728258
49	0xbd8b4da2	-0.06801917
50	0xbd608ee3	-0.054823767
51	0xbd04ba2e	-0.032404117
52	0x3beaa665	0.007160949
53	0x3c9b6365	0.018968293
54	0xbdd26f53	-0.1027514
55	0xbcc0aeed	-0.023520911
56	0xbd890c09	-0.06691749
57	0xbd152bcc	-0.03641872
58	0x3dae5251	0.08511794
59	0x3ce67f86	0.02813698
60	0xbd911055	-0.07083193
61	0xbd465965	-0.048425097
62	0xbdbf8263	-0.09351041
63	0xbd9a46ad	-0.075330116
64	0x3d8ed015	0.06973282
65	0x3ca15d18	0.01969771
66	0xbcc62655	-0.0241882
67	0xbaddcb4b	-0.0016921548
68	0x3d3d973b	0.046286803
69	0xbda0b47c	-0.07846925
70	0x3d929878	0.07157987
71	0x3bbed406	0.005823615
72	0xbd3458dc	-0.044030055
73	0x3cd10345	0.025514254
74	0xbda6e95a	-0.08149977
75	0x3d6b3aef	0.05742925
76	0xbbc72fc7	-0.0060786936
77	0x3dc18381	0.094489105
78	0x3d6bbab5	0.057551105
79	0xbb80033c	-0.0039066356
80	0xbdb07edc	-0.086179465
81	0x3d033104	0.032029167
82	0xbd896ea2	-0.06710555
83	0x3dbfac49	0.09359033
84	0x3d8ba67b	0.06818863
85	0xbd074df4	-0.033033326
86	0x3bf19c9f	0.007373407
87	0xbd27ef40	-0.04099965
88	0x3d90d161	0.07071186
89	0x3da13e0d	0.07873163
90	0xbc86a695	-0.016436854
91	0x3d8b02f5	0.067876734
92	0x3c824443	0.01590169
93	0xbd7f345d	-0.062305797
94	0xbd3ea71d	-0.04654609
95	0xbc43477e	-0.011918901
96	0xbd451eb7	-0.048124995
97	0xbd874a25	-0.06605939
98	0x3dbd2c31	0.092369445
99	0x3da64cbb	0.08120104
100	0xbd564a9b	-0.052317243
101	0x3dd551d9	0.10416002
102	0x3c0d7901	0.008634807
103	0x3c1d2a08	0.009592541
104	0x3c25f753	0.0101297675
105	0xbd40d63d	-0.047079314
106	0xbc9a3b08	-0.018826976
107	0x3dbf3873	0.09336939
108	0x3c6e498f	0.014543905
109	0x3d87b14c	0.066256136
110	0x3d83a9ae	0.06428848
111	0xbbdc0480	-0.0067144036
112	0xbd326f82	-0.043563373
113	0x3d737d0b	0.059445422
114	0x3d286810	0.041114867
115	0x3d7168ce	0.05893784
116	0x3bc9ace6	0.0061546443
117	0x3dd38554	0.10328165
118	0xbc5c10d8	-0.01343175
119	0x3be9a530	0.0071302876
120	0xbd14c827	-0.036323693
121	0xbd1ac6f9	-0.03778741
122	0xbd9115dc	-0.070842475
123	0xbd5e4550	-0.05426532
124	0xbd95e92d	-0.073198654
125	0xbda27e33	-0.07934227
126	0xba0f206d	-0.0005459849
127	0xbca2d7e2	-0.019878332
128	0x3dc855c4	0.097819835
129	0xbce5983b	-0.02802669
130	0x3d884ec0	0.06655645
131	0xbc20dfe1	-0.009819002
132	0x3d989599	0.074504085
133	0x3b447b15	0.002998059
134	0x3d462c6a	0.0483822
135	0x3d8a5db7	0.06756156
136	0x3d689dac	0.056790993
137	0xbdac2f93	-0.084075116
138	0xbd84677a	-0.06465049
139	0xbd9d8fdf	-0.07693457
140	0xbbe0779e	-0.006850197
141	0x3dab7880	0.08372593
142	0x3b750a7f	0.003739029
143	0x3d99fca0	0.075188875
144	0x3dba477f	0.09095668
145	0xbca3b728	-0.019984797
146	0x3dd3f054	0.10348573
147	0xbd08be84	-0.033384815
148	0x3dc88f06	0.097929046
149	0x3da202db	0.07910701
150	0x3d39604e	0.04525786
151	0x3db81917	0.089891605
152	0xbc3f8c0b	-0.011691104
153	0xbd53b977	-0.051690545
154	0x3d27c06e	0.040955
155	0x3d92ff20	0.071775675
156	0x3d91fb7d	0.07128046
157	0xbdba8c3b	-0.09108778
158	0xbdb58d92	-0.08864893
159	0x3d6286b2	0.055304237
160	0xbd40a32a	-0.047030605
161	0x3c4bd29e	0.012440352
162	0x3d245a2f	0.04012507
163	0x3d927dd6	0.071529076
164	0xbd901f37	-0.07037204
165	0x3da82bb4	0.08211461
166	0xbcb1568b	-0.021647712
167	0xbdd20673	-0.10255136
168	0x3d5ac487	0.05341008
169	0x3d1b79e3	0.037958037
170	0xbdbf0cab	-0.09328588
171	0xbc95b2cf	-0.01827374
172	0x3c4ace63	0.012378308
173	0x3c5dc1a9	0.013534942
174	0x3dc6a802	0.09700014
175	0x3d8c76a9	0.0685857
176	0xbd090899	-0.033455465
177	0xbbf4648c	-0.007458275
178	0x3d4716c2	0.048605688
179	0x3dc587a2	0.096450105
180	0x3d70c825	0.058784623
181	0x3dc26e25	0.09493665
182	0xbd96945e	-0.073525175
183	0xbd294204	-0.041322723
184	0x3d1b1f1e	0.037871473
185	0x3c5de550	0.013543442
186	0x3d7cf572	0.061757512
187	0xbd89fc96	-0.0673763
188	0x3d433c1a	0.04766474
189	0x3ceaf90e	0.028683212
190	0xbd854c25	-0.06508664
191	0xbd812762	-0.0630634
192	0xbc00d1d0	-0.007862523
193	0xbdbcc4bd	-0.09217212
194	0xbd6abfce	-0.057311825
195	0xbd10e396	-0.035373293
196	0xbd256061	-0.040375117
197	0xbd4ccd32	-0.050000377
198	0xbc113965	-0.008863782
199	0xbd1a0f55	-0.037612278

layers.4.weight f4 [200, 200]
0	0x3d9029bb	0.070392095
1	0x3d37965e	0.044821136
2	0x3d832645	0.06403784
3	0x3d5782cc	0.052614972
4	0xbd7655e4	-0.060140505
5	0x3d2867bb	0.04111455
6	0xbd500fff	-0.050796505
7	0x3cb41c03	0.021986013
8	0x3a95f800	0.0011441708
9	0x3d0263d6	0.031833492
10	0xbd4569f6	-0.048196755
11	0x3cfe7a78	0.031064257
12	0x3de50378	0.11182302
13	0xbcb9906b	-0.022651872
14	0x3a83e597	0.001006293
15	0x3d83f85d	0.06443856
16	0x3d21bbde	0.039485805
17	0x3b8b662d	0.0042541237
18	0x3d6fec57	0.058575
19	0x3d6643d9	0.05621705
20	0xbbf15d99	-0.007365894
21	0xbd4c40d7	-0.049866524
22	0xbc36cf7c	-0.011157867
23	0xbd2ea749	-0.042640004
24	0xbc37c2aa	-0.011215845
25	0x3d8b82ac	0.06812033
26	0x3d664c97	0.056225386
27	0xbd019952	-0.03164036
28	0x3c94893c	0.018131845
29	0xbd88f0bb	-0.06686541
30	0xbcc11ba2	-0.023572747
31	0x3d940482	0.07227422
32	0xbd94545b	-0.07242652
33	0x3da846fe	0.08216666
34	0x3bc47bb0	0.00599619
35	0x3cc7f36e	0.024408069
36	0xbb3f4580	-0.0029185712
37	0xbbef70fb	-0.0073071695
38	0x3d6ee256	0.05832132
39	0x3cb8cdfc	0.022559159
40	0x3d56c096	0.052429758
41	0xbd1a66f6	-0.037695847
42	0xbd19a161	-0.03750742
43	0xbcdfc23e	-0.027314302
44	0x3d840a1b	0.0644724
45	0x3cb49ad8	0.022046492
46	0x3d2782af	0.040896114
47	0xbd7ef7ee	-0.062248163
48	0x3d730182	0.05932761
49	0x3d8ff631	0.07029379
50	0x3bb40870	0.00549417
51	0xbc447807	-0.011991507
52	0x3cc7e3c9	0.024400609
53	0xbcc883b9	-0.024476873
54	0xbd77adff	-0.06046867
55	0xbd1c8190	-0.038209498
56	0xbc4029d8	-0.011728726
57	0xbd7a2b0e	-0.061076216
58	0x3da32a57	0.0796706
59	0xbd863ffb	-0.06555172
60	0x3c997d0a	0.018736381
61	0x3d85b145	0.06527952
62	0xbcb69bf6	-0.022291165
63	0x3d8ec883	0.06971838
64	0x3d5dcd9f	0.054151174
65	0xbd7f915f	-0.062394496
66	0x3d32f822	0.04369367
67	0xbc58d924	-0.013235364
68	0xbc707ff3	-0.014678943
69	0xbd07b49f	-0.033131238
70	0xbcb3f81c	-0.021968894
71	0xbdb3d300	-0.087804794
72	0x3ccb44c8	0.02481307
73	0xbd0974a3	-0.0335585
74	0xbcc4da7c	-0.024029963
75	0xbd511ef5	-0.051054914
76	0xbd73c781	-0.059516434
77	0x3da8cdfd	0.08242414
78	0xbd0391ba	-0.032121398
79	0x3d354841	0.04425836
80	0x3d7d5f44	0.06185843
81	0xbd383f24	-0.04498209
82	0x3c55e501	0.013055087
83	0x3d7e87c1	0.062141184
84	0x3ccb333c	0.024804704
85	0x3d6187ee	0.055061273
86	0x3d749727	0.059714463
87	0xba8da662	-0.0010807032
88	0xbd63e2d8	-0.055636257
89	0x3a3e78c8	0.00072659226
90	0xbc906614	-0.0176268
91	0xbd1ddcb5	-0.03854056
92	0xbd1ea733	-0.038733672
93	0xbd5b2eee	-0.053511553
94	0x3d16f0f4	0.036850885
95	0x3a605b40	0.0008558519
96	0x3d3a293c	0.04544948
97	0xbd0e36f1	-0.034720365
98	0xbd6533bc	-0.05595754
99	0xbd74ee2d	-0.059797455
100	0x3cf53532	0.029932592
101	0xbd656886	-0.056007884
102	0xbc072867	-0.008249379
103	0xbd2c1a68	-0.04201737
104	0x3bf0f27c	0.007353125
105	0x3bcccaa0	0.0062497407
106	0x3d803a4b	0.062611185
107	0x3d6080e1	0.05481041
108	0xbd8b1e2c	-0.06792864
109	0x3cbedf2e	0.02329978
110	0xbcdf22d9	-0.027238296
111	0xbcd192f0	-0.02558276
112	0x3caf1392	0.021371637
113	0xbc8612de	-0.016366418
114	0xbc83aade	-0.016072687
115	0x3d7a964a	0.061178483
116	0xbbd73173	-0.006567174
117	0xbb72dc2a	-0.0037057498
118	0x3cce929c	0.025216393
119	0xbcef2b5a	-0.029195476
120	0xbb98c404	-0.0046620388
121	0x3d2bcafb	0.041941624
122	0xbd987dfe	-0.07445906
123	0xbd22cb0a	-0.039744414
124	0x3bfb7eb0	0.0076750144
125	0x3cef38fa	0.029201973
126	0xbcdb6f9a	-0.026786614
127	0xbc44a8be	-0.012003122
128	0x3cdab3ec	0.026697122
129	0xbc119df9	-0.008887761
130	0x3d525596	0.051351152
131	0xbcf86198	-0.030319974
132	0x3d08ded4	0.03341563
133	0x3d7eee3e	0.062238924
134	0xbd7fd615	-0.062460024
135	0x3bec83f0	0.0072178766
136	0xbd5c8377	-0.053836312
137	0xbca2a108	-0.019852176
138	0xbd5e4af8	-0.054270715
139	0xbd2de8a2	-0.042458184
140	0xbc9f3a6d	-0.01943704
141	0xbddf88ae	-0.109147415
142	0xbd1dfdb7	-0.03857204
143	0x3d1015b4	0.035176948
144	0xbd708f35	-0.058730323
145	0xbca46126	-0.020065855
146	0x3ddc36a7	0.107526116
147	0x3b006500	0.001959145
148	0x3d175adc	0.036951885
149	0xbc966415	-0.01835827
150	0x3d750b28	0.059825093
151	0x3d680fc6	0.056655668
152	0xbc5d6655	-0.013513167
153	0xbce2e73f	-0.027698157
154	0x3d77011f	0.060303804
155	0x3c81fe41	0.015868308
156	0x3caf4467	0.021394921
157	0x3c7fc638	0.015611224
158	0xbb899b20	-0.0041994005
159	0xbd8f4054	-0.069946915
160	0x3b501f6a	0.0031757005
161	0x3c4a8b18	0.012362264
162	0x3c304044	0.01075751
163	0xbcf0427e	-0.029328581
164	0x3d6e7cd1	0.058224503
165	0xbc552282	-0.013008716
166	0x3c175741	0.009237112
167	0xbbd00320	-0.006348029
168	0x3d831480	0.064003944
169	0x3ca0a1ad	0.019608343
170	0x3d09ca96	0.033640467
171	0x3d6c5c6f	0.05770534
172	0xbc7e23b3	-0.015511441
173	0x3da23ea4	0.07922104
174	0xbd2a88ce	-0.041634373
175	0xbd822094	-0.0635387
176	0xbc5b13b6	-0.013371399
177	0x3cae156e	0.021250453
178	0xba953700	-0.0011384189
179	0x3d9df425	0.077125825
180	0xbbbe3ae3	-0.0058053597
181	0x3d2615da	0.040548183
182	0xbc136059	-0.008995139
183	0xbc707d4f	-0.014678313
184	0xbd12de79	-0.035856698
185	0x3d3fe318	0.046847433
186	0x3cbad98e	0.022808816
187	0x3d880036	0.06640665
188	0x3bea9c50	0.007159747
189	0xbd120cb2	-0.03565664
190	0x3c8de72b	0.017322144
191	0x3d67bc91	0.056576315
192	0xbb44d220	-0.003003247
193	0xbccaab5d	-0.024739916
194	0x3ce05a9f	0.027386962
195	0x3b85cc20	0.0040831715
196	0x3d3913eb	0.04518501
197	0x3d96acf6	0.073572084
198	0xbb6b2849	-0.0035882166
199	0x3d2d516d	0.04231398
200	0xbd3f50d6	-0.04670795
201	0xbbb259a2	-0.005442814
202	0x3d696032	0.056976505
203	0xbd8f451f	-0.06995606
204	0x3d2e09ea	0.042489924
205	0xbb8987aa	-0.0041970806
206	0x3d0feafc	0.035136208
207	0xbd18b992	-0.03728635
208	0xbc5c5e4c	-0.0134502165
209	0xbd71ebad	-0.05906265
210	0x3c9f531c	0.01944881
211	0xbc87d916	-0.016583007
212	0x3d3886dd	0.04505049
213	0xbd4465ee	-0.04794877
214	0xbc678bc8	-0.014132448
215	0x3ca29812	0.019847903
216	0xbd0eee1b	-0.034895044
217	0xbb0459b3	-0.0020195066
218	0x3d521b58	0.05129561
219	0x3ce08c88	0.02741076
220	0x3c6f7cf7	0.014617196
221	0x3d3445c9	0.044011865
222	0xbd40d13e	-0.04707455
223	0x3d686cea	0.056744494
224	0xbd4a3c8b	-0.049374145
225	0x3c05bc1c	0.008162525
226	0xbd58d0a7	-0.05293336
227	0xbd85501e	-0.06509422
228	0x3d46b8df	0.04851615
229	0xbba64330	-0.0050739273
230	0xbd08c727	-0.03339305
231	0x3d7d1352	0.061786003
232	0xbcd1edd6	-0.025626104
233	0x3d6850cb	0.056717675
234	0x3d537234	0.051622584
235	0x3cca4380	0.02469039
236	0xbc964422	-0.018343035
237	0x3c94579c	0.018108182
238	0x3d7d787e	0.06188249
239	0x3c924d1b	0.017859032
240	0x3d24ea2a	0.04026238
241	0x3d29f0b1	0.041489307
242	0x3bd61600	0.0065333843
243	0xbd8626c5	-0.065503635
244	0xbd9d4bf6	-0.07680504
245	0x3d81903b	0.06326338
246	0x3c8b9a9c	0.017041497
247	0xbd250138	-0.040284365
248	0x3c99bd0f	0.018766908
249	0xbc88e46c	-0.016710483
250	0xbd8ba750	-0.06819022
251	0x3d312afa	0.043253876
252	0xbd5f5c04	-0.054531112
253	0x3c87d8f8	0.016582951
254	0x3d1b2482	0.037876613
255	0xbd297b70	-0.041377485

layers.4.bias f4 [200]
0	0xbd1dda8a	-0.038538493
1	0xbd97a3e0	-0.074043036
2	0xbd598e94	-0.05311449
3	0x3b9b7fe1	0.004745469
4	0xbd24a862	-0.040199645
5	0xbcf6a26a	-0.030106742
6	0xbcb9f4b0	-0.022699684
7	0xbd4e0523	-0.050297868
8	0x3d8ff80f	0.07029735
9	0xbd11fb59	-0.035640094
10	0x3cd46680	0.025927782
11	0xbcad8794	-0.021182813
12	0x3cf08466	0.029360007
13	0xbcab2fbc	-0.020896785
14	0xbcd5044a	-0.026003022
15	0xbc98ae56	-0.018637817
16	0xbc73e882	-0.014886977
17	0xba8bec8a	-0.0010675353
18	0x3bc753c0	0.006082982
19	0xbd45e2cf	-0.048312005
20	0xbd7fb490	-0.062428057
21	0x3d94c424	0.07263973
22	0xbd0b88da	-0.03406606
23	0x3d70c905	0.058785457
24	0x3b95f7d0	0.0045766607
25	0xbd10c940	-0.035348177
26	0xbd42dfa4	-0.04757656
27	0xbd7edf5e	-0.06222474
28	0xbb02d72b	-0.0019964676
29	0xba46ca00	-0.0007583201
30	0xbbb18c00	-0.0054183006
31	0x3d0c3f9e	0.034240358
32	0xbd157097	-0.036484327
33	0x3d76593a	0.060143687
34	0xba9b5a7b	-0.0011852527
35	0xbcc64b60	-0.024205863
36	0xbd4cff67	-0.05004826
37	0xbd0be2f5	-0.03415199
38	0xbd091433	-0.03346653
39	0xbc95b77d	-0.01827597
40	0x3c3177c3	0.010831776
41	0xbd841d74	-0.0645093
42	0x3d837e24	0.06420544
43	0xbd6b6582	-0.057469852
44	0xbcd100ba	-0.025513042
45	0xbc261b99	-0.010138416
46	0x3cf10a17	0.029423757
47	0xbd20fbc6	-0.03930261
48	0xbd90c693	-0.07069125
49	0x3c544484	0.0129557885
50	0x3da6a7c4	0.081374675
51	0x3c2b7007	0.010463721
52	0x3d6efe52	0.058348008
53	0x3d316340	0.043307543
54	0xbc1d62d8	-0.009606086
55	0xbd495a11	-0.04915816
56	0xbc39e2d3	-0.011345583
57	0x3b6269a0	0.003454782
58	0x3d083a44	0.03325869
59	0x3b707e78	0.0036696475
60	0x3d393ce6	0.045224093
61	0x3d2e1c11	0.042507235
62	0x3d33b30a	0.043871917
63	0xbd755050	-0.059891045
64	0xbd84d81a	-0.064865306
65	0xbd1df8c1	-0.03856731
66	0x3c3726c7	0.011178679
67	0x3c06c2f4	0.008225191
68	0xbd34d9b2	-0.044152923
69	0xbd2a17c6	-0.04152658
70	0xbca4956d	-0.020090783
71	0x3d867b52	0.0656649
72	0xbc0b7951	-0.008512811
73	0x3d0e3bce	0.034725003
74	0x3d337b42	0.04381872
75	0x3d9b02f9	0.07568926
76	0x3b652051	0.003496189
77	0x3b8238a3	0.003974037
78	0x3d4a056d	0.04932158
79	0x3b48519e	0.0030566226
80	0x3ab6da94	0.0013950639
81	0x3d3d251a	0.04617796
82	0xbd579eeb	-0.05264179
83	0xbd722f75	-0.05912729
84	0x3d57f4e8	0.052723795
85	0x3d6139bb	0.054986697
86	0x3ceea7e7	0.029132796
87	0xbd80f624	-0.062969476
88	0xbcc25d4b	-0.023726126
89	0x3d281bee	0.04104226
90	0xbd72d7ab	-0.05928771
91	0x3cae75f1	0.021296473
92	0xbca279a9	-0.019833403
93	0xbd85be8e	-0.06530486
94	0x3c851cbc	0.016249053
95	0x3ccac24c	0.024750851
96	0x3da2421c	0.079227656
97	0x3d75d1a9	0.0600144
98	0xbd83d6c4	-0.06437448
99	0xbd7dadfb	-0.0619335
100	0x3cf16986	0.029469263
101	0xbd732830	-0.059364498
102	0xbc43a278	-0.011940591
103	0xbd404c51	-0.04694778
104	0x3ca16951	0.01970354
105	0x3d6ae94d	0.0573514
106	0x3d154f03	0.036452305
107	0xbd3b3485	-0.045704383
108	0xbc24c7e9	-0.010057428
109	0x3c80dccf	0.01573029
110	0x3d92b310	0.0716306
111	0x3c5e3397	0.013562105
112	0x3c062386	0.00818718
113	0x3d2b050d	0.041752864
114	0xbd49f944	-0.049309984
115	0xbc958fae	-0.018256988
116	0x3b881e89	0.0041540307
117	0x3d541b13	0.051783632
118	0x3d3d81fd	0.046266545
119	0xbd7889b6	-0.060678206
120	0x3d74df7b	0.05978344
121	0xbd426636	-0.047460757
122	0x3d9a78c5	0.07542566
123	0x3d0a01bd	0.033693064
124	0x3d423695	0.047415335
125	0xbc9a10c5	-0.018806824
126	0xbc443088	-0.011974461
127	0xbd79dd3a	-0.061001994
128	0xbd600fb4	-0.054702476
129	0xbd40207c	-0.04690598
130	0xbd439d52	-0.047757454
131	0xbd52d97c	-0.05147694
132	0x3d4a241f	0.049350854
133	0xbcb870a6	-0.022514652
134	0x3d1a4de5	0.037671942
135	0xbd82cb4b	-0.06386431
136	0x3d63188a	0.055443324
137	0xbc2d3288	-0.01057113
138	0xbc93f929	-0.018063145
139	0xbd08743e	-0.033313982
140	0x3b1c46e0	0.0023845956
141	0x3b5d8125	0.00337989
142	0xbb6caa55	-0.0036112268
143	0x3d025570	0.03181976
144	0x3d9bd0df	0.076081984
145	0xbd8d3a49	-0.06895883
146	0xbcb258c2	-0.021770839
147	0x3d2d3c84	0.04229404
148	0xbd740fa3	-0.059585225
149	0x3cd9fe82	0.026610617
150	0x3d1e2f40	0.03861928
151	0xbd89d9e9	-0.06731016
152	0xbceb0756	-0.028690021
153	0x3c186d9d	0.009303478
154	0x3d1d5ec8	0.03842047
155	0x3d5d6154	0.054047897
156	0xbcc7014b	-0.024292609
157	0xbcbe992e	-0.023266401
158	0x3da08c3c	0.078392476
159	0x3d98133d	0.074255444
160	0x3d96b8f6	0.07359497
161	0xbd7d7b2e	-0.06188505
162	0x3d08566a	0.033285536
163	0x3d900616	0.07032411
164	0xbcd83ad4	-0.026395239
165	0x3c8ceb52	0.017202053
166	0x3d81cba4	0.063376695
167	0x3ccfaa2b	0.025349697
168	0xbd006c2e	-0.03135317
169	0xbd06ddf5	-0.03292652
170	0x3d664fe6	0.05622854
171	0xbce4eab4	-0.027943946
172	0xbd57c14a	-0.05267457
173	0xbd47fae3	-0.04882325
174	0x3d842d5a	0.064539626
175	0xbd8bb685	-0.06821922
176	0x3d199863	0.037498843
177	0xbc857921	-0.01629311
178	0xbd976417	-0.073921375
179	0x3cf47e01	0.02984524
180	0x3d2cf2f0	0.04222387
181	0xbd5749de	-0.05256068
182	0xbd6c98a8	-0.05776277
183	0xbc93ad90	-0.018027097
184	0xbd874267	-0.06604462
185	0xbd8604ea	-0.06543906
186	0x3cb9b3d1	0.022668751
187	0x3d562cad	0.0522887
188	0xbca4b6e7	-0.020106746
189	0x3d4875a0	0.0489403
190	0xbd0c4287	-0.034243133
191	0x3c8d9df8	0.01728724
192	0x3ce79890	0.02827099
193	0x3d778dbd	0.060437907
194	0x3c3fd4b1	0.011708424
195	0xbd721c2d	-0.0591089
196	0xbd4dc6b4	-0.050238326
197	0xbd29081c	-0.0412675
198	0xbcfd600c	-0.030929588
199	0x3d18580f	0.037193354

layers.6.weight f4 [1, 200]
0	0xbd956ed3	-0.07296529
1	0x3d4b1886	0.049583934
2	0xbbc71450	-0.0060754195
3	0xbb0a23e0	-0.0021078512
4	0xbd5b79af	-0.053582843
5	0xbd8f1d90	-0.069880605
6	0xbd289f5e	-0.04116761
7	0x3c974a14	0.01846794
8	0x3d21bee8	0.039488703
9	0xbbf39320	-0.00743331
10	0x3b91cc3c	0.0044493955
11	0x3d8f8305	0.07007412
12	0xbc41b33a	-0.011822516
13	0xbc4c8016	-0.01248171
14	0x3ae2ac00	0.0017293692
15	0x3d79f606	0.06102564
16	0xbb04f69e	-0.0020288597
17	0x3d8b043d	0.06787918
18	0x3c8a0b34	0.016851045
19	0xbbe16afe	-0.0068792095
20	0x3d15952a	0.036519207
21	0x3d8593df	0.06522345
22	0x3c670ef4	0.014102686
23	0x3d37b2b0	0.044848144
24	0x3d526b76	0.051372014
25	0x3b368b7c	0.0027854135
26	0xbc82a5e8	-0.01594825
27	0xbd6a57cb	-0.057212632
28	0xbd445a16	-0.047937475
29	0x3cb58278	0.022156939
30	0x3ca9f270	0.020745486
31	0x3c817130	0.015801042
32	0x3d8e63c3	0.06952622
33	0x3b7030a0	0.0036650077
34	0x3cb1af1f	0.02168995
35	0xbc811b2a	-0.015760023
36	0x3c82a5f7	0.015948279
37	0xbbac01c0	-0.005249232
38	0x3d846bf7	0.06465905
39	0x3cd8748b	0.02642276
40	0x3d367f45	0.044554967
41	0xbb386ffb	-0.0028142917
42	0x3d9d4420	0.076790094
43	0xbd899404	-0.06717685
44	0xbd361656	-0.044454895
45	0x3d52f135	0.051499564
46	0x3d30c7ab	0.04315917
47	0xbc8c9def	-0.017165152
48	0x3d514860	0.051094413
49	0xbd7553ef	-0.0598945
50	0x3d9d411d	0.07678435
51	0x3d8aef89	0.06783969
52	0x3c96090a	0.018314857
53	0xbd641deb	-0.055692594
54	0x3c364b10	0.011126295
55	0x3d7fdb44	0.062464967
56	0xbd5b5955	-0.05355199
57	0x3d7a9d0e	0.061184935
58	0x3d54366b	0.05180971
59	0x3d25af83	0.040450584
60	0xbd02fe9a	-0.03198109
61	0xbccf5161	-0.02530736
62	0xbd716adb	-0.058939796
63	0x3cae0dd7	0.021246834
64	0xbd7cfa70	-0.061762273
65	0xbcd48f2a	-0.025947172
66	0xbbae1465	-0.00531249
67	0x3d1e3dad	0.038633037
68	0xbcc2187d	-0.023693318
69	0x3d9a5973	0.07536592
70	0x3cf4c5da	0.0298795
71	0x3cc57a2c	0.024106108
72	0xbd285817	-0.041099634
73	0xbd5181e3	-0.05114926
74	0x3d587a80	0.0528512
75	0x3d7957cf	0.060874756
76	0xbbea6a3e	-0.0071537783
77	0xbc89c6fd	-0.016818518
78	0xbd25e27d	-0.0404992
79	0xbc9856af	-0.018596021
80	0x3d765fc5	0.060149927
81	0x3d217919	0.03942213
82	0xbc48eb31	-0.012263105
83	0x3cae6676	0.021289092
84	0x3d3121ad	0.043245006
85	0x3d0e778a	0.03478197
86	0x3c343ee4	0.011001322
87	0x3d4de9f6	0.05027195
88	0x3c390231	0.011292026
89	0xbd223a8d	-0.03960662
90	0xbd5491ef	-0.051896986
91	0x3d91e879	0.07124419
92	0x3ce79375	0.028268555
93	0xbbbaf530	-0.005705498
94	0xbb8a5e60	-0.004222676
95	0x3ae07740	0.0017125383
96	0x3d0b5274	0.03401418
97	0x3c1889d1	0.009310202
98	0x3cbdcfb4	0.02317033
99	0xbd958053	-0.072998665
100	0x3d56c7ae	0.052436523
101	0x3d2c348e	0.042042308
102	0x3b23db80	0.0025002658
103	0x3c7281e6	0.014801478
104	0x3d0aefb1	0.033919994
105	0xbd34230b	-0.043978732
106	0x3d6bdba7	0.057582524
107	0x3d5f4535	0.05450936
108	0x3d5b4afb	0.053538304
109	0x3a77d825	0.00094545103
110	0x3d21a5cf	0.039464768
111	0xbccc2311	-0.024919065
112	0x3d96f3b8	0.073707044
113	0x3c4b6aed	0.01241563
114	0x3d99f963	0.0751827
115	0xbcaff332	-0.02147827
116	0xb9de1045	-0.0004235526
117	0x3c61be76	0.01377832
118	0xbd749d04	-0.059720054
119	0xbc0125a0	-0.007882506
120	0x3d7a4885	0.061104316
121	0xbd023807	-0.031791713
122	0x3d611562	0.054952033
123	0x3d82f06c	0.06393513
124	0xbd6ebf0c	-0.058287665
125	0x3bb42bc4	0.0054983813
126	0xbd572402	-0.052524574
127	0x3bcc9840	0.0062437356
128	0x3cc29c33	0.023756122
129	0xbd232f72	-0.03984017
130	0xbc959b13	-0.018262422
131	0x3d1c3eb8	0.03814575
132	0xbd517ba8	-0.05114332
133	0x3d3a5228	0.045488507
134	0xbcd28979	-0.025700318
135	0xbd81b842	-0.063339725
136	0xbca7c9b5	-0.020481924
137	0xbd131b18	-0.03591451
138	0x3d5702ff	0.05249309
139	0x3c26aef4	0.010173548
140	0x3d95a639	0.07307095
141	0x3c3e24c6	0.011605447
142	0x3b456ccf	0.003012467
143	0x3c7e2b1d	0.015513209
144	0x3cc84d6e	0.024450984
145	0xbb0b1f21	-0.002122827
146	0xbd8bad76	-0.068201944
147	0xbd74711b	-0.05967818
148	0x3d35b7ba	0.04436467
149	0x3cfd5df4	0.03092859
150	0xbd6eb522	-0.05827821
151	0xbcade85d	-0.021228964
152	0x3d94fe98	0.072751224
153	0x3bd15721	0.0063885604
154	0xbcaeb3ff	-0.021326063
155	0xbd7fb0da	-0.06242452
156	0xbd415f27	-0.047209885
157	0xbd74fbb5	-0.05981036
158	0x3d327b58	0.04357466
159	0x3d68a79c	0.05680047
160	0x3bef819d	0.0073091523
161	0xbd64cd89	-0.055860076
162	0xbd268da1	-0.04066241
163	0x3d0e69da	0.034768917
164	0x3d81b2b3	0.06332912
165	0x3d9bccd3	0.076074265
166	0x3d8bc665	0.0682495
167	0x3c9cfc00	0.019163132
168	0xbd22ef91	-0.03977925
169	0xbd41148d	-0.04713874
170	0x3d750d0a	0.05982689
171	0x3d53d0cb	0.051712792
172	0x3cd6a846	0.026203286
173	0xbd428f79	-0.047500107
174	0x3cc4df2c	0.024032198
175	0xbd58be37	-0.052915778
176	0xbc9e74dc	-0.019342832
177	0xbd4e7ea0	-0.050413728
178	0x3b356b67	0.0027682425
179	0x3a3a6084	0.0007109719
180	0x3da3bbd7	0.07994812
181	0x3d10c4c2	0.035343893
182	0xb82c4000	-4.10676e-05
183	0xbd0a3058	-0.03373751
184	0xbd80e526	-0.062937066
185	0x3b066200	0.002050519
186	0x3c266cb0	0.010157749
187	0x3bf3d12f	0.007440708
188	0x3d0e6cc4	0.034771696
189	0x3d4ccc94	0.04999979
190	0x3ce4114b	0.027840277
191	0xbd32a270	-0.043611944
192	0xbd6a9c69	-0.05727807
193	0xbd81cca3	-0.063378595
194	0x3d5b4278	0.053530186
195	0x3d82175d	0.063521124
196	0x3d2e13cc	0.04249935
197	0xbced9faf	-0.029006807
198	0xbbf33db5	-0.0074231275
199	0x3cc0bd29	0.023527699
